{"modelTopology": {"node": [{"name": "image_tensor", "op": "Placeholder", "attr": {"shape": {"shape": {"dim": [{"size": "-1"}, {"size": "-1"}, {"size": "-1"}, {"size": "3"}]}}, "dtype": {"type": "DT_UINT8"}}}, {"name": "Postprocessor/BatchMultiClassNonMaxSuppression/map/TensorArrayUnstack_1/strided_slice/stack_1", "op": "Const", "attr": {"value": {"tensor": {"dtype": "DT_INT32", "tensorShape": {"dim": [{"size": "1"}]}}}, "dtype": {"type": "DT_INT32"}}}, {"name": "Postprocessor/BatchMultiClassNonMaxSuppression/map/TensorArrayUnstack_1/strided_slice/stack", "op": "Const", "attr": {"value": {"tensor": {"dtype": "DT_INT32", "tensorShape": {"dim": [{"size": "1"}]}}}, "dtype": {"type": "DT_INT32"}}}, {"name": "BoxPredictor_0/Reshape_1/shape/2", "op": "Const", "attr": {"value": {"tensor": {"dtype": "DT_INT32", "tensorShape": {}}}, "dtype": {"type": "DT_INT32"}}}, {"name": "BoxPredictor_0/Reshape/shape/3", "op": "Const", "attr": {"value": {"tensor": {"dtype": "DT_INT32", "tensorShape": {}}}, "dtype": {"type": "DT_INT32"}}}, {"name": "Postprocessor/BatchMultiClassNonMaxSuppression/strided_slice_1/stack_1", "op": "Const", "attr": {"value": {"tensor": {"dtype": "DT_INT32", "tensorShape": {"dim": [{"size": "1"}]}}}, "dtype": {"type": "DT_INT32"}}}, {"name": "Postprocessor/BatchMultiClassNonMaxSuppression/map/TensorArrayStack/range/delta", "op": "Const", "attr": {"value": {"tensor": {"dtype": "DT_INT32", "tensorShape": {}}}, "dtype": {"type": "DT_INT32"}}}, {"name": "BoxPredictor_0/Reshape_1/shape/1", "op": "Const", "attr": {"value": {"tensor": {"dtype": "DT_INT32", "tensorShape": {}}}, "dtype": {"type": "DT_INT32"}}}, {"name": "FeatureExtractor/MobilenetV2/layer_19_2_Conv2d_5_3x3_s2_128/BatchNorm/FusedBatchNorm/Offset", "op": "Const", "attr": {"value": {"tensor": {"dtype": "DT_FLOAT", "tensorShape": {"dim": [{"size": "128"}]}}}, "dtype": {"type": "DT_FLOAT"}}}, {"name": "FeatureExtractor/MobilenetV2/layer_19_2_Conv2d_5_3x3_s2_128/Conv2D/merged_input", "op": "Const", "attr": {"value": {"tensor": {"dtype": "DT_FLOAT", "tensorShape": {"dim": [{"size": "1"}, {"size": "1"}, {"size": "64"}, {"size": "128"}]}}}, "dtype": {"type": "DT_FLOAT"}}}, {"name": "FeatureExtractor/MobilenetV2/layer_19_2_Conv2d_5_3x3_s2_128_depthwise/BatchNorm/FusedBatchNorm/Offset", "op": "Const", "attr": {"value": {"tensor": {"dtype": "DT_FLOAT", "tensorShape": {"dim": [{"size": "64"}]}}}, "dtype": {"type": "DT_FLOAT"}}}, {"name": "FeatureExtractor/MobilenetV2/layer_19_2_Conv2d_5_3x3_s2_128_depthwise/BatchNorm/FusedBatchNorm/Scaled", "op": "Const", "attr": {"value": {"tensor": {"dtype": "DT_FLOAT", "tensorShape": {"dim": [{"size": "64"}]}}}, "dtype": {"type": "DT_FLOAT"}}}, {"name": "FeatureExtractor/MobilenetV2/layer_19_2_Conv2d_5_3x3_s2_128_depthwise/depthwise_weights", "op": "Const", "attr": {"value": {"tensor": {"dtype": "DT_FLOAT", "tensorShape": {"dim": [{"size": "3"}, {"size": "3"}, {"size": "64"}, {"size": "1"}]}}}, "dtype": {"type": "DT_FLOAT"}}}, {"name": "FeatureExtractor/MobilenetV2/layer_19_1_Conv2d_5_1x1_64/BatchNorm/FusedBatchNorm/Offset", "op": "Const", "attr": {"value": {"tensor": {"dtype": "DT_FLOAT", "tensorShape": {"dim": [{"size": "64"}]}}}, "dtype": {"type": "DT_FLOAT"}}}, {"name": "FeatureExtractor/MobilenetV2/layer_19_1_Conv2d_5_1x1_64/Conv2D/merged_input", "op": "Const", "attr": {"value": {"tensor": {"dtype": "DT_FLOAT", "tensorShape": {"dim": [{"size": "1"}, {"size": "1"}, {"size": "256"}, {"size": "64"}]}}}, "dtype": {"type": "DT_FLOAT"}}}, {"name": "FeatureExtractor/MobilenetV2/layer_19_2_Conv2d_4_3x3_s2_256/BatchNorm/FusedBatchNorm/Offset", "op": "Const", "attr": {"value": {"tensor": {"dtype": "DT_FLOAT", "tensorShape": {"dim": [{"size": "256"}]}}}, "dtype": {"type": "DT_FLOAT"}}}, {"name": "FeatureExtractor/MobilenetV2/layer_19_2_Conv2d_4_3x3_s2_256/Conv2D/merged_input", "op": "Const", "attr": {"value": {"tensor": {"dtype": "DT_FLOAT", "tensorShape": {"dim": [{"size": "1"}, {"size": "1"}, {"size": "128"}, {"size": "256"}]}}}, "dtype": {"type": "DT_FLOAT"}}}, {"name": "FeatureExtractor/MobilenetV2/layer_19_2_Conv2d_4_3x3_s2_256_depthwise/BatchNorm/FusedBatchNorm/Offset", "op": "Const", "attr": {"value": {"tensor": {"dtype": "DT_FLOAT", "tensorShape": {"dim": [{"size": "128"}]}}}, "dtype": {"type": "DT_FLOAT"}}}, {"name": "FeatureExtractor/MobilenetV2/layer_19_2_Conv2d_4_3x3_s2_256_depthwise/BatchNorm/FusedBatchNorm/Scaled", "op": "Const", "attr": {"value": {"tensor": {"dtype": "DT_FLOAT", "tensorShape": {"dim": [{"size": "128"}]}}}, "dtype": {"type": "DT_FLOAT"}}}, {"name": "FeatureExtractor/MobilenetV2/layer_19_2_Conv2d_4_3x3_s2_256_depthwise/depthwise_weights", "op": "Const", "attr": {"value": {"tensor": {"dtype": "DT_FLOAT", "tensorShape": {"dim": [{"size": "3"}, {"size": "3"}, {"size": "128"}, {"size": "1"}]}}}, "dtype": {"type": "DT_FLOAT"}}}, {"name": "FeatureExtractor/MobilenetV2/layer_19_1_Conv2d_4_1x1_128/BatchNorm/FusedBatchNorm/Offset", "op": "Const", "attr": {"value": {"tensor": {"dtype": "DT_FLOAT", "tensorShape": {"dim": [{"size": "128"}]}}}, "dtype": {"type": "DT_FLOAT"}}}, {"name": "FeatureExtractor/MobilenetV2/layer_19_1_Conv2d_4_1x1_128/Conv2D/merged_input", "op": "Const", "attr": {"value": {"tensor": {"dtype": "DT_FLOAT", "tensorShape": {"dim": [{"size": "1"}, {"size": "1"}, {"size": "256"}, {"size": "128"}]}}}, "dtype": {"type": "DT_FLOAT"}}}, {"name": "FeatureExtractor/MobilenetV2/layer_19_2_Conv2d_3_3x3_s2_256/BatchNorm/FusedBatchNorm/Offset", "op": "Const", "attr": {"value": {"tensor": {"dtype": "DT_FLOAT", "tensorShape": {"dim": [{"size": "256"}]}}}, "dtype": {"type": "DT_FLOAT"}}}, {"name": "FeatureExtractor/MobilenetV2/layer_19_2_Conv2d_3_3x3_s2_256/Conv2D/merged_input", "op": "Const", "attr": {"value": {"tensor": {"dtype": "DT_FLOAT", "tensorShape": {"dim": [{"size": "1"}, {"size": "1"}, {"size": "128"}, {"size": "256"}]}}}, "dtype": {"type": "DT_FLOAT"}}}, {"name": "FeatureExtractor/MobilenetV2/layer_19_2_Conv2d_3_3x3_s2_256_depthwise/BatchNorm/FusedBatchNorm/Offset", "op": "Const", "attr": {"value": {"tensor": {"dtype": "DT_FLOAT", "tensorShape": {"dim": [{"size": "128"}]}}}, "dtype": {"type": "DT_FLOAT"}}}, {"name": "FeatureExtractor/MobilenetV2/layer_19_2_Conv2d_3_3x3_s2_256_depthwise/BatchNorm/FusedBatchNorm/Scaled", "op": "Const", "attr": {"value": {"tensor": {"dtype": "DT_FLOAT", "tensorShape": {"dim": [{"size": "128"}]}}}, "dtype": {"type": "DT_FLOAT"}}}, {"name": "FeatureExtractor/MobilenetV2/layer_19_2_Conv2d_3_3x3_s2_256_depthwise/depthwise_weights", "op": "Const", "attr": {"value": {"tensor": {"dtype": "DT_FLOAT", "tensorShape": {"dim": [{"size": "3"}, {"size": "3"}, {"size": "128"}, {"size": "1"}]}}}, "dtype": {"type": "DT_FLOAT"}}}, {"name": "FeatureExtractor/MobilenetV2/layer_19_1_Conv2d_3_1x1_128/BatchNorm/FusedBatchNorm/Offset", "op": "Const", "attr": {"value": {"tensor": {"dtype": "DT_FLOAT", "tensorShape": {"dim": [{"size": "128"}]}}}, "dtype": {"type": "DT_FLOAT"}}}, {"name": "FeatureExtractor/MobilenetV2/layer_19_1_Conv2d_3_1x1_128/Conv2D/merged_input", "op": "Const", "attr": {"value": {"tensor": {"dtype": "DT_FLOAT", "tensorShape": {"dim": [{"size": "1"}, {"size": "1"}, {"size": "512"}, {"size": "128"}]}}}, "dtype": {"type": "DT_FLOAT"}}}, {"name": "FeatureExtractor/MobilenetV2/layer_19_2_Conv2d_2_3x3_s2_512/BatchNorm/FusedBatchNorm/Offset", "op": "Const", "attr": {"value": {"tensor": {"dtype": "DT_FLOAT", "tensorShape": {"dim": [{"size": "512"}]}}}, "dtype": {"type": "DT_FLOAT"}}}, {"name": "FeatureExtractor/MobilenetV2/layer_19_2_Conv2d_2_3x3_s2_512/Conv2D/merged_input", "op": "Const", "attr": {"value": {"tensor": {"dtype": "DT_FLOAT", "tensorShape": {"dim": [{"size": "1"}, {"size": "1"}, {"size": "256"}, {"size": "512"}]}}}, "dtype": {"type": "DT_FLOAT"}}}, {"name": "FeatureExtractor/MobilenetV2/layer_19_2_Conv2d_2_3x3_s2_512_depthwise/BatchNorm/FusedBatchNorm/Offset", "op": "Const", "attr": {"value": {"tensor": {"dtype": "DT_FLOAT", "tensorShape": {"dim": [{"size": "256"}]}}}, "dtype": {"type": "DT_FLOAT"}}}, {"name": "FeatureExtractor/MobilenetV2/layer_19_2_Conv2d_2_3x3_s2_512_depthwise/BatchNorm/FusedBatchNorm/Scaled", "op": "Const", "attr": {"value": {"tensor": {"dtype": "DT_FLOAT", "tensorShape": {"dim": [{"size": "256"}]}}}, "dtype": {"type": "DT_FLOAT"}}}, {"name": "FeatureExtractor/MobilenetV2/layer_19_2_Conv2d_2_3x3_s2_512_depthwise/depthwise_weights", "op": "Const", "attr": {"value": {"tensor": {"dtype": "DT_FLOAT", "tensorShape": {"dim": [{"size": "3"}, {"size": "3"}, {"size": "256"}, {"size": "1"}]}}}, "dtype": {"type": "DT_FLOAT"}}}, {"name": "FeatureExtractor/MobilenetV2/layer_19_1_Conv2d_2_1x1_256/BatchNorm/FusedBatchNorm/Offset", "op": "Const", "attr": {"value": {"tensor": {"dtype": "DT_FLOAT", "tensorShape": {"dim": [{"size": "256"}]}}}, "dtype": {"type": "DT_FLOAT"}}}, {"name": "FeatureExtractor/MobilenetV2/layer_19_1_Conv2d_2_1x1_256/Conv2D/merged_input", "op": "Const", "attr": {"value": {"tensor": {"dtype": "DT_FLOAT", "tensorShape": {"dim": [{"size": "1"}, {"size": "1"}, {"size": "1280"}, {"size": "256"}]}}}, "dtype": {"type": "DT_FLOAT"}}}, {"name": "FeatureExtractor/MobilenetV2/Conv_1/BatchNorm/FusedBatchNorm/Offset", "op": "Const", "attr": {"value": {"tensor": {"dtype": "DT_FLOAT", "tensorShape": {"dim": [{"size": "1280"}]}}}, "dtype": {"type": "DT_FLOAT"}}}, {"name": "FeatureExtractor/MobilenetV2/Conv_1/Conv2D/merged_input", "op": "Const", "attr": {"value": {"tensor": {"dtype": "DT_FLOAT", "tensorShape": {"dim": [{"size": "1"}, {"size": "1"}, {"size": "320"}, {"size": "1280"}]}}}, "dtype": {"type": "DT_FLOAT"}}}, {"name": "FeatureExtractor/MobilenetV2/expanded_conv_16/project/BatchNorm/FusedBatchNorm/Offset", "op": "Const", "attr": {"value": {"tensor": {"dtype": "DT_FLOAT", "tensorShape": {"dim": [{"size": "320"}]}}}, "dtype": {"type": "DT_FLOAT"}}}, {"name": "FeatureExtractor/MobilenetV2/expanded_conv_16/project/Conv2D/merged_input", "op": "Const", "attr": {"value": {"tensor": {"dtype": "DT_FLOAT", "tensorShape": {"dim": [{"size": "1"}, {"size": "1"}, {"size": "960"}, {"size": "320"}]}}}, "dtype": {"type": "DT_FLOAT"}}}, {"name": "FeatureExtractor/MobilenetV2/expanded_conv_16/depthwise/BatchNorm/FusedBatchNorm/Offset", "op": "Const", "attr": {"value": {"tensor": {"dtype": "DT_FLOAT", "tensorShape": {"dim": [{"size": "960"}]}}}, "dtype": {"type": "DT_FLOAT"}}}, {"name": "FeatureExtractor/MobilenetV2/expanded_conv_16/depthwise/BatchNorm/FusedBatchNorm/Scaled", "op": "Const", "attr": {"value": {"tensor": {"dtype": "DT_FLOAT", "tensorShape": {"dim": [{"size": "960"}]}}}, "dtype": {"type": "DT_FLOAT"}}}, {"name": "FeatureExtractor/MobilenetV2/expanded_conv_16/depthwise/depthwise_weights", "op": "Const", "attr": {"value": {"tensor": {"dtype": "DT_FLOAT", "tensorShape": {"dim": [{"size": "3"}, {"size": "3"}, {"size": "960"}, {"size": "1"}]}}}, "dtype": {"type": "DT_FLOAT"}}}, {"name": "FeatureExtractor/MobilenetV2/expanded_conv_16/expand/BatchNorm/FusedBatchNorm/Offset", "op": "Const", "attr": {"value": {"tensor": {"dtype": "DT_FLOAT", "tensorShape": {"dim": [{"size": "960"}]}}}, "dtype": {"type": "DT_FLOAT"}}}, {"name": "FeatureExtractor/MobilenetV2/expanded_conv_16/expand/Conv2D/merged_input", "op": "Const", "attr": {"value": {"tensor": {"dtype": "DT_FLOAT", "tensorShape": {"dim": [{"size": "1"}, {"size": "1"}, {"size": "160"}, {"size": "960"}]}}}, "dtype": {"type": "DT_FLOAT"}}}, {"name": "FeatureExtractor/MobilenetV2/expanded_conv_13/project/BatchNorm/FusedBatchNorm/Offset", "op": "Const", "attr": {"value": {"tensor": {"dtype": "DT_FLOAT", "tensorShape": {"dim": [{"size": "160"}]}}}, "dtype": {"type": "DT_FLOAT"}}}, {"name": "FeatureExtractor/MobilenetV2/expanded_conv_13/project/Conv2D/merged_input", "op": "Const", "attr": {"value": {"tensor": {"dtype": "DT_FLOAT", "tensorShape": {"dim": [{"size": "1"}, {"size": "1"}, {"size": "576"}, {"size": "160"}]}}}, "dtype": {"type": "DT_FLOAT"}}}, {"name": "FeatureExtractor/MobilenetV2/expanded_conv_13/depthwise/BatchNorm/FusedBatchNorm/Offset", "op": "Const", "attr": {"value": {"tensor": {"dtype": "DT_FLOAT", "tensorShape": {"dim": [{"size": "576"}]}}}, "dtype": {"type": "DT_FLOAT"}}}, {"name": "FeatureExtractor/MobilenetV2/expanded_conv_13/depthwise/BatchNorm/FusedBatchNorm/Scaled", "op": "Const", "attr": {"value": {"tensor": {"dtype": "DT_FLOAT", "tensorShape": {"dim": [{"size": "576"}]}}}, "dtype": {"type": "DT_FLOAT"}}}, {"name": "FeatureExtractor/MobilenetV2/expanded_conv_13/depthwise/depthwise_weights", "op": "Const", "attr": {"value": {"tensor": {"dtype": "DT_FLOAT", "tensorShape": {"dim": [{"size": "3"}, {"size": "3"}, {"size": "576"}, {"size": "1"}]}}}, "dtype": {"type": "DT_FLOAT"}}}, {"name": "FeatureExtractor/MobilenetV2/expanded_conv_13/expand/BatchNorm/FusedBatchNorm/Offset", "op": "Const", "attr": {"value": {"tensor": {"dtype": "DT_FLOAT", "tensorShape": {"dim": [{"size": "576"}]}}}, "dtype": {"type": "DT_FLOAT"}}}, {"name": "FeatureExtractor/MobilenetV2/expanded_conv_13/expand/Conv2D/merged_input", "op": "Const", "attr": {"value": {"tensor": {"dtype": "DT_FLOAT", "tensorShape": {"dim": [{"size": "1"}, {"size": "1"}, {"size": "96"}, {"size": "576"}]}}}, "dtype": {"type": "DT_FLOAT"}}}, {"name": "FeatureExtractor/MobilenetV2/expanded_conv_10/project/BatchNorm/FusedBatchNorm/Offset", "op": "Const", "attr": {"value": {"tensor": {"dtype": "DT_FLOAT", "tensorShape": {"dim": [{"size": "96"}]}}}, "dtype": {"type": "DT_FLOAT"}}}, {"name": "FeatureExtractor/MobilenetV2/expanded_conv_10/project/Conv2D/merged_input", "op": "Const", "attr": {"value": {"tensor": {"dtype": "DT_FLOAT", "tensorShape": {"dim": [{"size": "1"}, {"size": "1"}, {"size": "384"}, {"size": "96"}]}}}, "dtype": {"type": "DT_FLOAT"}}}, {"name": "FeatureExtractor/MobilenetV2/expanded_conv_10/depthwise/BatchNorm/FusedBatchNorm/Offset", "op": "Const", "attr": {"value": {"tensor": {"dtype": "DT_FLOAT", "tensorShape": {"dim": [{"size": "384"}]}}}, "dtype": {"type": "DT_FLOAT"}}}, {"name": "FeatureExtractor/MobilenetV2/expanded_conv_10/depthwise/BatchNorm/FusedBatchNorm/Scaled", "op": "Const", "attr": {"value": {"tensor": {"dtype": "DT_FLOAT", "tensorShape": {"dim": [{"size": "384"}]}}}, "dtype": {"type": "DT_FLOAT"}}}, {"name": "FeatureExtractor/MobilenetV2/expanded_conv_10/depthwise/depthwise_weights", "op": "Const", "attr": {"value": {"tensor": {"dtype": "DT_FLOAT", "tensorShape": {"dim": [{"size": "3"}, {"size": "3"}, {"size": "384"}, {"size": "1"}]}}}, "dtype": {"type": "DT_FLOAT"}}}, {"name": "FeatureExtractor/MobilenetV2/expanded_conv_10/expand/BatchNorm/FusedBatchNorm/Offset", "op": "Const", "attr": {"value": {"tensor": {"dtype": "DT_FLOAT", "tensorShape": {"dim": [{"size": "384"}]}}}, "dtype": {"type": "DT_FLOAT"}}}, {"name": "FeatureExtractor/MobilenetV2/expanded_conv_10/expand/Conv2D/merged_input", "op": "Const", "attr": {"value": {"tensor": {"dtype": "DT_FLOAT", "tensorShape": {"dim": [{"size": "1"}, {"size": "1"}, {"size": "64"}, {"size": "384"}]}}}, "dtype": {"type": "DT_FLOAT"}}}, {"name": "FeatureExtractor/MobilenetV2/expanded_conv_6/project/BatchNorm/FusedBatchNorm/Offset", "op": "Const", "attr": {"value": {"tensor": {"dtype": "DT_FLOAT", "tensorShape": {"dim": [{"size": "64"}]}}}, "dtype": {"type": "DT_FLOAT"}}}, {"name": "FeatureExtractor/MobilenetV2/expanded_conv_6/project/Conv2D/merged_input", "op": "Const", "attr": {"value": {"tensor": {"dtype": "DT_FLOAT", "tensorShape": {"dim": [{"size": "1"}, {"size": "1"}, {"size": "192"}, {"size": "64"}]}}}, "dtype": {"type": "DT_FLOAT"}}}, {"name": "FeatureExtractor/MobilenetV2/expanded_conv_6/depthwise/BatchNorm/FusedBatchNorm/Offset", "op": "Const", "attr": {"value": {"tensor": {"dtype": "DT_FLOAT", "tensorShape": {"dim": [{"size": "192"}]}}}, "dtype": {"type": "DT_FLOAT"}}}, {"name": "FeatureExtractor/MobilenetV2/expanded_conv_6/depthwise/BatchNorm/FusedBatchNorm/Scaled", "op": "Const", "attr": {"value": {"tensor": {"dtype": "DT_FLOAT", "tensorShape": {"dim": [{"size": "192"}]}}}, "dtype": {"type": "DT_FLOAT"}}}, {"name": "FeatureExtractor/MobilenetV2/expanded_conv_6/depthwise/depthwise_weights", "op": "Const", "attr": {"value": {"tensor": {"dtype": "DT_FLOAT", "tensorShape": {"dim": [{"size": "3"}, {"size": "3"}, {"size": "192"}, {"size": "1"}]}}}, "dtype": {"type": "DT_FLOAT"}}}, {"name": "FeatureExtractor/MobilenetV2/expanded_conv_6/expand/BatchNorm/FusedBatchNorm/Offset", "op": "Const", "attr": {"value": {"tensor": {"dtype": "DT_FLOAT", "tensorShape": {"dim": [{"size": "192"}]}}}, "dtype": {"type": "DT_FLOAT"}}}, {"name": "FeatureExtractor/MobilenetV2/expanded_conv_6/expand/Conv2D/merged_input", "op": "Const", "attr": {"value": {"tensor": {"dtype": "DT_FLOAT", "tensorShape": {"dim": [{"size": "1"}, {"size": "1"}, {"size": "32"}, {"size": "192"}]}}}, "dtype": {"type": "DT_FLOAT"}}}, {"name": "FeatureExtractor/MobilenetV2/expanded_conv_3/project/BatchNorm/FusedBatchNorm/Offset", "op": "Const", "attr": {"value": {"tensor": {"dtype": "DT_FLOAT", "tensorShape": {"dim": [{"size": "32"}]}}}, "dtype": {"type": "DT_FLOAT"}}}, {"name": "FeatureExtractor/MobilenetV2/expanded_conv_3/project/Conv2D/merged_input", "op": "Const", "attr": {"value": {"tensor": {"dtype": "DT_FLOAT", "tensorShape": {"dim": [{"size": "1"}, {"size": "1"}, {"size": "144"}, {"size": "32"}]}}}, "dtype": {"type": "DT_FLOAT"}}}, {"name": "FeatureExtractor/MobilenetV2/expanded_conv_3/depthwise/BatchNorm/FusedBatchNorm/Offset", "op": "Const", "attr": {"value": {"tensor": {"dtype": "DT_FLOAT", "tensorShape": {"dim": [{"size": "144"}]}}}, "dtype": {"type": "DT_FLOAT"}}}, {"name": "FeatureExtractor/MobilenetV2/expanded_conv_3/depthwise/BatchNorm/FusedBatchNorm/Scaled", "op": "Const", "attr": {"value": {"tensor": {"dtype": "DT_FLOAT", "tensorShape": {"dim": [{"size": "144"}]}}}, "dtype": {"type": "DT_FLOAT"}}}, {"name": "FeatureExtractor/MobilenetV2/expanded_conv_3/depthwise/depthwise_weights", "op": "Const", "attr": {"value": {"tensor": {"dtype": "DT_FLOAT", "tensorShape": {"dim": [{"size": "3"}, {"size": "3"}, {"size": "144"}, {"size": "1"}]}}}, "dtype": {"type": "DT_FLOAT"}}}, {"name": "FeatureExtractor/MobilenetV2/expanded_conv_3/expand/BatchNorm/FusedBatchNorm/Offset", "op": "Const", "attr": {"value": {"tensor": {"dtype": "DT_FLOAT", "tensorShape": {"dim": [{"size": "144"}]}}}, "dtype": {"type": "DT_FLOAT"}}}, {"name": "FeatureExtractor/MobilenetV2/expanded_conv_3/expand/Conv2D/merged_input", "op": "Const", "attr": {"value": {"tensor": {"dtype": "DT_FLOAT", "tensorShape": {"dim": [{"size": "1"}, {"size": "1"}, {"size": "24"}, {"size": "144"}]}}}, "dtype": {"type": "DT_FLOAT"}}}, {"name": "FeatureExtractor/MobilenetV2/expanded_conv_1/project/BatchNorm/FusedBatchNorm/Offset", "op": "Const", "attr": {"value": {"tensor": {"dtype": "DT_FLOAT", "tensorShape": {"dim": [{"size": "24"}]}}}, "dtype": {"type": "DT_FLOAT"}}}, {"name": "FeatureExtractor/MobilenetV2/expanded_conv_1/project/Conv2D/merged_input", "op": "Const", "attr": {"value": {"tensor": {"dtype": "DT_FLOAT", "tensorShape": {"dim": [{"size": "1"}, {"size": "1"}, {"size": "96"}, {"size": "24"}]}}}, "dtype": {"type": "DT_FLOAT"}}}, {"name": "FeatureExtractor/MobilenetV2/expanded_conv_1/depthwise/BatchNorm/FusedBatchNorm/Offset", "op": "Const", "attr": {"value": {"tensor": {"dtype": "DT_FLOAT", "tensorShape": {"dim": [{"size": "96"}]}}}, "dtype": {"type": "DT_FLOAT"}}}, {"name": "FeatureExtractor/MobilenetV2/expanded_conv_1/depthwise/BatchNorm/FusedBatchNorm/Scaled", "op": "Const", "attr": {"value": {"tensor": {"dtype": "DT_FLOAT", "tensorShape": {"dim": [{"size": "96"}]}}}, "dtype": {"type": "DT_FLOAT"}}}, {"name": "FeatureExtractor/MobilenetV2/expanded_conv_1/depthwise/depthwise_weights", "op": "Const", "attr": {"value": {"tensor": {"dtype": "DT_FLOAT", "tensorShape": {"dim": [{"size": "3"}, {"size": "3"}, {"size": "96"}, {"size": "1"}]}}}, "dtype": {"type": "DT_FLOAT"}}}, {"name": "FeatureExtractor/MobilenetV2/expanded_conv_1/expand/BatchNorm/FusedBatchNorm/Offset", "op": "Const", "attr": {"value": {"tensor": {"dtype": "DT_FLOAT", "tensorShape": {"dim": [{"size": "96"}]}}}, "dtype": {"type": "DT_FLOAT"}}}, {"name": "FeatureExtractor/MobilenetV2/expanded_conv_1/expand/Conv2D/merged_input", "op": "Const", "attr": {"value": {"tensor": {"dtype": "DT_FLOAT", "tensorShape": {"dim": [{"size": "1"}, {"size": "1"}, {"size": "16"}, {"size": "96"}]}}}, "dtype": {"type": "DT_FLOAT"}}}, {"name": "FeatureExtractor/MobilenetV2/expanded_conv/project/BatchNorm/FusedBatchNorm/Offset", "op": "Const", "attr": {"value": {"tensor": {"dtype": "DT_FLOAT", "tensorShape": {"dim": [{"size": "16"}]}}}, "dtype": {"type": "DT_FLOAT"}}}, {"name": "FeatureExtractor/MobilenetV2/expanded_conv/project/Conv2D/merged_input", "op": "Const", "attr": {"value": {"tensor": {"dtype": "DT_FLOAT", "tensorShape": {"dim": [{"size": "1"}, {"size": "1"}, {"size": "32"}, {"size": "16"}]}}}, "dtype": {"type": "DT_FLOAT"}}}, {"name": "FeatureExtractor/MobilenetV2/expanded_conv/depthwise/BatchNorm/FusedBatchNorm/Offset", "op": "Const", "attr": {"value": {"tensor": {"dtype": "DT_FLOAT", "tensorShape": {"dim": [{"size": "32"}]}}}, "dtype": {"type": "DT_FLOAT"}}}, {"name": "FeatureExtractor/MobilenetV2/expanded_conv/depthwise/BatchNorm/FusedBatchNorm/Scaled", "op": "Const", "attr": {"value": {"tensor": {"dtype": "DT_FLOAT", "tensorShape": {"dim": [{"size": "32"}]}}}, "dtype": {"type": "DT_FLOAT"}}}, {"name": "FeatureExtractor/MobilenetV2/expanded_conv/depthwise/depthwise_weights", "op": "Const", "attr": {"value": {"tensor": {"dtype": "DT_FLOAT", "tensorShape": {"dim": [{"size": "3"}, {"size": "3"}, {"size": "32"}, {"size": "1"}]}}}, "dtype": {"type": "DT_FLOAT"}}}, {"name": "FeatureExtractor/MobilenetV2/Conv/BatchNorm/FusedBatchNorm/Offset", "op": "Const", "attr": {"value": {"tensor": {"dtype": "DT_FLOAT", "tensorShape": {"dim": [{"size": "32"}]}}}, "dtype": {"type": "DT_FLOAT"}}}, {"name": "FeatureExtractor/MobilenetV2/Conv/Conv2D/merged_input", "op": "Const", "attr": {"value": {"tensor": {"dtype": "DT_FLOAT", "tensorShape": {"dim": [{"size": "3"}, {"size": "3"}, {"size": "3"}, {"size": "32"}]}}}, "dtype": {"type": "DT_FLOAT"}}}, {"name": "add/y", "op": "Const", "attr": {"value": {"tensor": {"dtype": "DT_FLOAT", "tensorShape": {}}}, "dtype": {"type": "DT_FLOAT"}}}, {"name": "Postprocessor/BatchMultiClassNonMaxSuppression/map/TensorArrayStack/range/start", "op": "Const", "attr": {"value": {"tensor": {"dtype": "DT_INT32", "tensorShape": {}}}, "dtype": {"type": "DT_INT32"}}}, {"name": "Preprocessor/mul/x", "op": "Const", "attr": {"value": {"tensor": {"dtype": "DT_FLOAT", "tensorShape": {}}}, "dtype": {"type": "DT_FLOAT"}}}, {"name": "FeatureExtractor/MobilenetV2/expanded_conv_2/project/Conv2D/merged_input", "op": "Const", "attr": {"value": {"tensor": {"dtype": "DT_FLOAT", "tensorShape": {"dim": [{"size": "1"}, {"size": "1"}, {"size": "144"}, {"size": "24"}]}}}, "dtype": {"type": "DT_FLOAT"}}}, {"name": "FeatureExtractor/MobilenetV2/expanded_conv_2/depthwise/BatchNorm/FusedBatchNorm/Offset", "op": "Const", "attr": {"value": {"tensor": {"dtype": "DT_FLOAT", "tensorShape": {"dim": [{"size": "144"}]}}}, "dtype": {"type": "DT_FLOAT"}}}, {"name": "FeatureExtractor/MobilenetV2/expanded_conv_2/depthwise/BatchNorm/FusedBatchNorm/Scaled", "op": "Const", "attr": {"value": {"tensor": {"dtype": "DT_FLOAT", "tensorShape": {"dim": [{"size": "144"}]}}}, "dtype": {"type": "DT_FLOAT"}}}, {"name": "FeatureExtractor/MobilenetV2/expanded_conv_2/depthwise/depthwise_weights", "op": "Const", "attr": {"value": {"tensor": {"dtype": "DT_FLOAT", "tensorShape": {"dim": [{"size": "3"}, {"size": "3"}, {"size": "144"}, {"size": "1"}]}}}, "dtype": {"type": "DT_FLOAT"}}}, {"name": "FeatureExtractor/MobilenetV2/expanded_conv_2/expand/BatchNorm/FusedBatchNorm/Offset", "op": "Const", "attr": {"value": {"tensor": {"dtype": "DT_FLOAT", "tensorShape": {"dim": [{"size": "144"}]}}}, "dtype": {"type": "DT_FLOAT"}}}, {"name": "FeatureExtractor/MobilenetV2/expanded_conv_2/expand/Conv2D/merged_input", "op": "Const", "attr": {"value": {"tensor": {"dtype": "DT_FLOAT", "tensorShape": {"dim": [{"size": "1"}, {"size": "1"}, {"size": "24"}, {"size": "144"}]}}}, "dtype": {"type": "DT_FLOAT"}}}, {"name": "FeatureExtractor/MobilenetV2/expanded_conv_2/project/BatchNorm/FusedBatchNorm/Offset", "op": "Const", "attr": {"value": {"tensor": {"dtype": "DT_FLOAT", "tensorShape": {"dim": [{"size": "24"}]}}}, "dtype": {"type": "DT_FLOAT"}}}, {"name": "FeatureExtractor/MobilenetV2/expanded_conv_4/project/Conv2D/merged_input", "op": "Const", "attr": {"value": {"tensor": {"dtype": "DT_FLOAT", "tensorShape": {"dim": [{"size": "1"}, {"size": "1"}, {"size": "192"}, {"size": "32"}]}}}, "dtype": {"type": "DT_FLOAT"}}}, {"name": "FeatureExtractor/MobilenetV2/expanded_conv_4/depthwise/BatchNorm/FusedBatchNorm/Offset", "op": "Const", "attr": {"value": {"tensor": {"dtype": "DT_FLOAT", "tensorShape": {"dim": [{"size": "192"}]}}}, "dtype": {"type": "DT_FLOAT"}}}, {"name": "FeatureExtractor/MobilenetV2/expanded_conv_4/depthwise/BatchNorm/FusedBatchNorm/Scaled", "op": "Const", "attr": {"value": {"tensor": {"dtype": "DT_FLOAT", "tensorShape": {"dim": [{"size": "192"}]}}}, "dtype": {"type": "DT_FLOAT"}}}, {"name": "FeatureExtractor/MobilenetV2/expanded_conv_4/depthwise/depthwise_weights", "op": "Const", "attr": {"value": {"tensor": {"dtype": "DT_FLOAT", "tensorShape": {"dim": [{"size": "3"}, {"size": "3"}, {"size": "192"}, {"size": "1"}]}}}, "dtype": {"type": "DT_FLOAT"}}}, {"name": "FeatureExtractor/MobilenetV2/expanded_conv_4/expand/BatchNorm/FusedBatchNorm/Offset", "op": "Const", "attr": {"value": {"tensor": {"dtype": "DT_FLOAT", "tensorShape": {"dim": [{"size": "192"}]}}}, "dtype": {"type": "DT_FLOAT"}}}, {"name": "FeatureExtractor/MobilenetV2/expanded_conv_4/expand/Conv2D/merged_input", "op": "Const", "attr": {"value": {"tensor": {"dtype": "DT_FLOAT", "tensorShape": {"dim": [{"size": "1"}, {"size": "1"}, {"size": "32"}, {"size": "192"}]}}}, "dtype": {"type": "DT_FLOAT"}}}, {"name": "FeatureExtractor/MobilenetV2/expanded_conv_4/project/BatchNorm/FusedBatchNorm/Offset", "op": "Const", "attr": {"value": {"tensor": {"dtype": "DT_FLOAT", "tensorShape": {"dim": [{"size": "32"}]}}}, "dtype": {"type": "DT_FLOAT"}}}, {"name": "FeatureExtractor/MobilenetV2/expanded_conv_5/project/Conv2D/merged_input", "op": "Const", "attr": {"value": {"tensor": {"dtype": "DT_FLOAT", "tensorShape": {"dim": [{"size": "1"}, {"size": "1"}, {"size": "192"}, {"size": "32"}]}}}, "dtype": {"type": "DT_FLOAT"}}}, {"name": "FeatureExtractor/MobilenetV2/expanded_conv_5/depthwise/BatchNorm/FusedBatchNorm/Offset", "op": "Const", "attr": {"value": {"tensor": {"dtype": "DT_FLOAT", "tensorShape": {"dim": [{"size": "192"}]}}}, "dtype": {"type": "DT_FLOAT"}}}, {"name": "FeatureExtractor/MobilenetV2/expanded_conv_5/depthwise/BatchNorm/FusedBatchNorm/Scaled", "op": "Const", "attr": {"value": {"tensor": {"dtype": "DT_FLOAT", "tensorShape": {"dim": [{"size": "192"}]}}}, "dtype": {"type": "DT_FLOAT"}}}, {"name": "FeatureExtractor/MobilenetV2/expanded_conv_5/depthwise/depthwise_weights", "op": "Const", "attr": {"value": {"tensor": {"dtype": "DT_FLOAT", "tensorShape": {"dim": [{"size": "3"}, {"size": "3"}, {"size": "192"}, {"size": "1"}]}}}, "dtype": {"type": "DT_FLOAT"}}}, {"name": "FeatureExtractor/MobilenetV2/expanded_conv_5/expand/BatchNorm/FusedBatchNorm/Offset", "op": "Const", "attr": {"value": {"tensor": {"dtype": "DT_FLOAT", "tensorShape": {"dim": [{"size": "192"}]}}}, "dtype": {"type": "DT_FLOAT"}}}, {"name": "FeatureExtractor/MobilenetV2/expanded_conv_5/expand/Conv2D/merged_input", "op": "Const", "attr": {"value": {"tensor": {"dtype": "DT_FLOAT", "tensorShape": {"dim": [{"size": "1"}, {"size": "1"}, {"size": "32"}, {"size": "192"}]}}}, "dtype": {"type": "DT_FLOAT"}}}, {"name": "FeatureExtractor/MobilenetV2/expanded_conv_5/project/BatchNorm/FusedBatchNorm/Offset", "op": "Const", "attr": {"value": {"tensor": {"dtype": "DT_FLOAT", "tensorShape": {"dim": [{"size": "32"}]}}}, "dtype": {"type": "DT_FLOAT"}}}, {"name": "FeatureExtractor/MobilenetV2/expanded_conv_7/project/Conv2D/merged_input", "op": "Const", "attr": {"value": {"tensor": {"dtype": "DT_FLOAT", "tensorShape": {"dim": [{"size": "1"}, {"size": "1"}, {"size": "384"}, {"size": "64"}]}}}, "dtype": {"type": "DT_FLOAT"}}}, {"name": "FeatureExtractor/MobilenetV2/expanded_conv_7/depthwise/BatchNorm/FusedBatchNorm/Offset", "op": "Const", "attr": {"value": {"tensor": {"dtype": "DT_FLOAT", "tensorShape": {"dim": [{"size": "384"}]}}}, "dtype": {"type": "DT_FLOAT"}}}, {"name": "FeatureExtractor/MobilenetV2/expanded_conv_7/depthwise/BatchNorm/FusedBatchNorm/Scaled", "op": "Const", "attr": {"value": {"tensor": {"dtype": "DT_FLOAT", "tensorShape": {"dim": [{"size": "384"}]}}}, "dtype": {"type": "DT_FLOAT"}}}, {"name": "FeatureExtractor/MobilenetV2/expanded_conv_7/depthwise/depthwise_weights", "op": "Const", "attr": {"value": {"tensor": {"dtype": "DT_FLOAT", "tensorShape": {"dim": [{"size": "3"}, {"size": "3"}, {"size": "384"}, {"size": "1"}]}}}, "dtype": {"type": "DT_FLOAT"}}}, {"name": "FeatureExtractor/MobilenetV2/expanded_conv_7/expand/BatchNorm/FusedBatchNorm/Offset", "op": "Const", "attr": {"value": {"tensor": {"dtype": "DT_FLOAT", "tensorShape": {"dim": [{"size": "384"}]}}}, "dtype": {"type": "DT_FLOAT"}}}, {"name": "FeatureExtractor/MobilenetV2/expanded_conv_7/expand/Conv2D/merged_input", "op": "Const", "attr": {"value": {"tensor": {"dtype": "DT_FLOAT", "tensorShape": {"dim": [{"size": "1"}, {"size": "1"}, {"size": "64"}, {"size": "384"}]}}}, "dtype": {"type": "DT_FLOAT"}}}, {"name": "FeatureExtractor/MobilenetV2/expanded_conv_7/project/BatchNorm/FusedBatchNorm/Offset", "op": "Const", "attr": {"value": {"tensor": {"dtype": "DT_FLOAT", "tensorShape": {"dim": [{"size": "64"}]}}}, "dtype": {"type": "DT_FLOAT"}}}, {"name": "FeatureExtractor/MobilenetV2/expanded_conv_8/project/Conv2D/merged_input", "op": "Const", "attr": {"value": {"tensor": {"dtype": "DT_FLOAT", "tensorShape": {"dim": [{"size": "1"}, {"size": "1"}, {"size": "384"}, {"size": "64"}]}}}, "dtype": {"type": "DT_FLOAT"}}}, {"name": "FeatureExtractor/MobilenetV2/expanded_conv_8/depthwise/BatchNorm/FusedBatchNorm/Offset", "op": "Const", "attr": {"value": {"tensor": {"dtype": "DT_FLOAT", "tensorShape": {"dim": [{"size": "384"}]}}}, "dtype": {"type": "DT_FLOAT"}}}, {"name": "FeatureExtractor/MobilenetV2/expanded_conv_8/depthwise/BatchNorm/FusedBatchNorm/Scaled", "op": "Const", "attr": {"value": {"tensor": {"dtype": "DT_FLOAT", "tensorShape": {"dim": [{"size": "384"}]}}}, "dtype": {"type": "DT_FLOAT"}}}, {"name": "FeatureExtractor/MobilenetV2/expanded_conv_8/depthwise/depthwise_weights", "op": "Const", "attr": {"value": {"tensor": {"dtype": "DT_FLOAT", "tensorShape": {"dim": [{"size": "3"}, {"size": "3"}, {"size": "384"}, {"size": "1"}]}}}, "dtype": {"type": "DT_FLOAT"}}}, {"name": "FeatureExtractor/MobilenetV2/expanded_conv_8/expand/BatchNorm/FusedBatchNorm/Offset", "op": "Const", "attr": {"value": {"tensor": {"dtype": "DT_FLOAT", "tensorShape": {"dim": [{"size": "384"}]}}}, "dtype": {"type": "DT_FLOAT"}}}, {"name": "FeatureExtractor/MobilenetV2/expanded_conv_8/expand/Conv2D/merged_input", "op": "Const", "attr": {"value": {"tensor": {"dtype": "DT_FLOAT", "tensorShape": {"dim": [{"size": "1"}, {"size": "1"}, {"size": "64"}, {"size": "384"}]}}}, "dtype": {"type": "DT_FLOAT"}}}, {"name": "FeatureExtractor/MobilenetV2/expanded_conv_8/project/BatchNorm/FusedBatchNorm/Offset", "op": "Const", "attr": {"value": {"tensor": {"dtype": "DT_FLOAT", "tensorShape": {"dim": [{"size": "64"}]}}}, "dtype": {"type": "DT_FLOAT"}}}, {"name": "FeatureExtractor/MobilenetV2/expanded_conv_9/project/Conv2D/merged_input", "op": "Const", "attr": {"value": {"tensor": {"dtype": "DT_FLOAT", "tensorShape": {"dim": [{"size": "1"}, {"size": "1"}, {"size": "384"}, {"size": "64"}]}}}, "dtype": {"type": "DT_FLOAT"}}}, {"name": "FeatureExtractor/MobilenetV2/expanded_conv_9/depthwise/BatchNorm/FusedBatchNorm/Offset", "op": "Const", "attr": {"value": {"tensor": {"dtype": "DT_FLOAT", "tensorShape": {"dim": [{"size": "384"}]}}}, "dtype": {"type": "DT_FLOAT"}}}, {"name": "FeatureExtractor/MobilenetV2/expanded_conv_9/depthwise/BatchNorm/FusedBatchNorm/Scaled", "op": "Const", "attr": {"value": {"tensor": {"dtype": "DT_FLOAT", "tensorShape": {"dim": [{"size": "384"}]}}}, "dtype": {"type": "DT_FLOAT"}}}, {"name": "FeatureExtractor/MobilenetV2/expanded_conv_9/depthwise/depthwise_weights", "op": "Const", "attr": {"value": {"tensor": {"dtype": "DT_FLOAT", "tensorShape": {"dim": [{"size": "3"}, {"size": "3"}, {"size": "384"}, {"size": "1"}]}}}, "dtype": {"type": "DT_FLOAT"}}}, {"name": "FeatureExtractor/MobilenetV2/expanded_conv_9/expand/BatchNorm/FusedBatchNorm/Offset", "op": "Const", "attr": {"value": {"tensor": {"dtype": "DT_FLOAT", "tensorShape": {"dim": [{"size": "384"}]}}}, "dtype": {"type": "DT_FLOAT"}}}, {"name": "FeatureExtractor/MobilenetV2/expanded_conv_9/expand/Conv2D/merged_input", "op": "Const", "attr": {"value": {"tensor": {"dtype": "DT_FLOAT", "tensorShape": {"dim": [{"size": "1"}, {"size": "1"}, {"size": "64"}, {"size": "384"}]}}}, "dtype": {"type": "DT_FLOAT"}}}, {"name": "FeatureExtractor/MobilenetV2/expanded_conv_9/project/BatchNorm/FusedBatchNorm/Offset", "op": "Const", "attr": {"value": {"tensor": {"dtype": "DT_FLOAT", "tensorShape": {"dim": [{"size": "64"}]}}}, "dtype": {"type": "DT_FLOAT"}}}, {"name": "FeatureExtractor/MobilenetV2/expanded_conv_11/project/Conv2D/merged_input", "op": "Const", "attr": {"value": {"tensor": {"dtype": "DT_FLOAT", "tensorShape": {"dim": [{"size": "1"}, {"size": "1"}, {"size": "576"}, {"size": "96"}]}}}, "dtype": {"type": "DT_FLOAT"}}}, {"name": "FeatureExtractor/MobilenetV2/expanded_conv_11/depthwise/BatchNorm/FusedBatchNorm/Offset", "op": "Const", "attr": {"value": {"tensor": {"dtype": "DT_FLOAT", "tensorShape": {"dim": [{"size": "576"}]}}}, "dtype": {"type": "DT_FLOAT"}}}, {"name": "FeatureExtractor/MobilenetV2/expanded_conv_11/depthwise/BatchNorm/FusedBatchNorm/Scaled", "op": "Const", "attr": {"value": {"tensor": {"dtype": "DT_FLOAT", "tensorShape": {"dim": [{"size": "576"}]}}}, "dtype": {"type": "DT_FLOAT"}}}, {"name": "FeatureExtractor/MobilenetV2/expanded_conv_11/depthwise/depthwise_weights", "op": "Const", "attr": {"value": {"tensor": {"dtype": "DT_FLOAT", "tensorShape": {"dim": [{"size": "3"}, {"size": "3"}, {"size": "576"}, {"size": "1"}]}}}, "dtype": {"type": "DT_FLOAT"}}}, {"name": "FeatureExtractor/MobilenetV2/expanded_conv_11/expand/BatchNorm/FusedBatchNorm/Offset", "op": "Const", "attr": {"value": {"tensor": {"dtype": "DT_FLOAT", "tensorShape": {"dim": [{"size": "576"}]}}}, "dtype": {"type": "DT_FLOAT"}}}, {"name": "FeatureExtractor/MobilenetV2/expanded_conv_11/expand/Conv2D/merged_input", "op": "Const", "attr": {"value": {"tensor": {"dtype": "DT_FLOAT", "tensorShape": {"dim": [{"size": "1"}, {"size": "1"}, {"size": "96"}, {"size": "576"}]}}}, "dtype": {"type": "DT_FLOAT"}}}, {"name": "FeatureExtractor/MobilenetV2/expanded_conv_11/project/BatchNorm/FusedBatchNorm/Offset", "op": "Const", "attr": {"value": {"tensor": {"dtype": "DT_FLOAT", "tensorShape": {"dim": [{"size": "96"}]}}}, "dtype": {"type": "DT_FLOAT"}}}, {"name": "FeatureExtractor/MobilenetV2/expanded_conv_12/project/Conv2D/merged_input", "op": "Const", "attr": {"value": {"tensor": {"dtype": "DT_FLOAT", "tensorShape": {"dim": [{"size": "1"}, {"size": "1"}, {"size": "576"}, {"size": "96"}]}}}, "dtype": {"type": "DT_FLOAT"}}}, {"name": "FeatureExtractor/MobilenetV2/expanded_conv_12/depthwise/BatchNorm/FusedBatchNorm/Offset", "op": "Const", "attr": {"value": {"tensor": {"dtype": "DT_FLOAT", "tensorShape": {"dim": [{"size": "576"}]}}}, "dtype": {"type": "DT_FLOAT"}}}, {"name": "FeatureExtractor/MobilenetV2/expanded_conv_12/depthwise/BatchNorm/FusedBatchNorm/Scaled", "op": "Const", "attr": {"value": {"tensor": {"dtype": "DT_FLOAT", "tensorShape": {"dim": [{"size": "576"}]}}}, "dtype": {"type": "DT_FLOAT"}}}, {"name": "FeatureExtractor/MobilenetV2/expanded_conv_12/depthwise/depthwise_weights", "op": "Const", "attr": {"value": {"tensor": {"dtype": "DT_FLOAT", "tensorShape": {"dim": [{"size": "3"}, {"size": "3"}, {"size": "576"}, {"size": "1"}]}}}, "dtype": {"type": "DT_FLOAT"}}}, {"name": "FeatureExtractor/MobilenetV2/expanded_conv_12/expand/BatchNorm/FusedBatchNorm/Offset", "op": "Const", "attr": {"value": {"tensor": {"dtype": "DT_FLOAT", "tensorShape": {"dim": [{"size": "576"}]}}}, "dtype": {"type": "DT_FLOAT"}}}, {"name": "FeatureExtractor/MobilenetV2/expanded_conv_12/expand/Conv2D/merged_input", "op": "Const", "attr": {"value": {"tensor": {"dtype": "DT_FLOAT", "tensorShape": {"dim": [{"size": "1"}, {"size": "1"}, {"size": "96"}, {"size": "576"}]}}}, "dtype": {"type": "DT_FLOAT"}}}, {"name": "FeatureExtractor/MobilenetV2/expanded_conv_12/project/BatchNorm/FusedBatchNorm/Offset", "op": "Const", "attr": {"value": {"tensor": {"dtype": "DT_FLOAT", "tensorShape": {"dim": [{"size": "96"}]}}}, "dtype": {"type": "DT_FLOAT"}}}, {"name": "FeatureExtractor/MobilenetV2/expanded_conv_14/project/Conv2D/merged_input", "op": "Const", "attr": {"value": {"tensor": {"dtype": "DT_FLOAT", "tensorShape": {"dim": [{"size": "1"}, {"size": "1"}, {"size": "960"}, {"size": "160"}]}}}, "dtype": {"type": "DT_FLOAT"}}}, {"name": "FeatureExtractor/MobilenetV2/expanded_conv_14/depthwise/BatchNorm/FusedBatchNorm/Offset", "op": "Const", "attr": {"value": {"tensor": {"dtype": "DT_FLOAT", "tensorShape": {"dim": [{"size": "960"}]}}}, "dtype": {"type": "DT_FLOAT"}}}, {"name": "FeatureExtractor/MobilenetV2/expanded_conv_14/depthwise/BatchNorm/FusedBatchNorm/Scaled", "op": "Const", "attr": {"value": {"tensor": {"dtype": "DT_FLOAT", "tensorShape": {"dim": [{"size": "960"}]}}}, "dtype": {"type": "DT_FLOAT"}}}, {"name": "FeatureExtractor/MobilenetV2/expanded_conv_14/depthwise/depthwise_weights", "op": "Const", "attr": {"value": {"tensor": {"dtype": "DT_FLOAT", "tensorShape": {"dim": [{"size": "3"}, {"size": "3"}, {"size": "960"}, {"size": "1"}]}}}, "dtype": {"type": "DT_FLOAT"}}}, {"name": "FeatureExtractor/MobilenetV2/expanded_conv_14/expand/BatchNorm/FusedBatchNorm/Offset", "op": "Const", "attr": {"value": {"tensor": {"dtype": "DT_FLOAT", "tensorShape": {"dim": [{"size": "960"}]}}}, "dtype": {"type": "DT_FLOAT"}}}, {"name": "FeatureExtractor/MobilenetV2/expanded_conv_14/expand/Conv2D/merged_input", "op": "Const", "attr": {"value": {"tensor": {"dtype": "DT_FLOAT", "tensorShape": {"dim": [{"size": "1"}, {"size": "1"}, {"size": "160"}, {"size": "960"}]}}}, "dtype": {"type": "DT_FLOAT"}}}, {"name": "FeatureExtractor/MobilenetV2/expanded_conv_14/project/BatchNorm/FusedBatchNorm/Offset", "op": "Const", "attr": {"value": {"tensor": {"dtype": "DT_FLOAT", "tensorShape": {"dim": [{"size": "160"}]}}}, "dtype": {"type": "DT_FLOAT"}}}, {"name": "FeatureExtractor/MobilenetV2/expanded_conv_15/project/Conv2D/merged_input", "op": "Const", "attr": {"value": {"tensor": {"dtype": "DT_FLOAT", "tensorShape": {"dim": [{"size": "1"}, {"size": "1"}, {"size": "960"}, {"size": "160"}]}}}, "dtype": {"type": "DT_FLOAT"}}}, {"name": "FeatureExtractor/MobilenetV2/expanded_conv_15/depthwise/BatchNorm/FusedBatchNorm/Offset", "op": "Const", "attr": {"value": {"tensor": {"dtype": "DT_FLOAT", "tensorShape": {"dim": [{"size": "960"}]}}}, "dtype": {"type": "DT_FLOAT"}}}, {"name": "FeatureExtractor/MobilenetV2/expanded_conv_15/depthwise/BatchNorm/FusedBatchNorm/Scaled", "op": "Const", "attr": {"value": {"tensor": {"dtype": "DT_FLOAT", "tensorShape": {"dim": [{"size": "960"}]}}}, "dtype": {"type": "DT_FLOAT"}}}, {"name": "FeatureExtractor/MobilenetV2/expanded_conv_15/depthwise/depthwise_weights", "op": "Const", "attr": {"value": {"tensor": {"dtype": "DT_FLOAT", "tensorShape": {"dim": [{"size": "3"}, {"size": "3"}, {"size": "960"}, {"size": "1"}]}}}, "dtype": {"type": "DT_FLOAT"}}}, {"name": "FeatureExtractor/MobilenetV2/expanded_conv_15/expand/BatchNorm/FusedBatchNorm/Offset", "op": "Const", "attr": {"value": {"tensor": {"dtype": "DT_FLOAT", "tensorShape": {"dim": [{"size": "960"}]}}}, "dtype": {"type": "DT_FLOAT"}}}, {"name": "FeatureExtractor/MobilenetV2/expanded_conv_15/expand/Conv2D/merged_input", "op": "Const", "attr": {"value": {"tensor": {"dtype": "DT_FLOAT", "tensorShape": {"dim": [{"size": "1"}, {"size": "1"}, {"size": "160"}, {"size": "960"}]}}}, "dtype": {"type": "DT_FLOAT"}}}, {"name": "FeatureExtractor/MobilenetV2/expanded_conv_15/project/BatchNorm/FusedBatchNorm/Offset", "op": "Const", "attr": {"value": {"tensor": {"dtype": "DT_FLOAT", "tensorShape": {"dim": [{"size": "160"}]}}}, "dtype": {"type": "DT_FLOAT"}}}, {"name": "BoxPredictor_5/BoxEncodingPredictor/biases", "op": "Const", "attr": {"value": {"tensor": {"dtype": "DT_FLOAT", "tensorShape": {"dim": [{"size": "24"}]}}}, "dtype": {"type": "DT_FLOAT"}}}, {"name": "BoxPredictor_5/BoxEncodingPredictor/weights", "op": "Const", "attr": {"value": {"tensor": {"dtype": "DT_FLOAT", "tensorShape": {"dim": [{"size": "1"}, {"size": "1"}, {"size": "128"}, {"size": "24"}]}}}, "dtype": {"type": "DT_FLOAT"}}}, {"name": "BoxPredictor_5/BoxEncodingPredictor_depthwise/BatchNorm/FusedBatchNorm/Offset", "op": "Const", "attr": {"value": {"tensor": {"dtype": "DT_FLOAT", "tensorShape": {"dim": [{"size": "128"}]}}}, "dtype": {"type": "DT_FLOAT"}}}, {"name": "BoxPredictor_5/BoxEncodingPredictor_depthwise/BatchNorm/FusedBatchNorm/Scaled", "op": "Const", "attr": {"value": {"tensor": {"dtype": "DT_FLOAT", "tensorShape": {"dim": [{"size": "128"}]}}}, "dtype": {"type": "DT_FLOAT"}}}, {"name": "BoxPredictor_5/BoxEncodingPredictor_depthwise/depthwise_weights", "op": "Const", "attr": {"value": {"tensor": {"dtype": "DT_FLOAT", "tensorShape": {"dim": [{"size": "3"}, {"size": "3"}, {"size": "128"}, {"size": "1"}]}}}, "dtype": {"type": "DT_FLOAT"}}}, {"name": "BoxPredictor_4/BoxEncodingPredictor/biases", "op": "Const", "attr": {"value": {"tensor": {"dtype": "DT_FLOAT", "tensorShape": {"dim": [{"size": "24"}]}}}, "dtype": {"type": "DT_FLOAT"}}}, {"name": "BoxPredictor_4/BoxEncodingPredictor/weights", "op": "Const", "attr": {"value": {"tensor": {"dtype": "DT_FLOAT", "tensorShape": {"dim": [{"size": "1"}, {"size": "1"}, {"size": "256"}, {"size": "24"}]}}}, "dtype": {"type": "DT_FLOAT"}}}, {"name": "BoxPredictor_4/BoxEncodingPredictor_depthwise/BatchNorm/FusedBatchNorm/Offset", "op": "Const", "attr": {"value": {"tensor": {"dtype": "DT_FLOAT", "tensorShape": {"dim": [{"size": "256"}]}}}, "dtype": {"type": "DT_FLOAT"}}}, {"name": "BoxPredictor_4/BoxEncodingPredictor_depthwise/BatchNorm/FusedBatchNorm/Scaled", "op": "Const", "attr": {"value": {"tensor": {"dtype": "DT_FLOAT", "tensorShape": {"dim": [{"size": "256"}]}}}, "dtype": {"type": "DT_FLOAT"}}}, {"name": "BoxPredictor_4/BoxEncodingPredictor_depthwise/depthwise_weights", "op": "Const", "attr": {"value": {"tensor": {"dtype": "DT_FLOAT", "tensorShape": {"dim": [{"size": "3"}, {"size": "3"}, {"size": "256"}, {"size": "1"}]}}}, "dtype": {"type": "DT_FLOAT"}}}, {"name": "BoxPredictor_3/BoxEncodingPredictor/biases", "op": "Const", "attr": {"value": {"tensor": {"dtype": "DT_FLOAT", "tensorShape": {"dim": [{"size": "24"}]}}}, "dtype": {"type": "DT_FLOAT"}}}, {"name": "BoxPredictor_3/BoxEncodingPredictor/weights", "op": "Const", "attr": {"value": {"tensor": {"dtype": "DT_FLOAT", "tensorShape": {"dim": [{"size": "1"}, {"size": "1"}, {"size": "256"}, {"size": "24"}]}}}, "dtype": {"type": "DT_FLOAT"}}}, {"name": "BoxPredictor_3/BoxEncodingPredictor_depthwise/BatchNorm/FusedBatchNorm/Offset", "op": "Const", "attr": {"value": {"tensor": {"dtype": "DT_FLOAT", "tensorShape": {"dim": [{"size": "256"}]}}}, "dtype": {"type": "DT_FLOAT"}}}, {"name": "BoxPredictor_3/BoxEncodingPredictor_depthwise/BatchNorm/FusedBatchNorm/Scaled", "op": "Const", "attr": {"value": {"tensor": {"dtype": "DT_FLOAT", "tensorShape": {"dim": [{"size": "256"}]}}}, "dtype": {"type": "DT_FLOAT"}}}, {"name": "BoxPredictor_3/BoxEncodingPredictor_depthwise/depthwise_weights", "op": "Const", "attr": {"value": {"tensor": {"dtype": "DT_FLOAT", "tensorShape": {"dim": [{"size": "3"}, {"size": "3"}, {"size": "256"}, {"size": "1"}]}}}, "dtype": {"type": "DT_FLOAT"}}}, {"name": "BoxPredictor_2/BoxEncodingPredictor/biases", "op": "Const", "attr": {"value": {"tensor": {"dtype": "DT_FLOAT", "tensorShape": {"dim": [{"size": "24"}]}}}, "dtype": {"type": "DT_FLOAT"}}}, {"name": "BoxPredictor_2/BoxEncodingPredictor/weights", "op": "Const", "attr": {"value": {"tensor": {"dtype": "DT_FLOAT", "tensorShape": {"dim": [{"size": "1"}, {"size": "1"}, {"size": "512"}, {"size": "24"}]}}}, "dtype": {"type": "DT_FLOAT"}}}, {"name": "BoxPredictor_2/BoxEncodingPredictor_depthwise/BatchNorm/FusedBatchNorm/Offset", "op": "Const", "attr": {"value": {"tensor": {"dtype": "DT_FLOAT", "tensorShape": {"dim": [{"size": "512"}]}}}, "dtype": {"type": "DT_FLOAT"}}}, {"name": "BoxPredictor_2/BoxEncodingPredictor_depthwise/BatchNorm/FusedBatchNorm/Scaled", "op": "Const", "attr": {"value": {"tensor": {"dtype": "DT_FLOAT", "tensorShape": {"dim": [{"size": "512"}]}}}, "dtype": {"type": "DT_FLOAT"}}}, {"name": "BoxPredictor_2/BoxEncodingPredictor_depthwise/depthwise_weights", "op": "Const", "attr": {"value": {"tensor": {"dtype": "DT_FLOAT", "tensorShape": {"dim": [{"size": "3"}, {"size": "3"}, {"size": "512"}, {"size": "1"}]}}}, "dtype": {"type": "DT_FLOAT"}}}, {"name": "BoxPredictor_1/BoxEncodingPredictor/biases", "op": "Const", "attr": {"value": {"tensor": {"dtype": "DT_FLOAT", "tensorShape": {"dim": [{"size": "24"}]}}}, "dtype": {"type": "DT_FLOAT"}}}, {"name": "BoxPredictor_1/BoxEncodingPredictor/weights", "op": "Const", "attr": {"value": {"tensor": {"dtype": "DT_FLOAT", "tensorShape": {"dim": [{"size": "1"}, {"size": "1"}, {"size": "1280"}, {"size": "24"}]}}}, "dtype": {"type": "DT_FLOAT"}}}, {"name": "BoxPredictor_1/BoxEncodingPredictor_depthwise/BatchNorm/FusedBatchNorm/Offset", "op": "Const", "attr": {"value": {"tensor": {"dtype": "DT_FLOAT", "tensorShape": {"dim": [{"size": "1280"}]}}}, "dtype": {"type": "DT_FLOAT"}}}, {"name": "BoxPredictor_1/BoxEncodingPredictor_depthwise/BatchNorm/FusedBatchNorm/Scaled", "op": "Const", "attr": {"value": {"tensor": {"dtype": "DT_FLOAT", "tensorShape": {"dim": [{"size": "1280"}]}}}, "dtype": {"type": "DT_FLOAT"}}}, {"name": "BoxPredictor_1/BoxEncodingPredictor_depthwise/depthwise_weights", "op": "Const", "attr": {"value": {"tensor": {"dtype": "DT_FLOAT", "tensorShape": {"dim": [{"size": "3"}, {"size": "3"}, {"size": "1280"}, {"size": "1"}]}}}, "dtype": {"type": "DT_FLOAT"}}}, {"name": "BoxPredictor_0/BoxEncodingPredictor/biases", "op": "Const", "attr": {"value": {"tensor": {"dtype": "DT_FLOAT", "tensorShape": {"dim": [{"size": "12"}]}}}, "dtype": {"type": "DT_FLOAT"}}}, {"name": "BoxPredictor_0/BoxEncodingPredictor/weights", "op": "Const", "attr": {"value": {"tensor": {"dtype": "DT_FLOAT", "tensorShape": {"dim": [{"size": "1"}, {"size": "1"}, {"size": "576"}, {"size": "12"}]}}}, "dtype": {"type": "DT_FLOAT"}}}, {"name": "BoxPredictor_0/BoxEncodingPredictor_depthwise/BatchNorm/FusedBatchNorm/Offset", "op": "Const", "attr": {"value": {"tensor": {"dtype": "DT_FLOAT", "tensorShape": {"dim": [{"size": "576"}]}}}, "dtype": {"type": "DT_FLOAT"}}}, {"name": "BoxPredictor_0/BoxEncodingPredictor_depthwise/BatchNorm/FusedBatchNorm/Scaled", "op": "Const", "attr": {"value": {"tensor": {"dtype": "DT_FLOAT", "tensorShape": {"dim": [{"size": "576"}]}}}, "dtype": {"type": "DT_FLOAT"}}}, {"name": "BoxPredictor_0/BoxEncodingPredictor_depthwise/depthwise_weights", "op": "Const", "attr": {"value": {"tensor": {"dtype": "DT_FLOAT", "tensorShape": {"dim": [{"size": "3"}, {"size": "3"}, {"size": "576"}, {"size": "1"}]}}}, "dtype": {"type": "DT_FLOAT"}}}, {"name": "Postprocessor/Decode/transpose/perm", "op": "Const", "attr": {"value": {"tensor": {"dtype": "DT_INT32", "tensorShape": {"dim": [{"size": "2"}]}}}, "dtype": {"type": "DT_INT32"}}}, {"name": "ConstantFolding/Postprocessor/Decode/truediv_2_recip", "op": "Const", "attr": {"value": {"tensor": {"dtype": "DT_FLOAT", "tensorShape": {}}}, "dtype": {"type": "DT_FLOAT"}}}, {"name": "Postprocessor/Reshape_1/shape", "op": "Const", "attr": {"value": {"tensor": {"dtype": "DT_INT32", "tensorShape": {"dim": [{"size": "2"}]}}}, "dtype": {"type": "DT_INT32"}}}, {"name": "Postprocessor/ExpandDims", "op": "Const", "attr": {"value": {"tensor": {"dtype": "DT_FLOAT", "tensorShape": {"dim": [{"size": "1"}, {"size": "1917"}, {"size": "4"}]}}}, "dtype": {"type": "DT_FLOAT"}}}, {"name": "ConstantFolding/Postprocessor/Decode/truediv_4_recip", "op": "Const", "attr": {"value": {"tensor": {"dtype": "DT_FLOAT", "tensorShape": {}}}, "dtype": {"type": "DT_FLOAT"}}}, {"name": "ConstantFolding/Postprocessor/Decode/truediv_recip", "op": "Const", "attr": {"value": {"tensor": {"dtype": "DT_FLOAT", "tensorShape": {}}}, "dtype": {"type": "DT_FLOAT"}}}, {"name": "ConstantFolding/Postprocessor/truediv_recip", "op": "Const", "attr": {"value": {"tensor": {"dtype": "DT_FLOAT", "tensorShape": {}}}, "dtype": {"type": "DT_FLOAT"}}}, {"name": "Postprocessor/Slice/size", "op": "Const", "attr": {"value": {"tensor": {"dtype": "DT_INT32", "tensorShape": {"dim": [{"size": "3"}]}}}, "dtype": {"type": "DT_INT32"}}}, {"name": "Postprocessor/Slice/begin", "op": "Const", "attr": {"value": {"tensor": {"dtype": "DT_INT32", "tensorShape": {"dim": [{"size": "3"}]}}}, "dtype": {"type": "DT_INT32"}}}, {"name": "BoxPredictor_5/ClassPredictor/biases", "op": "Const", "attr": {"value": {"tensor": {"dtype": "DT_FLOAT", "tensorShape": {"dim": [{"size": "12"}]}}}, "dtype": {"type": "DT_FLOAT"}}}, {"name": "BoxPredictor_5/ClassPredictor/weights", "op": "Const", "attr": {"value": {"tensor": {"dtype": "DT_FLOAT", "tensorShape": {"dim": [{"size": "1"}, {"size": "1"}, {"size": "128"}, {"size": "12"}]}}}, "dtype": {"type": "DT_FLOAT"}}}, {"name": "BoxPredictor_5/ClassPredictor_depthwise/BatchNorm/FusedBatchNorm/Offset", "op": "Const", "attr": {"value": {"tensor": {"dtype": "DT_FLOAT", "tensorShape": {"dim": [{"size": "128"}]}}}, "dtype": {"type": "DT_FLOAT"}}}, {"name": "BoxPredictor_5/ClassPredictor_depthwise/BatchNorm/FusedBatchNorm/Scaled", "op": "Const", "attr": {"value": {"tensor": {"dtype": "DT_FLOAT", "tensorShape": {"dim": [{"size": "128"}]}}}, "dtype": {"type": "DT_FLOAT"}}}, {"name": "BoxPredictor_5/ClassPredictor_depthwise/depthwise_weights", "op": "Const", "attr": {"value": {"tensor": {"dtype": "DT_FLOAT", "tensorShape": {"dim": [{"size": "3"}, {"size": "3"}, {"size": "128"}, {"size": "1"}]}}}, "dtype": {"type": "DT_FLOAT"}}}, {"name": "BoxPredictor_4/ClassPredictor/biases", "op": "Const", "attr": {"value": {"tensor": {"dtype": "DT_FLOAT", "tensorShape": {"dim": [{"size": "12"}]}}}, "dtype": {"type": "DT_FLOAT"}}}, {"name": "BoxPredictor_4/ClassPredictor/weights", "op": "Const", "attr": {"value": {"tensor": {"dtype": "DT_FLOAT", "tensorShape": {"dim": [{"size": "1"}, {"size": "1"}, {"size": "256"}, {"size": "12"}]}}}, "dtype": {"type": "DT_FLOAT"}}}, {"name": "BoxPredictor_4/ClassPredictor_depthwise/BatchNorm/FusedBatchNorm/Offset", "op": "Const", "attr": {"value": {"tensor": {"dtype": "DT_FLOAT", "tensorShape": {"dim": [{"size": "256"}]}}}, "dtype": {"type": "DT_FLOAT"}}}, {"name": "BoxPredictor_4/ClassPredictor_depthwise/BatchNorm/FusedBatchNorm/Scaled", "op": "Const", "attr": {"value": {"tensor": {"dtype": "DT_FLOAT", "tensorShape": {"dim": [{"size": "256"}]}}}, "dtype": {"type": "DT_FLOAT"}}}, {"name": "BoxPredictor_4/ClassPredictor_depthwise/depthwise_weights", "op": "Const", "attr": {"value": {"tensor": {"dtype": "DT_FLOAT", "tensorShape": {"dim": [{"size": "3"}, {"size": "3"}, {"size": "256"}, {"size": "1"}]}}}, "dtype": {"type": "DT_FLOAT"}}}, {"name": "BoxPredictor_3/ClassPredictor/biases", "op": "Const", "attr": {"value": {"tensor": {"dtype": "DT_FLOAT", "tensorShape": {"dim": [{"size": "12"}]}}}, "dtype": {"type": "DT_FLOAT"}}}, {"name": "BoxPredictor_3/ClassPredictor/weights", "op": "Const", "attr": {"value": {"tensor": {"dtype": "DT_FLOAT", "tensorShape": {"dim": [{"size": "1"}, {"size": "1"}, {"size": "256"}, {"size": "12"}]}}}, "dtype": {"type": "DT_FLOAT"}}}, {"name": "BoxPredictor_3/ClassPredictor_depthwise/BatchNorm/FusedBatchNorm/Offset", "op": "Const", "attr": {"value": {"tensor": {"dtype": "DT_FLOAT", "tensorShape": {"dim": [{"size": "256"}]}}}, "dtype": {"type": "DT_FLOAT"}}}, {"name": "BoxPredictor_3/ClassPredictor_depthwise/BatchNorm/FusedBatchNorm/Scaled", "op": "Const", "attr": {"value": {"tensor": {"dtype": "DT_FLOAT", "tensorShape": {"dim": [{"size": "256"}]}}}, "dtype": {"type": "DT_FLOAT"}}}, {"name": "BoxPredictor_3/ClassPredictor_depthwise/depthwise_weights", "op": "Const", "attr": {"value": {"tensor": {"dtype": "DT_FLOAT", "tensorShape": {"dim": [{"size": "3"}, {"size": "3"}, {"size": "256"}, {"size": "1"}]}}}, "dtype": {"type": "DT_FLOAT"}}}, {"name": "BoxPredictor_2/ClassPredictor/biases", "op": "Const", "attr": {"value": {"tensor": {"dtype": "DT_FLOAT", "tensorShape": {"dim": [{"size": "12"}]}}}, "dtype": {"type": "DT_FLOAT"}}}, {"name": "BoxPredictor_2/ClassPredictor/weights", "op": "Const", "attr": {"value": {"tensor": {"dtype": "DT_FLOAT", "tensorShape": {"dim": [{"size": "1"}, {"size": "1"}, {"size": "512"}, {"size": "12"}]}}}, "dtype": {"type": "DT_FLOAT"}}}, {"name": "BoxPredictor_2/ClassPredictor_depthwise/BatchNorm/FusedBatchNorm/Offset", "op": "Const", "attr": {"value": {"tensor": {"dtype": "DT_FLOAT", "tensorShape": {"dim": [{"size": "512"}]}}}, "dtype": {"type": "DT_FLOAT"}}}, {"name": "BoxPredictor_2/ClassPredictor_depthwise/BatchNorm/FusedBatchNorm/Scaled", "op": "Const", "attr": {"value": {"tensor": {"dtype": "DT_FLOAT", "tensorShape": {"dim": [{"size": "512"}]}}}, "dtype": {"type": "DT_FLOAT"}}}, {"name": "BoxPredictor_2/ClassPredictor_depthwise/depthwise_weights", "op": "Const", "attr": {"value": {"tensor": {"dtype": "DT_FLOAT", "tensorShape": {"dim": [{"size": "3"}, {"size": "3"}, {"size": "512"}, {"size": "1"}]}}}, "dtype": {"type": "DT_FLOAT"}}}, {"name": "BoxPredictor_1/ClassPredictor/biases", "op": "Const", "attr": {"value": {"tensor": {"dtype": "DT_FLOAT", "tensorShape": {"dim": [{"size": "12"}]}}}, "dtype": {"type": "DT_FLOAT"}}}, {"name": "BoxPredictor_1/ClassPredictor/weights", "op": "Const", "attr": {"value": {"tensor": {"dtype": "DT_FLOAT", "tensorShape": {"dim": [{"size": "1"}, {"size": "1"}, {"size": "1280"}, {"size": "12"}]}}}, "dtype": {"type": "DT_FLOAT"}}}, {"name": "BoxPredictor_1/ClassPredictor_depthwise/BatchNorm/FusedBatchNorm/Offset", "op": "Const", "attr": {"value": {"tensor": {"dtype": "DT_FLOAT", "tensorShape": {"dim": [{"size": "1280"}]}}}, "dtype": {"type": "DT_FLOAT"}}}, {"name": "BoxPredictor_1/ClassPredictor_depthwise/BatchNorm/FusedBatchNorm/Scaled", "op": "Const", "attr": {"value": {"tensor": {"dtype": "DT_FLOAT", "tensorShape": {"dim": [{"size": "1280"}]}}}, "dtype": {"type": "DT_FLOAT"}}}, {"name": "BoxPredictor_1/ClassPredictor_depthwise/depthwise_weights", "op": "Const", "attr": {"value": {"tensor": {"dtype": "DT_FLOAT", "tensorShape": {"dim": [{"size": "3"}, {"size": "3"}, {"size": "1280"}, {"size": "1"}]}}}, "dtype": {"type": "DT_FLOAT"}}}, {"name": "BoxPredictor_0/ClassPredictor/biases", "op": "Const", "attr": {"value": {"tensor": {"dtype": "DT_FLOAT", "tensorShape": {"dim": [{"size": "6"}]}}}, "dtype": {"type": "DT_FLOAT"}}}, {"name": "BoxPredictor_0/ClassPredictor/weights", "op": "Const", "attr": {"value": {"tensor": {"dtype": "DT_FLOAT", "tensorShape": {"dim": [{"size": "1"}, {"size": "1"}, {"size": "576"}, {"size": "6"}]}}}, "dtype": {"type": "DT_FLOAT"}}}, {"name": "BoxPredictor_0/ClassPredictor_depthwise/BatchNorm/FusedBatchNorm/Offset", "op": "Const", "attr": {"value": {"tensor": {"dtype": "DT_FLOAT", "tensorShape": {"dim": [{"size": "576"}]}}}, "dtype": {"type": "DT_FLOAT"}}}, {"name": "BoxPredictor_0/ClassPredictor_depthwise/BatchNorm/FusedBatchNorm/Scaled", "op": "Const", "attr": {"value": {"tensor": {"dtype": "DT_FLOAT", "tensorShape": {"dim": [{"size": "576"}]}}}, "dtype": {"type": "DT_FLOAT"}}}, {"name": "BoxPredictor_0/ClassPredictor_depthwise/depthwise_weights", "op": "Const", "attr": {"value": {"tensor": {"dtype": "DT_FLOAT", "tensorShape": {"dim": [{"size": "3"}, {"size": "3"}, {"size": "576"}, {"size": "1"}]}}}, "dtype": {"type": "DT_FLOAT"}}}, {"name": "Cast", "op": "Cast", "input": ["image_tensor"], "attr": {"SrcT": {"type": "DT_UINT8"}, "Truncate": {"b": false}, "DstT": {"type": "DT_FLOAT"}}}, {"name": "Preprocessor/map/while/Enter", "op": "Enter", "input": ["Postprocessor/BatchMultiClassNonMaxSuppression/map/TensorArrayStack/range/start"], "attr": {"T": {"type": "DT_INT32"}, "is_constant": {"b": false}, "parallel_iterations": {"i": "32"}, "frame_name": {"s": "UHJlcHJvY2Vzc29yL21hcC93aGlsZS93aGlsZV9jb250ZXh0"}}}, {"name": "Preprocessor/map/while/Enter_1", "op": "Enter", "input": ["Postprocessor/BatchMultiClassNonMaxSuppression/map/TensorArrayStack/range/start"], "attr": {"T": {"type": "DT_INT32"}, "is_constant": {"b": false}, "parallel_iterations": {"i": "32"}, "frame_name": {"s": "UHJlcHJvY2Vzc29yL21hcC93aGlsZS93aGlsZV9jb250ZXh0"}}}, {"name": "Postprocessor/BatchMultiClassNonMaxSuppression/map/while/Enter", "op": "Enter", "input": ["Postprocessor/BatchMultiClassNonMaxSuppression/map/TensorArrayStack/range/start"], "attr": {"T": {"type": "DT_INT32"}, "is_constant": {"b": false}, "parallel_iterations": {"i": "32"}, "frame_name": {"s": "UG9zdHByb2Nlc3Nvci9CYXRjaE11bHRpQ2xhc3NOb25NYXhTdXBwcmVzc2lvbi9tYXAvd2hpbGUvd2hpbGVfY29udGV4dA=="}}}, {"name": "Postprocessor/BatchMultiClassNonMaxSuppression/map/while/Enter_1", "op": "Enter", "input": ["Postprocessor/BatchMultiClassNonMaxSuppression/map/TensorArrayStack/range/start"], "attr": {"T": {"type": "DT_INT32"}, "is_constant": {"b": false}, "parallel_iterations": {"i": "32"}, "frame_name": {"s": "UG9zdHByb2Nlc3Nvci9CYXRjaE11bHRpQ2xhc3NOb25NYXhTdXBwcmVzc2lvbi9tYXAvd2hpbGUvd2hpbGVfY29udGV4dA=="}}}, {"name": "Preprocessor/map/TensorArrayUnstack/Shape", "op": "Shape", "input": ["Cast"], "attr": {"T": {"type": "DT_FLOAT"}, "out_type": {"type": "DT_INT32"}}}, {"name": "Preprocessor/map/while/Merge", "op": "Merge", "input": ["Preprocessor/map/while/Enter", "Preprocessor/map/while/NextIteration"], "attr": {"T": {"type": "DT_INT32"}, "N": {"i": "2"}}}, {"name": "Preprocessor/map/while/Merge_1", "op": "Merge", "input": ["Preprocessor/map/while/Enter_1", "Preprocessor/map/while/NextIteration_1"], "attr": {"T": {"type": "DT_INT32"}, "N": {"i": "2"}}}, {"name": "Postprocessor/BatchMultiClassNonMaxSuppression/map/while/Merge", "op": "Merge", "input": ["Postprocessor/BatchMultiClassNonMaxSuppression/map/while/Enter", "Postprocessor/BatchMultiClassNonMaxSuppression/map/while/NextIteration"], "attr": {"T": {"type": "DT_INT32"}, "N": {"i": "2"}}}, {"name": "Postprocessor/BatchMultiClassNonMaxSuppression/map/while/Merge_1", "op": "Merge", "input": ["Postprocessor/BatchMultiClassNonMaxSuppression/map/while/Enter_1", "Postprocessor/BatchMultiClassNonMaxSuppression/map/while/NextIteration_1"], "attr": {"T": {"type": "DT_INT32"}, "N": {"i": "2"}}}, {"name": "Preprocessor/map/TensorArrayUnstack/strided_slice", "op": "StridedSlice", "input": ["Preprocessor/map/TensorArrayUnstack/Shape", "Postprocessor/BatchMultiClassNonMaxSuppression/map/TensorArrayUnstack_1/strided_slice/stack", "Postprocessor/BatchMultiClassNonMaxSuppression/map/TensorArrayUnstack_1/strided_slice/stack_1", "Postprocessor/BatchMultiClassNonMaxSuppression/map/TensorArrayUnstack_1/strided_slice/stack_1"], "attr": {"Index": {"type": "DT_INT32"}, "T": {"type": "DT_INT32"}, "shrink_axis_mask": {"i": "1"}, "ellipsis_mask": {"i": "0"}, "begin_mask": {"i": "0"}, "new_axis_mask": {"i": "0"}, "end_mask": {"i": "0"}}}, {"name": "Preprocessor/map/while/Less/Enter", "op": "Enter", "input": ["Preprocessor/map/TensorArrayUnstack/strided_slice"], "attr": {"T": {"type": "DT_INT32"}, "is_constant": {"b": true}, "parallel_iterations": {"i": "32"}, "frame_name": {"s": "UHJlcHJvY2Vzc29yL21hcC93aGlsZS93aGlsZV9jb250ZXh0"}}}, {"name": "Preprocessor/map/TensorArray", "op": "TensorArrayV3", "input": ["Preprocessor/map/TensorArrayUnstack/strided_slice"], "attr": {"element_shape": {"shape": {"unknownRank": true}}, "dynamic_size": {"b": false}, "clear_after_read": {"b": true}, "identical_element_shapes": {"b": true}, "tensor_array_name": {"s": ""}, "dtype": {"type": "DT_FLOAT"}}}, {"name": "Preprocessor/map/TensorArrayUnstack/range", "op": "Range", "input": ["Postprocessor/BatchMultiClassNonMaxSuppression/map/TensorArrayStack/range/start", "Preprocessor/map/TensorArrayUnstack/strided_slice", "Postprocessor/BatchMultiClassNonMaxSuppression/map/TensorArrayStack/range/delta"], "attr": {"Tidx": {"type": "DT_INT32"}}}, {"name": "Preprocessor/map/TensorArray_1", "op": "TensorArrayV3", "input": ["Preprocessor/map/TensorArrayUnstack/strided_slice"], "attr": {"element_shape": {"shape": {"unknownRank": true}}, "dynamic_size": {"b": false}, "clear_after_read": {"b": true}, "identical_element_shapes": {"b": true}, "tensor_array_name": {"s": ""}, "dtype": {"type": "DT_FLOAT"}}}, {"name": "Preprocessor/map/TensorArray_2", "op": "TensorArrayV3", "input": ["Preprocessor/map/TensorArrayUnstack/strided_slice"], "attr": {"element_shape": {"shape": {"unknownRank": true}}, "dynamic_size": {"b": false}, "clear_after_read": {"b": true}, "identical_element_shapes": {"b": true}, "tensor_array_name": {"s": ""}, "dtype": {"type": "DT_INT32"}}}, {"name": "Preprocessor/map/while/Less_1", "op": "Less", "input": ["Preprocessor/map/while/Merge_1", "Preprocessor/map/while/Less/Enter"], "attr": {"T": {"type": "DT_INT32"}}}, {"name": "Preprocessor/map/while/Less", "op": "Less", "input": ["Preprocessor/map/while/Merge", "Preprocessor/map/while/Less/Enter"], "attr": {"T": {"type": "DT_INT32"}}}, {"name": "Preprocessor/map/while/TensorArrayReadV3/Enter", "op": "Enter", "input": ["Preprocessor/map/TensorArray"], "attr": {"T": {"type": "DT_RESOURCE"}, "is_constant": {"b": true}, "parallel_iterations": {"i": "32"}, "frame_name": {"s": "UHJlcHJvY2Vzc29yL21hcC93aGlsZS93aGlsZV9jb250ZXh0"}}}, {"name": "Preprocessor/map/TensorArrayUnstack/TensorArrayScatter/TensorArrayScatterV3", "op": "TensorArrayScatterV3", "input": ["Preprocessor/map/TensorArray", "Preprocessor/map/TensorArrayUnstack/range", "Cast", "Preprocessor/map/TensorArray:1"], "attr": {"T": {"type": "DT_FLOAT"}}}, {"name": "Preprocessor/map/while/TensorArrayWrite/TensorArrayWriteV3/Enter", "op": "Enter", "input": ["Preprocessor/map/TensorArray_1"], "attr": {"T": {"type": "DT_RESOURCE"}, "is_constant": {"b": true}, "parallel_iterations": {"i": "32"}, "frame_name": {"s": "UHJlcHJvY2Vzc29yL21hcC93aGlsZS93aGlsZV9jb250ZXh0"}}}, {"name": "Preprocessor/map/while/Enter_2", "op": "Enter", "input": ["Preprocessor/map/TensorArray_1:1"], "attr": {"T": {"type": "DT_FLOAT"}, "is_constant": {"b": false}, "parallel_iterations": {"i": "32"}, "frame_name": {"s": "UHJlcHJvY2Vzc29yL21hcC93aGlsZS93aGlsZV9jb250ZXh0"}}}, {"name": "Preprocessor/map/while/TensorArrayWrite_1/TensorArrayWriteV3/Enter", "op": "Enter", "input": ["Preprocessor/map/TensorArray_2"], "attr": {"T": {"type": "DT_RESOURCE"}, "is_constant": {"b": true}, "parallel_iterations": {"i": "32"}, "frame_name": {"s": "UHJlcHJvY2Vzc29yL21hcC93aGlsZS93aGlsZV9jb250ZXh0"}}}, {"name": "Preprocessor/map/while/Enter_3", "op": "Enter", "input": ["Preprocessor/map/TensorArray_2:1"], "attr": {"T": {"type": "DT_FLOAT"}, "is_constant": {"b": false}, "parallel_iterations": {"i": "32"}, "frame_name": {"s": "UHJlcHJvY2Vzc29yL21hcC93aGlsZS93aGlsZV9jb250ZXh0"}}}, {"name": "Preprocessor/map/while/LogicalAnd", "op": "LogicalAnd", "input": ["Preprocessor/map/while/Less", "Preprocessor/map/while/Less_1"]}, {"name": "Preprocessor/map/while/TensorArrayReadV3/Enter_1", "op": "Enter", "input": ["Preprocessor/map/TensorArrayUnstack/TensorArrayScatter/TensorArrayScatterV3"], "attr": {"T": {"type": "DT_FLOAT"}, "is_constant": {"b": true}, "parallel_iterations": {"i": "32"}, "frame_name": {"s": "UHJlcHJvY2Vzc29yL21hcC93aGlsZS93aGlsZV9jb250ZXh0"}}}, {"name": "Preprocessor/map/while/Merge_2", "op": "Merge", "input": ["Preprocessor/map/while/Enter_2", "Preprocessor/map/while/NextIteration_2"], "attr": {"T": {"type": "DT_FLOAT"}, "N": {"i": "2"}}}, {"name": "Preprocessor/map/while/Merge_3", "op": "Merge", "input": ["Preprocessor/map/while/Enter_3", "Preprocessor/map/while/NextIteration_3"], "attr": {"T": {"type": "DT_FLOAT"}, "N": {"i": "2"}}}, {"name": "Preprocessor/map/while/LoopCond", "op": "LoopCond", "input": ["Preprocessor/map/while/LogicalAnd"]}, {"name": "Preprocessor/map/while/Switch_2", "op": "Switch", "input": ["Preprocessor/map/while/Merge_2", "Preprocessor/map/while/LoopCond"], "attr": {"T": {"type": "DT_FLOAT"}}}, {"name": "Preprocessor/map/while/Switch", "op": "Switch", "input": ["Preprocessor/map/while/Merge", "Preprocessor/map/while/LoopCond"], "attr": {"T": {"type": "DT_INT32"}}}, {"name": "Preprocessor/map/while/Switch_1", "op": "Switch", "input": ["Preprocessor/map/while/Merge_1", "Preprocessor/map/while/LoopCond"], "attr": {"T": {"type": "DT_INT32"}}}, {"name": "Preprocessor/map/while/Switch_3", "op": "Switch", "input": ["Preprocessor/map/while/Merge_3", "Preprocessor/map/while/LoopCond"], "attr": {"T": {"type": "DT_FLOAT"}}}, {"name": "Preprocessor/map/while/Exit_2", "op": "Exit", "input": ["Preprocessor/map/while/Switch_2"], "attr": {"T": {"type": "DT_FLOAT"}}}, {"name": "Preprocessor/map/while/Identity", "op": "Identity", "input": ["Preprocessor/map/while/Switch:1"], "attr": {"T": {"type": "DT_INT32"}}}, {"name": "Preprocessor/map/while/TensorArrayReadV3", "op": "TensorArrayReadV3", "input": ["Preprocessor/map/while/TensorArrayReadV3/Enter", "Preprocessor/map/while/Switch_1:1", "Preprocessor/map/while/TensorArrayReadV3/Enter_1"], "attr": {"dtype": {"type": "DT_FLOAT"}}}, {"name": "Preprocessor/map/while/Exit_3", "op": "Exit", "input": ["Preprocessor/map/while/Switch_3"], "attr": {"T": {"type": "DT_FLOAT"}}}, {"name": "Preprocessor/map/TensorArrayStack/TensorArraySizeV3", "op": "TensorArraySizeV3", "input": ["Preprocessor/map/TensorArray_1", "Preprocessor/map/while/Exit_2"]}, {"name": "Preprocessor/map/while/add/y", "op": "Const", "input": ["^Preprocessor/map/while/Identity"], "attr": {"value": {"tensor": {"dtype": "DT_INT32", "tensorShape": {}}}, "dtype": {"type": "DT_INT32"}}}, {"name": "Preprocessor/map/while/ResizeImage/stack", "op": "Const", "input": ["^Preprocessor/map/while/Identity"], "attr": {"value": {"tensor": {"dtype": "DT_INT32", "tensorShape": {"dim": [{"size": "2"}]}}}, "dtype": {"type": "DT_INT32"}}}, {"name": "Preprocessor/map/while/ResizeImage/resize/ExpandDims/dim", "op": "Const", "input": ["^Preprocessor/map/while/Identity"], "attr": {"value": {"tensor": {"dtype": "DT_INT32", "tensorShape": {}}}, "dtype": {"type": "DT_INT32"}}}, {"name": "Preprocessor/map/while/ResizeImage/stack_1", "op": "Const", "input": ["^Preprocessor/map/while/Identity"], "attr": {"value": {"tensor": {"dtype": "DT_INT32", "tensorShape": {"dim": [{"size": "3"}]}}}, "dtype": {"type": "DT_INT32"}}}, {"name": "Preprocessor/map/TensorArrayStack_1/TensorArraySizeV3", "op": "TensorArraySizeV3", "input": ["Preprocessor/map/TensorArray_2", "Preprocessor/map/while/Exit_3"]}, {"name": "Preprocessor/map/TensorArrayStack/range", "op": "Range", "input": ["Postprocessor/BatchMultiClassNonMaxSuppression/map/TensorArrayStack/range/start", "Preprocessor/map/TensorArrayStack/TensorArraySizeV3", "Postprocessor/BatchMultiClassNonMaxSuppression/map/TensorArrayStack/range/delta"], "attr": {"Tidx": {"type": "DT_INT32"}}}, {"name": "Preprocessor/map/while/add_1", "op": "Add", "input": ["Preprocessor/map/while/Switch_1:1", "Preprocessor/map/while/add/y"], "attr": {"T": {"type": "DT_INT32"}}}, {"name": "Preprocessor/map/while/add", "op": "Add", "input": ["Preprocessor/map/while/Identity", "Preprocessor/map/while/add/y"], "attr": {"T": {"type": "DT_INT32"}}}, {"name": "Preprocessor/map/while/ResizeImage/resize/ExpandDims", "op": "ExpandDims", "input": ["Preprocessor/map/while/TensorArrayReadV3", "Preprocessor/map/while/ResizeImage/resize/ExpandDims/dim"], "attr": {"Tdim": {"type": "DT_INT32"}, "T": {"type": "DT_FLOAT"}}}, {"name": "Preprocessor/map/while/TensorArrayWrite_1/TensorArrayWriteV3", "op": "TensorArrayWriteV3", "input": ["Preprocessor/map/while/TensorArrayWrite_1/TensorArrayWriteV3/Enter", "Preprocessor/map/while/Switch_1:1", "Preprocessor/map/while/ResizeImage/stack_1", "Preprocessor/map/while/Switch_3:1"], "attr": {"T": {"type": "DT_INT32"}}}, {"name": "Preprocessor/map/TensorArrayStack_1/range", "op": "Range", "input": ["Postprocessor/BatchMultiClassNonMaxSuppression/map/TensorArrayStack/range/start", "Preprocessor/map/TensorArrayStack_1/TensorArraySizeV3", "Postprocessor/BatchMultiClassNonMaxSuppression/map/TensorArrayStack/range/delta"], "attr": {"Tidx": {"type": "DT_INT32"}}}, {"name": "Preprocessor/map/TensorArrayStack/TensorArrayGatherV3", "op": "TensorArrayGatherV3", "input": ["Preprocessor/map/TensorArray_1", "Preprocessor/map/TensorArrayStack/range", "Preprocessor/map/while/Exit_2"], "attr": {"element_shape": {"shape": {"dim": [{"size": "300"}, {"size": "300"}, {"size": "3"}]}}, "dtype": {"type": "DT_FLOAT"}}}, {"name": "Preprocessor/map/while/NextIteration_1", "op": "NextIteration", "input": ["Preprocessor/map/while/add_1"], "attr": {"T": {"type": "DT_INT32"}}}, {"name": "Preprocessor/map/while/NextIteration", "op": "NextIteration", "input": ["Preprocessor/map/while/add"], "attr": {"T": {"type": "DT_INT32"}}}, {"name": "Preprocessor/map/while/ResizeImage/resize/ResizeBilinear", "op": "ResizeBilinear", "input": ["Preprocessor/map/while/ResizeImage/resize/ExpandDims", "Preprocessor/map/while/ResizeImage/stack"], "attr": {"align_corners": {"b": false}, "T": {"type": "DT_FLOAT"}}}, {"name": "Preprocessor/map/while/NextIteration_3", "op": "NextIteration", "input": ["Preprocessor/map/while/TensorArrayWrite_1/TensorArrayWriteV3"], "attr": {"T": {"type": "DT_FLOAT"}}}, {"name": "Preprocessor/map/TensorArrayStack_1/TensorArrayGatherV3", "op": "TensorArrayGatherV3", "input": ["Preprocessor/map/TensorArray_2", "Preprocessor/map/TensorArrayStack_1/range", "Preprocessor/map/while/Exit_3"], "attr": {"element_shape": {"shape": {"dim": [{"size": "3"}]}}, "dtype": {"type": "DT_INT32"}}}, {"name": "Preprocessor/mul", "op": "Mul", "input": ["Preprocessor/mul/x", "Preprocessor/map/TensorArrayStack/TensorArrayGatherV3"], "attr": {"T": {"type": "DT_FLOAT"}}}, {"name": "Preprocessor/map/while/ResizeImage/resize/Squeeze", "op": "Squeeze", "input": ["Preprocessor/map/while/ResizeImage/resize/ResizeBilinear"], "attr": {"squeeze_dims": {"list": {"i": ["0"]}}, "T": {"type": "DT_FLOAT"}}}, {"name": "Postprocessor/Cast_1", "op": "Cast", "input": ["Preprocessor/map/TensorArrayStack_1/TensorArrayGatherV3"], "attr": {"SrcT": {"type": "DT_INT32"}, "Truncate": {"b": false}, "DstT": {"type": "DT_FLOAT"}}}, {"name": "Preprocessor/sub", "op": "Sub", "input": ["Preprocessor/mul", "add/y"], "attr": {"T": {"type": "DT_FLOAT"}}}, {"name": "Preprocessor/map/while/TensorArrayWrite/TensorArrayWriteV3", "op": "TensorArrayWriteV3", "input": ["Preprocessor/map/while/TensorArrayWrite/TensorArrayWriteV3/Enter", "Preprocessor/map/while/Switch_1:1", "Preprocessor/map/while/ResizeImage/resize/Squeeze", "Preprocessor/map/while/Switch_2:1"], "attr": {"T": {"type": "DT_FLOAT"}}}, {"name": "Postprocessor/unstack", "op": "Unpack", "input": ["Postprocessor/Cast_1"], "attr": {"num": {"i": "3"}, "T": {"type": "DT_FLOAT"}, "axis": {"i": "1"}}}, {"name": "FeatureExtractor/MobilenetV2/Conv/BatchNorm/FusedBatchNorm/Mul", "op": "Conv2D", "input": ["Preprocessor/sub", "FeatureExtractor/MobilenetV2/Conv/Conv2D/merged_input"], "attr": {"dilations": {"list": {"i": ["1", "1", "1", "1"]}}, "T": {"type": "DT_FLOAT"}, "strides": {"list": {"i": ["1", "2", "2", "1"]}}, "data_format": {"s": "TkhXQw=="}, "use_cudnn_on_gpu": {"b": true}, "padding": {"s": "U0FNRQ=="}}}, {"name": "Preprocessor/map/while/NextIteration_2", "op": "NextIteration", "input": ["Preprocessor/map/while/TensorArrayWrite/TensorArrayWriteV3"], "attr": {"T": {"type": "DT_FLOAT"}}}, {"name": "Postprocessor/truediv_1", "op": "Mul", "input": ["Postprocessor/unstack:1", "ConstantFolding/Postprocessor/truediv_recip"], "attr": {"T": {"type": "DT_FLOAT"}}}, {"name": "Postprocessor/truediv", "op": "Mul", "input": ["Postprocessor/unstack", "ConstantFolding/Postprocessor/truediv_recip"], "attr": {"T": {"type": "DT_FLOAT"}}}, {"name": "Postprocessor/zeros_like_1", "op": "ZerosLike", "input": ["Postprocessor/unstack:1"], "attr": {"T": {"type": "DT_FLOAT"}}}, {"name": "Postprocessor/zeros_like", "op": "ZerosLike", "input": ["Postprocessor/unstack"], "attr": {"T": {"type": "DT_FLOAT"}}}, {"name": "FeatureExtractor/MobilenetV2/Conv/BatchNorm/FusedBatchNorm", "op": "Add", "input": ["FeatureExtractor/MobilenetV2/Conv/BatchNorm/FusedBatchNorm/Mul", "FeatureExtractor/MobilenetV2/Conv/BatchNorm/FusedBatchNorm/Offset"], "attr": {"T": {"type": "DT_FLOAT"}}}, {"name": "Postprocessor/stack_1", "op": "Pack", "input": ["Postprocessor/zeros_like", "Postprocessor/zeros_like_1", "Postprocessor/truediv", "Postprocessor/truediv_1"], "attr": {"T": {"type": "DT_FLOAT"}, "axis": {"i": "1"}, "N": {"i": "4"}}}, {"name": "FeatureExtractor/MobilenetV2/Conv/Relu6", "op": "Relu6", "input": ["FeatureExtractor/MobilenetV2/Conv/BatchNorm/FusedBatchNorm"], "attr": {"T": {"type": "DT_FLOAT"}}}, {"name": "Postprocessor/BatchMultiClassNonMaxSuppression/map/TensorArrayUnstack_3/Shape", "op": "Shape", "input": ["Postprocessor/stack_1"], "attr": {"T": {"type": "DT_FLOAT"}, "out_type": {"type": "DT_INT32"}}}, {"name": "FeatureExtractor/MobilenetV2/expanded_conv/depthwise/depthwise", "op": "DepthwiseConv2dNative", "input": ["FeatureExtractor/MobilenetV2/Conv/Relu6", "FeatureExtractor/MobilenetV2/expanded_conv/depthwise/depthwise_weights"], "attr": {"padding": {"s": "U0FNRQ=="}, "dilations": {"list": {"i": ["1", "1", "1", "1"]}}, "T": {"type": "DT_FLOAT"}, "data_format": {"s": "TkhXQw=="}, "strides": {"list": {"i": ["1", "1", "1", "1"]}}}}, {"name": "Postprocessor/BatchMultiClassNonMaxSuppression/map/TensorArrayUnstack_3/strided_slice", "op": "StridedSlice", "input": ["Postprocessor/BatchMultiClassNonMaxSuppression/map/TensorArrayUnstack_3/Shape", "Postprocessor/BatchMultiClassNonMaxSuppression/map/TensorArrayUnstack_1/strided_slice/stack", "Postprocessor/BatchMultiClassNonMaxSuppression/map/TensorArrayUnstack_1/strided_slice/stack_1", "Postprocessor/BatchMultiClassNonMaxSuppression/map/TensorArrayUnstack_1/strided_slice/stack_1"], "attr": {"Index": {"type": "DT_INT32"}, "T": {"type": "DT_INT32"}, "shrink_axis_mask": {"i": "1"}, "ellipsis_mask": {"i": "0"}, "begin_mask": {"i": "0"}, "new_axis_mask": {"i": "0"}, "end_mask": {"i": "0"}}}, {"name": "FeatureExtractor/MobilenetV2/expanded_conv/depthwise/BatchNorm/FusedBatchNorm/Mul", "op": "Mul", "input": ["FeatureExtractor/MobilenetV2/expanded_conv/depthwise/depthwise", "FeatureExtractor/MobilenetV2/expanded_conv/depthwise/BatchNorm/FusedBatchNorm/Scaled"], "attr": {"T": {"type": "DT_FLOAT"}}}, {"name": "Postprocessor/BatchMultiClassNonMaxSuppression/map/TensorArrayUnstack_3/range", "op": "Range", "input": ["Postprocessor/BatchMultiClassNonMaxSuppression/map/TensorArrayStack/range/start", "Postprocessor/BatchMultiClassNonMaxSuppression/map/TensorArrayUnstack_3/strided_slice", "Postprocessor/BatchMultiClassNonMaxSuppression/map/TensorArrayStack/range/delta"], "attr": {"Tidx": {"type": "DT_INT32"}}}, {"name": "FeatureExtractor/MobilenetV2/expanded_conv/depthwise/BatchNorm/FusedBatchNorm", "op": "Add", "input": ["FeatureExtractor/MobilenetV2/expanded_conv/depthwise/BatchNorm/FusedBatchNorm/Mul", "FeatureExtractor/MobilenetV2/expanded_conv/depthwise/BatchNorm/FusedBatchNorm/Offset"], "attr": {"T": {"type": "DT_FLOAT"}}}, {"name": "FeatureExtractor/MobilenetV2/expanded_conv/depthwise/Relu6", "op": "Relu6", "input": ["FeatureExtractor/MobilenetV2/expanded_conv/depthwise/BatchNorm/FusedBatchNorm"], "attr": {"T": {"type": "DT_FLOAT"}}}, {"name": "FeatureExtractor/MobilenetV2/expanded_conv/project/BatchNorm/FusedBatchNorm/Mul", "op": "Conv2D", "input": ["FeatureExtractor/MobilenetV2/expanded_conv/depthwise/Relu6", "FeatureExtractor/MobilenetV2/expanded_conv/project/Conv2D/merged_input"], "attr": {"dilations": {"list": {"i": ["1", "1", "1", "1"]}}, "T": {"type": "DT_FLOAT"}, "strides": {"list": {"i": ["1", "1", "1", "1"]}}, "data_format": {"s": "TkhXQw=="}, "use_cudnn_on_gpu": {"b": true}, "padding": {"s": "U0FNRQ=="}}}, {"name": "FeatureExtractor/MobilenetV2/expanded_conv/project/BatchNorm/FusedBatchNorm", "op": "Add", "input": ["FeatureExtractor/MobilenetV2/expanded_conv/project/BatchNorm/FusedBatchNorm/Mul", "FeatureExtractor/MobilenetV2/expanded_conv/project/BatchNorm/FusedBatchNorm/Offset"], "attr": {"T": {"type": "DT_FLOAT"}}}, {"name": "FeatureExtractor/MobilenetV2/expanded_conv_1/expand/BatchNorm/FusedBatchNorm/Mul", "op": "Conv2D", "input": ["FeatureExtractor/MobilenetV2/expanded_conv/project/BatchNorm/FusedBatchNorm", "FeatureExtractor/MobilenetV2/expanded_conv_1/expand/Conv2D/merged_input"], "attr": {"dilations": {"list": {"i": ["1", "1", "1", "1"]}}, "T": {"type": "DT_FLOAT"}, "strides": {"list": {"i": ["1", "1", "1", "1"]}}, "data_format": {"s": "TkhXQw=="}, "use_cudnn_on_gpu": {"b": true}, "padding": {"s": "U0FNRQ=="}}}, {"name": "FeatureExtractor/MobilenetV2/expanded_conv_1/expand/BatchNorm/FusedBatchNorm", "op": "Add", "input": ["FeatureExtractor/MobilenetV2/expanded_conv_1/expand/BatchNorm/FusedBatchNorm/Mul", "FeatureExtractor/MobilenetV2/expanded_conv_1/expand/BatchNorm/FusedBatchNorm/Offset"], "attr": {"T": {"type": "DT_FLOAT"}}}, {"name": "FeatureExtractor/MobilenetV2/expanded_conv_1/expand/Relu6", "op": "Relu6", "input": ["FeatureExtractor/MobilenetV2/expanded_conv_1/expand/BatchNorm/FusedBatchNorm"], "attr": {"T": {"type": "DT_FLOAT"}}}, {"name": "FeatureExtractor/MobilenetV2/expanded_conv_1/depthwise/depthwise", "op": "DepthwiseConv2dNative", "input": ["FeatureExtractor/MobilenetV2/expanded_conv_1/expand/Relu6", "FeatureExtractor/MobilenetV2/expanded_conv_1/depthwise/depthwise_weights"], "attr": {"padding": {"s": "U0FNRQ=="}, "dilations": {"list": {"i": ["1", "1", "1", "1"]}}, "T": {"type": "DT_FLOAT"}, "data_format": {"s": "TkhXQw=="}, "strides": {"list": {"i": ["1", "2", "2", "1"]}}}}, {"name": "FeatureExtractor/MobilenetV2/expanded_conv_1/depthwise/BatchNorm/FusedBatchNorm/Mul", "op": "Mul", "input": ["FeatureExtractor/MobilenetV2/expanded_conv_1/depthwise/depthwise", "FeatureExtractor/MobilenetV2/expanded_conv_1/depthwise/BatchNorm/FusedBatchNorm/Scaled"], "attr": {"T": {"type": "DT_FLOAT"}}}, {"name": "FeatureExtractor/MobilenetV2/expanded_conv_1/depthwise/BatchNorm/FusedBatchNorm", "op": "Add", "input": ["FeatureExtractor/MobilenetV2/expanded_conv_1/depthwise/BatchNorm/FusedBatchNorm/Mul", "FeatureExtractor/MobilenetV2/expanded_conv_1/depthwise/BatchNorm/FusedBatchNorm/Offset"], "attr": {"T": {"type": "DT_FLOAT"}}}, {"name": "FeatureExtractor/MobilenetV2/expanded_conv_1/depthwise/Relu6", "op": "Relu6", "input": ["FeatureExtractor/MobilenetV2/expanded_conv_1/depthwise/BatchNorm/FusedBatchNorm"], "attr": {"T": {"type": "DT_FLOAT"}}}, {"name": "FeatureExtractor/MobilenetV2/expanded_conv_1/project/BatchNorm/FusedBatchNorm/Mul", "op": "Conv2D", "input": ["FeatureExtractor/MobilenetV2/expanded_conv_1/depthwise/Relu6", "FeatureExtractor/MobilenetV2/expanded_conv_1/project/Conv2D/merged_input"], "attr": {"dilations": {"list": {"i": ["1", "1", "1", "1"]}}, "T": {"type": "DT_FLOAT"}, "strides": {"list": {"i": ["1", "1", "1", "1"]}}, "data_format": {"s": "TkhXQw=="}, "use_cudnn_on_gpu": {"b": true}, "padding": {"s": "U0FNRQ=="}}}, {"name": "FeatureExtractor/MobilenetV2/expanded_conv_1/project/BatchNorm/FusedBatchNorm", "op": "Add", "input": ["FeatureExtractor/MobilenetV2/expanded_conv_1/project/BatchNorm/FusedBatchNorm/Mul", "FeatureExtractor/MobilenetV2/expanded_conv_1/project/BatchNorm/FusedBatchNorm/Offset"], "attr": {"T": {"type": "DT_FLOAT"}}}, {"name": "FeatureExtractor/MobilenetV2/expanded_conv_2/expand/BatchNorm/FusedBatchNorm/Mul", "op": "Conv2D", "input": ["FeatureExtractor/MobilenetV2/expanded_conv_1/project/BatchNorm/FusedBatchNorm", "FeatureExtractor/MobilenetV2/expanded_conv_2/expand/Conv2D/merged_input"], "attr": {"dilations": {"list": {"i": ["1", "1", "1", "1"]}}, "T": {"type": "DT_FLOAT"}, "strides": {"list": {"i": ["1", "1", "1", "1"]}}, "data_format": {"s": "TkhXQw=="}, "use_cudnn_on_gpu": {"b": true}, "padding": {"s": "U0FNRQ=="}}}, {"name": "FeatureExtractor/MobilenetV2/expanded_conv_2/expand/BatchNorm/FusedBatchNorm", "op": "Add", "input": ["FeatureExtractor/MobilenetV2/expanded_conv_2/expand/BatchNorm/FusedBatchNorm/Mul", "FeatureExtractor/MobilenetV2/expanded_conv_2/expand/BatchNorm/FusedBatchNorm/Offset"], "attr": {"T": {"type": "DT_FLOAT"}}}, {"name": "FeatureExtractor/MobilenetV2/expanded_conv_2/expand/Relu6", "op": "Relu6", "input": ["FeatureExtractor/MobilenetV2/expanded_conv_2/expand/BatchNorm/FusedBatchNorm"], "attr": {"T": {"type": "DT_FLOAT"}}}, {"name": "FeatureExtractor/MobilenetV2/expanded_conv_2/depthwise/depthwise", "op": "DepthwiseConv2dNative", "input": ["FeatureExtractor/MobilenetV2/expanded_conv_2/expand/Relu6", "FeatureExtractor/MobilenetV2/expanded_conv_2/depthwise/depthwise_weights"], "attr": {"padding": {"s": "U0FNRQ=="}, "dilations": {"list": {"i": ["1", "1", "1", "1"]}}, "T": {"type": "DT_FLOAT"}, "data_format": {"s": "TkhXQw=="}, "strides": {"list": {"i": ["1", "1", "1", "1"]}}}}, {"name": "FeatureExtractor/MobilenetV2/expanded_conv_2/depthwise/BatchNorm/FusedBatchNorm/Mul", "op": "Mul", "input": ["FeatureExtractor/MobilenetV2/expanded_conv_2/depthwise/depthwise", "FeatureExtractor/MobilenetV2/expanded_conv_2/depthwise/BatchNorm/FusedBatchNorm/Scaled"], "attr": {"T": {"type": "DT_FLOAT"}}}, {"name": "FeatureExtractor/MobilenetV2/expanded_conv_2/depthwise/BatchNorm/FusedBatchNorm", "op": "Add", "input": ["FeatureExtractor/MobilenetV2/expanded_conv_2/depthwise/BatchNorm/FusedBatchNorm/Mul", "FeatureExtractor/MobilenetV2/expanded_conv_2/depthwise/BatchNorm/FusedBatchNorm/Offset"], "attr": {"T": {"type": "DT_FLOAT"}}}, {"name": "FeatureExtractor/MobilenetV2/expanded_conv_2/depthwise/Relu6", "op": "Relu6", "input": ["FeatureExtractor/MobilenetV2/expanded_conv_2/depthwise/BatchNorm/FusedBatchNorm"], "attr": {"T": {"type": "DT_FLOAT"}}}, {"name": "FeatureExtractor/MobilenetV2/expanded_conv_2/project/BatchNorm/FusedBatchNorm/Mul", "op": "Conv2D", "input": ["FeatureExtractor/MobilenetV2/expanded_conv_2/depthwise/Relu6", "FeatureExtractor/MobilenetV2/expanded_conv_2/project/Conv2D/merged_input"], "attr": {"dilations": {"list": {"i": ["1", "1", "1", "1"]}}, "T": {"type": "DT_FLOAT"}, "strides": {"list": {"i": ["1", "1", "1", "1"]}}, "data_format": {"s": "TkhXQw=="}, "use_cudnn_on_gpu": {"b": true}, "padding": {"s": "U0FNRQ=="}}}, {"name": "FeatureExtractor/MobilenetV2/expanded_conv_2/ArithmeticOptimizer/AddOpsRewrite_Leaf_1_add", "op": "AddN", "input": ["FeatureExtractor/MobilenetV2/expanded_conv_2/project/BatchNorm/FusedBatchNorm/Mul", "FeatureExtractor/MobilenetV2/expanded_conv_1/project/BatchNorm/FusedBatchNorm"], "attr": {"T": {"type": "DT_FLOAT"}, "_grappler:ArithmeticOptimizer:AddOpsRewriteStage": {"b": true}, "N": {"i": "2"}}}, {"name": "FeatureExtractor/MobilenetV2/expanded_conv_2/ArithmeticOptimizer/AddOpsRewrite_add", "op": "Add", "input": ["FeatureExtractor/MobilenetV2/expanded_conv_2/project/BatchNorm/FusedBatchNorm/Offset", "FeatureExtractor/MobilenetV2/expanded_conv_2/ArithmeticOptimizer/AddOpsRewrite_Leaf_1_add"], "attr": {"T": {"type": "DT_FLOAT"}, "_grappler:ArithmeticOptimizer:AddOpsRewriteStage": {"b": true}}}, {"name": "FeatureExtractor/MobilenetV2/expanded_conv_3/expand/BatchNorm/FusedBatchNorm/Mul", "op": "Conv2D", "input": ["FeatureExtractor/MobilenetV2/expanded_conv_2/ArithmeticOptimizer/AddOpsRewrite_add", "FeatureExtractor/MobilenetV2/expanded_conv_3/expand/Conv2D/merged_input"], "attr": {"dilations": {"list": {"i": ["1", "1", "1", "1"]}}, "T": {"type": "DT_FLOAT"}, "strides": {"list": {"i": ["1", "1", "1", "1"]}}, "data_format": {"s": "TkhXQw=="}, "use_cudnn_on_gpu": {"b": true}, "padding": {"s": "U0FNRQ=="}}}, {"name": "FeatureExtractor/MobilenetV2/expanded_conv_3/expand/BatchNorm/FusedBatchNorm", "op": "Add", "input": ["FeatureExtractor/MobilenetV2/expanded_conv_3/expand/BatchNorm/FusedBatchNorm/Mul", "FeatureExtractor/MobilenetV2/expanded_conv_3/expand/BatchNorm/FusedBatchNorm/Offset"], "attr": {"T": {"type": "DT_FLOAT"}}}, {"name": "FeatureExtractor/MobilenetV2/expanded_conv_3/expand/Relu6", "op": "Relu6", "input": ["FeatureExtractor/MobilenetV2/expanded_conv_3/expand/BatchNorm/FusedBatchNorm"], "attr": {"T": {"type": "DT_FLOAT"}}}, {"name": "FeatureExtractor/MobilenetV2/expanded_conv_3/depthwise/depthwise", "op": "DepthwiseConv2dNative", "input": ["FeatureExtractor/MobilenetV2/expanded_conv_3/expand/Relu6", "FeatureExtractor/MobilenetV2/expanded_conv_3/depthwise/depthwise_weights"], "attr": {"padding": {"s": "U0FNRQ=="}, "dilations": {"list": {"i": ["1", "1", "1", "1"]}}, "T": {"type": "DT_FLOAT"}, "data_format": {"s": "TkhXQw=="}, "strides": {"list": {"i": ["1", "2", "2", "1"]}}}}, {"name": "FeatureExtractor/MobilenetV2/expanded_conv_3/depthwise/BatchNorm/FusedBatchNorm/Mul", "op": "Mul", "input": ["FeatureExtractor/MobilenetV2/expanded_conv_3/depthwise/depthwise", "FeatureExtractor/MobilenetV2/expanded_conv_3/depthwise/BatchNorm/FusedBatchNorm/Scaled"], "attr": {"T": {"type": "DT_FLOAT"}}}, {"name": "FeatureExtractor/MobilenetV2/expanded_conv_3/depthwise/BatchNorm/FusedBatchNorm", "op": "Add", "input": ["FeatureExtractor/MobilenetV2/expanded_conv_3/depthwise/BatchNorm/FusedBatchNorm/Mul", "FeatureExtractor/MobilenetV2/expanded_conv_3/depthwise/BatchNorm/FusedBatchNorm/Offset"], "attr": {"T": {"type": "DT_FLOAT"}}}, {"name": "FeatureExtractor/MobilenetV2/expanded_conv_3/depthwise/Relu6", "op": "Relu6", "input": ["FeatureExtractor/MobilenetV2/expanded_conv_3/depthwise/BatchNorm/FusedBatchNorm"], "attr": {"T": {"type": "DT_FLOAT"}}}, {"name": "FeatureExtractor/MobilenetV2/expanded_conv_3/project/BatchNorm/FusedBatchNorm/Mul", "op": "Conv2D", "input": ["FeatureExtractor/MobilenetV2/expanded_conv_3/depthwise/Relu6", "FeatureExtractor/MobilenetV2/expanded_conv_3/project/Conv2D/merged_input"], "attr": {"dilations": {"list": {"i": ["1", "1", "1", "1"]}}, "T": {"type": "DT_FLOAT"}, "strides": {"list": {"i": ["1", "1", "1", "1"]}}, "data_format": {"s": "TkhXQw=="}, "use_cudnn_on_gpu": {"b": true}, "padding": {"s": "U0FNRQ=="}}}, {"name": "FeatureExtractor/MobilenetV2/expanded_conv_3/project/BatchNorm/FusedBatchNorm", "op": "Add", "input": ["FeatureExtractor/MobilenetV2/expanded_conv_3/project/BatchNorm/FusedBatchNorm/Mul", "FeatureExtractor/MobilenetV2/expanded_conv_3/project/BatchNorm/FusedBatchNorm/Offset"], "attr": {"T": {"type": "DT_FLOAT"}}}, {"name": "FeatureExtractor/MobilenetV2/expanded_conv_4/expand/BatchNorm/FusedBatchNorm/Mul", "op": "Conv2D", "input": ["FeatureExtractor/MobilenetV2/expanded_conv_3/project/BatchNorm/FusedBatchNorm", "FeatureExtractor/MobilenetV2/expanded_conv_4/expand/Conv2D/merged_input"], "attr": {"dilations": {"list": {"i": ["1", "1", "1", "1"]}}, "T": {"type": "DT_FLOAT"}, "strides": {"list": {"i": ["1", "1", "1", "1"]}}, "data_format": {"s": "TkhXQw=="}, "use_cudnn_on_gpu": {"b": true}, "padding": {"s": "U0FNRQ=="}}}, {"name": "FeatureExtractor/MobilenetV2/expanded_conv_4/expand/BatchNorm/FusedBatchNorm", "op": "Add", "input": ["FeatureExtractor/MobilenetV2/expanded_conv_4/expand/BatchNorm/FusedBatchNorm/Mul", "FeatureExtractor/MobilenetV2/expanded_conv_4/expand/BatchNorm/FusedBatchNorm/Offset"], "attr": {"T": {"type": "DT_FLOAT"}}}, {"name": "FeatureExtractor/MobilenetV2/expanded_conv_4/expand/Relu6", "op": "Relu6", "input": ["FeatureExtractor/MobilenetV2/expanded_conv_4/expand/BatchNorm/FusedBatchNorm"], "attr": {"T": {"type": "DT_FLOAT"}}}, {"name": "FeatureExtractor/MobilenetV2/expanded_conv_4/depthwise/depthwise", "op": "DepthwiseConv2dNative", "input": ["FeatureExtractor/MobilenetV2/expanded_conv_4/expand/Relu6", "FeatureExtractor/MobilenetV2/expanded_conv_4/depthwise/depthwise_weights"], "attr": {"padding": {"s": "U0FNRQ=="}, "dilations": {"list": {"i": ["1", "1", "1", "1"]}}, "T": {"type": "DT_FLOAT"}, "data_format": {"s": "TkhXQw=="}, "strides": {"list": {"i": ["1", "1", "1", "1"]}}}}, {"name": "FeatureExtractor/MobilenetV2/expanded_conv_4/depthwise/BatchNorm/FusedBatchNorm/Mul", "op": "Mul", "input": ["FeatureExtractor/MobilenetV2/expanded_conv_4/depthwise/depthwise", "FeatureExtractor/MobilenetV2/expanded_conv_4/depthwise/BatchNorm/FusedBatchNorm/Scaled"], "attr": {"T": {"type": "DT_FLOAT"}}}, {"name": "FeatureExtractor/MobilenetV2/expanded_conv_4/depthwise/BatchNorm/FusedBatchNorm", "op": "Add", "input": ["FeatureExtractor/MobilenetV2/expanded_conv_4/depthwise/BatchNorm/FusedBatchNorm/Mul", "FeatureExtractor/MobilenetV2/expanded_conv_4/depthwise/BatchNorm/FusedBatchNorm/Offset"], "attr": {"T": {"type": "DT_FLOAT"}}}, {"name": "FeatureExtractor/MobilenetV2/expanded_conv_4/depthwise/Relu6", "op": "Relu6", "input": ["FeatureExtractor/MobilenetV2/expanded_conv_4/depthwise/BatchNorm/FusedBatchNorm"], "attr": {"T": {"type": "DT_FLOAT"}}}, {"name": "FeatureExtractor/MobilenetV2/expanded_conv_4/project/BatchNorm/FusedBatchNorm/Mul", "op": "Conv2D", "input": ["FeatureExtractor/MobilenetV2/expanded_conv_4/depthwise/Relu6", "FeatureExtractor/MobilenetV2/expanded_conv_4/project/Conv2D/merged_input"], "attr": {"dilations": {"list": {"i": ["1", "1", "1", "1"]}}, "T": {"type": "DT_FLOAT"}, "strides": {"list": {"i": ["1", "1", "1", "1"]}}, "data_format": {"s": "TkhXQw=="}, "use_cudnn_on_gpu": {"b": true}, "padding": {"s": "U0FNRQ=="}}}, {"name": "FeatureExtractor/MobilenetV2/expanded_conv_4/ArithmeticOptimizer/AddOpsRewrite_Leaf_1_add", "op": "AddN", "input": ["FeatureExtractor/MobilenetV2/expanded_conv_4/project/BatchNorm/FusedBatchNorm/Mul", "FeatureExtractor/MobilenetV2/expanded_conv_3/project/BatchNorm/FusedBatchNorm"], "attr": {"T": {"type": "DT_FLOAT"}, "_grappler:ArithmeticOptimizer:AddOpsRewriteStage": {"b": true}, "N": {"i": "2"}}}, {"name": "FeatureExtractor/MobilenetV2/expanded_conv_4/ArithmeticOptimizer/AddOpsRewrite_add", "op": "Add", "input": ["FeatureExtractor/MobilenetV2/expanded_conv_4/project/BatchNorm/FusedBatchNorm/Offset", "FeatureExtractor/MobilenetV2/expanded_conv_4/ArithmeticOptimizer/AddOpsRewrite_Leaf_1_add"], "attr": {"T": {"type": "DT_FLOAT"}, "_grappler:ArithmeticOptimizer:AddOpsRewriteStage": {"b": true}}}, {"name": "FeatureExtractor/MobilenetV2/expanded_conv_5/expand/BatchNorm/FusedBatchNorm/Mul", "op": "Conv2D", "input": ["FeatureExtractor/MobilenetV2/expanded_conv_4/ArithmeticOptimizer/AddOpsRewrite_add", "FeatureExtractor/MobilenetV2/expanded_conv_5/expand/Conv2D/merged_input"], "attr": {"dilations": {"list": {"i": ["1", "1", "1", "1"]}}, "T": {"type": "DT_FLOAT"}, "strides": {"list": {"i": ["1", "1", "1", "1"]}}, "data_format": {"s": "TkhXQw=="}, "use_cudnn_on_gpu": {"b": true}, "padding": {"s": "U0FNRQ=="}}}, {"name": "FeatureExtractor/MobilenetV2/expanded_conv_5/expand/BatchNorm/FusedBatchNorm", "op": "Add", "input": ["FeatureExtractor/MobilenetV2/expanded_conv_5/expand/BatchNorm/FusedBatchNorm/Mul", "FeatureExtractor/MobilenetV2/expanded_conv_5/expand/BatchNorm/FusedBatchNorm/Offset"], "attr": {"T": {"type": "DT_FLOAT"}}}, {"name": "FeatureExtractor/MobilenetV2/expanded_conv_5/expand/Relu6", "op": "Relu6", "input": ["FeatureExtractor/MobilenetV2/expanded_conv_5/expand/BatchNorm/FusedBatchNorm"], "attr": {"T": {"type": "DT_FLOAT"}}}, {"name": "FeatureExtractor/MobilenetV2/expanded_conv_5/depthwise/depthwise", "op": "DepthwiseConv2dNative", "input": ["FeatureExtractor/MobilenetV2/expanded_conv_5/expand/Relu6", "FeatureExtractor/MobilenetV2/expanded_conv_5/depthwise/depthwise_weights"], "attr": {"padding": {"s": "U0FNRQ=="}, "dilations": {"list": {"i": ["1", "1", "1", "1"]}}, "T": {"type": "DT_FLOAT"}, "data_format": {"s": "TkhXQw=="}, "strides": {"list": {"i": ["1", "1", "1", "1"]}}}}, {"name": "FeatureExtractor/MobilenetV2/expanded_conv_5/depthwise/BatchNorm/FusedBatchNorm/Mul", "op": "Mul", "input": ["FeatureExtractor/MobilenetV2/expanded_conv_5/depthwise/depthwise", "FeatureExtractor/MobilenetV2/expanded_conv_5/depthwise/BatchNorm/FusedBatchNorm/Scaled"], "attr": {"T": {"type": "DT_FLOAT"}}}, {"name": "FeatureExtractor/MobilenetV2/expanded_conv_5/depthwise/BatchNorm/FusedBatchNorm", "op": "Add", "input": ["FeatureExtractor/MobilenetV2/expanded_conv_5/depthwise/BatchNorm/FusedBatchNorm/Mul", "FeatureExtractor/MobilenetV2/expanded_conv_5/depthwise/BatchNorm/FusedBatchNorm/Offset"], "attr": {"T": {"type": "DT_FLOAT"}}}, {"name": "FeatureExtractor/MobilenetV2/expanded_conv_5/depthwise/Relu6", "op": "Relu6", "input": ["FeatureExtractor/MobilenetV2/expanded_conv_5/depthwise/BatchNorm/FusedBatchNorm"], "attr": {"T": {"type": "DT_FLOAT"}}}, {"name": "FeatureExtractor/MobilenetV2/expanded_conv_5/project/BatchNorm/FusedBatchNorm/Mul", "op": "Conv2D", "input": ["FeatureExtractor/MobilenetV2/expanded_conv_5/depthwise/Relu6", "FeatureExtractor/MobilenetV2/expanded_conv_5/project/Conv2D/merged_input"], "attr": {"dilations": {"list": {"i": ["1", "1", "1", "1"]}}, "T": {"type": "DT_FLOAT"}, "strides": {"list": {"i": ["1", "1", "1", "1"]}}, "data_format": {"s": "TkhXQw=="}, "use_cudnn_on_gpu": {"b": true}, "padding": {"s": "U0FNRQ=="}}}, {"name": "FeatureExtractor/MobilenetV2/expanded_conv_5/ArithmeticOptimizer/AddOpsRewrite_Leaf_1_add", "op": "AddN", "input": ["FeatureExtractor/MobilenetV2/expanded_conv_5/project/BatchNorm/FusedBatchNorm/Mul", "FeatureExtractor/MobilenetV2/expanded_conv_4/ArithmeticOptimizer/AddOpsRewrite_add"], "attr": {"T": {"type": "DT_FLOAT"}, "_grappler:ArithmeticOptimizer:AddOpsRewriteStage": {"b": true}, "N": {"i": "2"}}}, {"name": "FeatureExtractor/MobilenetV2/expanded_conv_5/ArithmeticOptimizer/AddOpsRewrite_add", "op": "Add", "input": ["FeatureExtractor/MobilenetV2/expanded_conv_5/project/BatchNorm/FusedBatchNorm/Offset", "FeatureExtractor/MobilenetV2/expanded_conv_5/ArithmeticOptimizer/AddOpsRewrite_Leaf_1_add"], "attr": {"T": {"type": "DT_FLOAT"}, "_grappler:ArithmeticOptimizer:AddOpsRewriteStage": {"b": true}}}, {"name": "FeatureExtractor/MobilenetV2/expanded_conv_6/expand/BatchNorm/FusedBatchNorm/Mul", "op": "Conv2D", "input": ["FeatureExtractor/MobilenetV2/expanded_conv_5/ArithmeticOptimizer/AddOpsRewrite_add", "FeatureExtractor/MobilenetV2/expanded_conv_6/expand/Conv2D/merged_input"], "attr": {"dilations": {"list": {"i": ["1", "1", "1", "1"]}}, "T": {"type": "DT_FLOAT"}, "strides": {"list": {"i": ["1", "1", "1", "1"]}}, "data_format": {"s": "TkhXQw=="}, "use_cudnn_on_gpu": {"b": true}, "padding": {"s": "U0FNRQ=="}}}, {"name": "FeatureExtractor/MobilenetV2/expanded_conv_6/expand/BatchNorm/FusedBatchNorm", "op": "Add", "input": ["FeatureExtractor/MobilenetV2/expanded_conv_6/expand/BatchNorm/FusedBatchNorm/Mul", "FeatureExtractor/MobilenetV2/expanded_conv_6/expand/BatchNorm/FusedBatchNorm/Offset"], "attr": {"T": {"type": "DT_FLOAT"}}}, {"name": "FeatureExtractor/MobilenetV2/expanded_conv_6/expand/Relu6", "op": "Relu6", "input": ["FeatureExtractor/MobilenetV2/expanded_conv_6/expand/BatchNorm/FusedBatchNorm"], "attr": {"T": {"type": "DT_FLOAT"}}}, {"name": "FeatureExtractor/MobilenetV2/expanded_conv_6/depthwise/depthwise", "op": "DepthwiseConv2dNative", "input": ["FeatureExtractor/MobilenetV2/expanded_conv_6/expand/Relu6", "FeatureExtractor/MobilenetV2/expanded_conv_6/depthwise/depthwise_weights"], "attr": {"padding": {"s": "U0FNRQ=="}, "dilations": {"list": {"i": ["1", "1", "1", "1"]}}, "T": {"type": "DT_FLOAT"}, "data_format": {"s": "TkhXQw=="}, "strides": {"list": {"i": ["1", "2", "2", "1"]}}}}, {"name": "FeatureExtractor/MobilenetV2/expanded_conv_6/depthwise/BatchNorm/FusedBatchNorm/Mul", "op": "Mul", "input": ["FeatureExtractor/MobilenetV2/expanded_conv_6/depthwise/depthwise", "FeatureExtractor/MobilenetV2/expanded_conv_6/depthwise/BatchNorm/FusedBatchNorm/Scaled"], "attr": {"T": {"type": "DT_FLOAT"}}}, {"name": "FeatureExtractor/MobilenetV2/expanded_conv_6/depthwise/BatchNorm/FusedBatchNorm", "op": "Add", "input": ["FeatureExtractor/MobilenetV2/expanded_conv_6/depthwise/BatchNorm/FusedBatchNorm/Mul", "FeatureExtractor/MobilenetV2/expanded_conv_6/depthwise/BatchNorm/FusedBatchNorm/Offset"], "attr": {"T": {"type": "DT_FLOAT"}}}, {"name": "FeatureExtractor/MobilenetV2/expanded_conv_6/depthwise/Relu6", "op": "Relu6", "input": ["FeatureExtractor/MobilenetV2/expanded_conv_6/depthwise/BatchNorm/FusedBatchNorm"], "attr": {"T": {"type": "DT_FLOAT"}}}, {"name": "FeatureExtractor/MobilenetV2/expanded_conv_6/project/BatchNorm/FusedBatchNorm/Mul", "op": "Conv2D", "input": ["FeatureExtractor/MobilenetV2/expanded_conv_6/depthwise/Relu6", "FeatureExtractor/MobilenetV2/expanded_conv_6/project/Conv2D/merged_input"], "attr": {"dilations": {"list": {"i": ["1", "1", "1", "1"]}}, "T": {"type": "DT_FLOAT"}, "strides": {"list": {"i": ["1", "1", "1", "1"]}}, "data_format": {"s": "TkhXQw=="}, "use_cudnn_on_gpu": {"b": true}, "padding": {"s": "U0FNRQ=="}}}, {"name": "FeatureExtractor/MobilenetV2/expanded_conv_6/project/BatchNorm/FusedBatchNorm", "op": "Add", "input": ["FeatureExtractor/MobilenetV2/expanded_conv_6/project/BatchNorm/FusedBatchNorm/Mul", "FeatureExtractor/MobilenetV2/expanded_conv_6/project/BatchNorm/FusedBatchNorm/Offset"], "attr": {"T": {"type": "DT_FLOAT"}}}, {"name": "FeatureExtractor/MobilenetV2/expanded_conv_7/expand/BatchNorm/FusedBatchNorm/Mul", "op": "Conv2D", "input": ["FeatureExtractor/MobilenetV2/expanded_conv_6/project/BatchNorm/FusedBatchNorm", "FeatureExtractor/MobilenetV2/expanded_conv_7/expand/Conv2D/merged_input"], "attr": {"dilations": {"list": {"i": ["1", "1", "1", "1"]}}, "T": {"type": "DT_FLOAT"}, "strides": {"list": {"i": ["1", "1", "1", "1"]}}, "data_format": {"s": "TkhXQw=="}, "use_cudnn_on_gpu": {"b": true}, "padding": {"s": "U0FNRQ=="}}}, {"name": "FeatureExtractor/MobilenetV2/expanded_conv_7/expand/BatchNorm/FusedBatchNorm", "op": "Add", "input": ["FeatureExtractor/MobilenetV2/expanded_conv_7/expand/BatchNorm/FusedBatchNorm/Mul", "FeatureExtractor/MobilenetV2/expanded_conv_7/expand/BatchNorm/FusedBatchNorm/Offset"], "attr": {"T": {"type": "DT_FLOAT"}}}, {"name": "FeatureExtractor/MobilenetV2/expanded_conv_7/expand/Relu6", "op": "Relu6", "input": ["FeatureExtractor/MobilenetV2/expanded_conv_7/expand/BatchNorm/FusedBatchNorm"], "attr": {"T": {"type": "DT_FLOAT"}}}, {"name": "FeatureExtractor/MobilenetV2/expanded_conv_7/depthwise/depthwise", "op": "DepthwiseConv2dNative", "input": ["FeatureExtractor/MobilenetV2/expanded_conv_7/expand/Relu6", "FeatureExtractor/MobilenetV2/expanded_conv_7/depthwise/depthwise_weights"], "attr": {"padding": {"s": "U0FNRQ=="}, "dilations": {"list": {"i": ["1", "1", "1", "1"]}}, "T": {"type": "DT_FLOAT"}, "data_format": {"s": "TkhXQw=="}, "strides": {"list": {"i": ["1", "1", "1", "1"]}}}}, {"name": "FeatureExtractor/MobilenetV2/expanded_conv_7/depthwise/BatchNorm/FusedBatchNorm/Mul", "op": "Mul", "input": ["FeatureExtractor/MobilenetV2/expanded_conv_7/depthwise/depthwise", "FeatureExtractor/MobilenetV2/expanded_conv_7/depthwise/BatchNorm/FusedBatchNorm/Scaled"], "attr": {"T": {"type": "DT_FLOAT"}}}, {"name": "FeatureExtractor/MobilenetV2/expanded_conv_7/depthwise/BatchNorm/FusedBatchNorm", "op": "Add", "input": ["FeatureExtractor/MobilenetV2/expanded_conv_7/depthwise/BatchNorm/FusedBatchNorm/Mul", "FeatureExtractor/MobilenetV2/expanded_conv_7/depthwise/BatchNorm/FusedBatchNorm/Offset"], "attr": {"T": {"type": "DT_FLOAT"}}}, {"name": "FeatureExtractor/MobilenetV2/expanded_conv_7/depthwise/Relu6", "op": "Relu6", "input": ["FeatureExtractor/MobilenetV2/expanded_conv_7/depthwise/BatchNorm/FusedBatchNorm"], "attr": {"T": {"type": "DT_FLOAT"}}}, {"name": "FeatureExtractor/MobilenetV2/expanded_conv_7/project/BatchNorm/FusedBatchNorm/Mul", "op": "Conv2D", "input": ["FeatureExtractor/MobilenetV2/expanded_conv_7/depthwise/Relu6", "FeatureExtractor/MobilenetV2/expanded_conv_7/project/Conv2D/merged_input"], "attr": {"dilations": {"list": {"i": ["1", "1", "1", "1"]}}, "T": {"type": "DT_FLOAT"}, "strides": {"list": {"i": ["1", "1", "1", "1"]}}, "data_format": {"s": "TkhXQw=="}, "use_cudnn_on_gpu": {"b": true}, "padding": {"s": "U0FNRQ=="}}}, {"name": "FeatureExtractor/MobilenetV2/expanded_conv_7/ArithmeticOptimizer/AddOpsRewrite_Leaf_1_add", "op": "AddN", "input": ["FeatureExtractor/MobilenetV2/expanded_conv_7/project/BatchNorm/FusedBatchNorm/Mul", "FeatureExtractor/MobilenetV2/expanded_conv_6/project/BatchNorm/FusedBatchNorm"], "attr": {"T": {"type": "DT_FLOAT"}, "_grappler:ArithmeticOptimizer:AddOpsRewriteStage": {"b": true}, "N": {"i": "2"}}}, {"name": "FeatureExtractor/MobilenetV2/expanded_conv_7/ArithmeticOptimizer/AddOpsRewrite_add", "op": "Add", "input": ["FeatureExtractor/MobilenetV2/expanded_conv_7/project/BatchNorm/FusedBatchNorm/Offset", "FeatureExtractor/MobilenetV2/expanded_conv_7/ArithmeticOptimizer/AddOpsRewrite_Leaf_1_add"], "attr": {"T": {"type": "DT_FLOAT"}, "_grappler:ArithmeticOptimizer:AddOpsRewriteStage": {"b": true}}}, {"name": "FeatureExtractor/MobilenetV2/expanded_conv_8/expand/BatchNorm/FusedBatchNorm/Mul", "op": "Conv2D", "input": ["FeatureExtractor/MobilenetV2/expanded_conv_7/ArithmeticOptimizer/AddOpsRewrite_add", "FeatureExtractor/MobilenetV2/expanded_conv_8/expand/Conv2D/merged_input"], "attr": {"dilations": {"list": {"i": ["1", "1", "1", "1"]}}, "T": {"type": "DT_FLOAT"}, "strides": {"list": {"i": ["1", "1", "1", "1"]}}, "data_format": {"s": "TkhXQw=="}, "use_cudnn_on_gpu": {"b": true}, "padding": {"s": "U0FNRQ=="}}}, {"name": "FeatureExtractor/MobilenetV2/expanded_conv_8/expand/BatchNorm/FusedBatchNorm", "op": "Add", "input": ["FeatureExtractor/MobilenetV2/expanded_conv_8/expand/BatchNorm/FusedBatchNorm/Mul", "FeatureExtractor/MobilenetV2/expanded_conv_8/expand/BatchNorm/FusedBatchNorm/Offset"], "attr": {"T": {"type": "DT_FLOAT"}}}, {"name": "FeatureExtractor/MobilenetV2/expanded_conv_8/expand/Relu6", "op": "Relu6", "input": ["FeatureExtractor/MobilenetV2/expanded_conv_8/expand/BatchNorm/FusedBatchNorm"], "attr": {"T": {"type": "DT_FLOAT"}}}, {"name": "FeatureExtractor/MobilenetV2/expanded_conv_8/depthwise/depthwise", "op": "DepthwiseConv2dNative", "input": ["FeatureExtractor/MobilenetV2/expanded_conv_8/expand/Relu6", "FeatureExtractor/MobilenetV2/expanded_conv_8/depthwise/depthwise_weights"], "attr": {"padding": {"s": "U0FNRQ=="}, "dilations": {"list": {"i": ["1", "1", "1", "1"]}}, "T": {"type": "DT_FLOAT"}, "data_format": {"s": "TkhXQw=="}, "strides": {"list": {"i": ["1", "1", "1", "1"]}}}}, {"name": "FeatureExtractor/MobilenetV2/expanded_conv_8/depthwise/BatchNorm/FusedBatchNorm/Mul", "op": "Mul", "input": ["FeatureExtractor/MobilenetV2/expanded_conv_8/depthwise/depthwise", "FeatureExtractor/MobilenetV2/expanded_conv_8/depthwise/BatchNorm/FusedBatchNorm/Scaled"], "attr": {"T": {"type": "DT_FLOAT"}}}, {"name": "FeatureExtractor/MobilenetV2/expanded_conv_8/depthwise/BatchNorm/FusedBatchNorm", "op": "Add", "input": ["FeatureExtractor/MobilenetV2/expanded_conv_8/depthwise/BatchNorm/FusedBatchNorm/Mul", "FeatureExtractor/MobilenetV2/expanded_conv_8/depthwise/BatchNorm/FusedBatchNorm/Offset"], "attr": {"T": {"type": "DT_FLOAT"}}}, {"name": "FeatureExtractor/MobilenetV2/expanded_conv_8/depthwise/Relu6", "op": "Relu6", "input": ["FeatureExtractor/MobilenetV2/expanded_conv_8/depthwise/BatchNorm/FusedBatchNorm"], "attr": {"T": {"type": "DT_FLOAT"}}}, {"name": "FeatureExtractor/MobilenetV2/expanded_conv_8/project/BatchNorm/FusedBatchNorm/Mul", "op": "Conv2D", "input": ["FeatureExtractor/MobilenetV2/expanded_conv_8/depthwise/Relu6", "FeatureExtractor/MobilenetV2/expanded_conv_8/project/Conv2D/merged_input"], "attr": {"dilations": {"list": {"i": ["1", "1", "1", "1"]}}, "T": {"type": "DT_FLOAT"}, "strides": {"list": {"i": ["1", "1", "1", "1"]}}, "data_format": {"s": "TkhXQw=="}, "use_cudnn_on_gpu": {"b": true}, "padding": {"s": "U0FNRQ=="}}}, {"name": "FeatureExtractor/MobilenetV2/expanded_conv_8/ArithmeticOptimizer/AddOpsRewrite_Leaf_1_add", "op": "AddN", "input": ["FeatureExtractor/MobilenetV2/expanded_conv_8/project/BatchNorm/FusedBatchNorm/Mul", "FeatureExtractor/MobilenetV2/expanded_conv_7/ArithmeticOptimizer/AddOpsRewrite_add"], "attr": {"T": {"type": "DT_FLOAT"}, "_grappler:ArithmeticOptimizer:AddOpsRewriteStage": {"b": true}, "N": {"i": "2"}}}, {"name": "FeatureExtractor/MobilenetV2/expanded_conv_8/ArithmeticOptimizer/AddOpsRewrite_add", "op": "Add", "input": ["FeatureExtractor/MobilenetV2/expanded_conv_8/project/BatchNorm/FusedBatchNorm/Offset", "FeatureExtractor/MobilenetV2/expanded_conv_8/ArithmeticOptimizer/AddOpsRewrite_Leaf_1_add"], "attr": {"T": {"type": "DT_FLOAT"}, "_grappler:ArithmeticOptimizer:AddOpsRewriteStage": {"b": true}}}, {"name": "FeatureExtractor/MobilenetV2/expanded_conv_9/expand/BatchNorm/FusedBatchNorm/Mul", "op": "Conv2D", "input": ["FeatureExtractor/MobilenetV2/expanded_conv_8/ArithmeticOptimizer/AddOpsRewrite_add", "FeatureExtractor/MobilenetV2/expanded_conv_9/expand/Conv2D/merged_input"], "attr": {"dilations": {"list": {"i": ["1", "1", "1", "1"]}}, "T": {"type": "DT_FLOAT"}, "strides": {"list": {"i": ["1", "1", "1", "1"]}}, "data_format": {"s": "TkhXQw=="}, "use_cudnn_on_gpu": {"b": true}, "padding": {"s": "U0FNRQ=="}}}, {"name": "FeatureExtractor/MobilenetV2/expanded_conv_9/expand/BatchNorm/FusedBatchNorm", "op": "Add", "input": ["FeatureExtractor/MobilenetV2/expanded_conv_9/expand/BatchNorm/FusedBatchNorm/Mul", "FeatureExtractor/MobilenetV2/expanded_conv_9/expand/BatchNorm/FusedBatchNorm/Offset"], "attr": {"T": {"type": "DT_FLOAT"}}}, {"name": "FeatureExtractor/MobilenetV2/expanded_conv_9/expand/Relu6", "op": "Relu6", "input": ["FeatureExtractor/MobilenetV2/expanded_conv_9/expand/BatchNorm/FusedBatchNorm"], "attr": {"T": {"type": "DT_FLOAT"}}}, {"name": "FeatureExtractor/MobilenetV2/expanded_conv_9/depthwise/depthwise", "op": "DepthwiseConv2dNative", "input": ["FeatureExtractor/MobilenetV2/expanded_conv_9/expand/Relu6", "FeatureExtractor/MobilenetV2/expanded_conv_9/depthwise/depthwise_weights"], "attr": {"padding": {"s": "U0FNRQ=="}, "dilations": {"list": {"i": ["1", "1", "1", "1"]}}, "T": {"type": "DT_FLOAT"}, "data_format": {"s": "TkhXQw=="}, "strides": {"list": {"i": ["1", "1", "1", "1"]}}}}, {"name": "FeatureExtractor/MobilenetV2/expanded_conv_9/depthwise/BatchNorm/FusedBatchNorm/Mul", "op": "Mul", "input": ["FeatureExtractor/MobilenetV2/expanded_conv_9/depthwise/depthwise", "FeatureExtractor/MobilenetV2/expanded_conv_9/depthwise/BatchNorm/FusedBatchNorm/Scaled"], "attr": {"T": {"type": "DT_FLOAT"}}}, {"name": "FeatureExtractor/MobilenetV2/expanded_conv_9/depthwise/BatchNorm/FusedBatchNorm", "op": "Add", "input": ["FeatureExtractor/MobilenetV2/expanded_conv_9/depthwise/BatchNorm/FusedBatchNorm/Mul", "FeatureExtractor/MobilenetV2/expanded_conv_9/depthwise/BatchNorm/FusedBatchNorm/Offset"], "attr": {"T": {"type": "DT_FLOAT"}}}, {"name": "FeatureExtractor/MobilenetV2/expanded_conv_9/depthwise/Relu6", "op": "Relu6", "input": ["FeatureExtractor/MobilenetV2/expanded_conv_9/depthwise/BatchNorm/FusedBatchNorm"], "attr": {"T": {"type": "DT_FLOAT"}}}, {"name": "FeatureExtractor/MobilenetV2/expanded_conv_9/project/BatchNorm/FusedBatchNorm/Mul", "op": "Conv2D", "input": ["FeatureExtractor/MobilenetV2/expanded_conv_9/depthwise/Relu6", "FeatureExtractor/MobilenetV2/expanded_conv_9/project/Conv2D/merged_input"], "attr": {"dilations": {"list": {"i": ["1", "1", "1", "1"]}}, "T": {"type": "DT_FLOAT"}, "strides": {"list": {"i": ["1", "1", "1", "1"]}}, "data_format": {"s": "TkhXQw=="}, "use_cudnn_on_gpu": {"b": true}, "padding": {"s": "U0FNRQ=="}}}, {"name": "FeatureExtractor/MobilenetV2/expanded_conv_9/ArithmeticOptimizer/AddOpsRewrite_Leaf_1_add", "op": "AddN", "input": ["FeatureExtractor/MobilenetV2/expanded_conv_9/project/BatchNorm/FusedBatchNorm/Mul", "FeatureExtractor/MobilenetV2/expanded_conv_8/ArithmeticOptimizer/AddOpsRewrite_add"], "attr": {"T": {"type": "DT_FLOAT"}, "_grappler:ArithmeticOptimizer:AddOpsRewriteStage": {"b": true}, "N": {"i": "2"}}}, {"name": "FeatureExtractor/MobilenetV2/expanded_conv_9/ArithmeticOptimizer/AddOpsRewrite_add", "op": "Add", "input": ["FeatureExtractor/MobilenetV2/expanded_conv_9/project/BatchNorm/FusedBatchNorm/Offset", "FeatureExtractor/MobilenetV2/expanded_conv_9/ArithmeticOptimizer/AddOpsRewrite_Leaf_1_add"], "attr": {"T": {"type": "DT_FLOAT"}, "_grappler:ArithmeticOptimizer:AddOpsRewriteStage": {"b": true}}}, {"name": "FeatureExtractor/MobilenetV2/expanded_conv_10/expand/BatchNorm/FusedBatchNorm/Mul", "op": "Conv2D", "input": ["FeatureExtractor/MobilenetV2/expanded_conv_9/ArithmeticOptimizer/AddOpsRewrite_add", "FeatureExtractor/MobilenetV2/expanded_conv_10/expand/Conv2D/merged_input"], "attr": {"dilations": {"list": {"i": ["1", "1", "1", "1"]}}, "T": {"type": "DT_FLOAT"}, "strides": {"list": {"i": ["1", "1", "1", "1"]}}, "data_format": {"s": "TkhXQw=="}, "use_cudnn_on_gpu": {"b": true}, "padding": {"s": "U0FNRQ=="}}}, {"name": "FeatureExtractor/MobilenetV2/expanded_conv_10/expand/BatchNorm/FusedBatchNorm", "op": "Add", "input": ["FeatureExtractor/MobilenetV2/expanded_conv_10/expand/BatchNorm/FusedBatchNorm/Mul", "FeatureExtractor/MobilenetV2/expanded_conv_10/expand/BatchNorm/FusedBatchNorm/Offset"], "attr": {"T": {"type": "DT_FLOAT"}}}, {"name": "FeatureExtractor/MobilenetV2/expanded_conv_10/expand/Relu6", "op": "Relu6", "input": ["FeatureExtractor/MobilenetV2/expanded_conv_10/expand/BatchNorm/FusedBatchNorm"], "attr": {"T": {"type": "DT_FLOAT"}}}, {"name": "FeatureExtractor/MobilenetV2/expanded_conv_10/depthwise/depthwise", "op": "DepthwiseConv2dNative", "input": ["FeatureExtractor/MobilenetV2/expanded_conv_10/expand/Relu6", "FeatureExtractor/MobilenetV2/expanded_conv_10/depthwise/depthwise_weights"], "attr": {"padding": {"s": "U0FNRQ=="}, "dilations": {"list": {"i": ["1", "1", "1", "1"]}}, "T": {"type": "DT_FLOAT"}, "data_format": {"s": "TkhXQw=="}, "strides": {"list": {"i": ["1", "1", "1", "1"]}}}}, {"name": "FeatureExtractor/MobilenetV2/expanded_conv_10/depthwise/BatchNorm/FusedBatchNorm/Mul", "op": "Mul", "input": ["FeatureExtractor/MobilenetV2/expanded_conv_10/depthwise/depthwise", "FeatureExtractor/MobilenetV2/expanded_conv_10/depthwise/BatchNorm/FusedBatchNorm/Scaled"], "attr": {"T": {"type": "DT_FLOAT"}}}, {"name": "FeatureExtractor/MobilenetV2/expanded_conv_10/depthwise/BatchNorm/FusedBatchNorm", "op": "Add", "input": ["FeatureExtractor/MobilenetV2/expanded_conv_10/depthwise/BatchNorm/FusedBatchNorm/Mul", "FeatureExtractor/MobilenetV2/expanded_conv_10/depthwise/BatchNorm/FusedBatchNorm/Offset"], "attr": {"T": {"type": "DT_FLOAT"}}}, {"name": "FeatureExtractor/MobilenetV2/expanded_conv_10/depthwise/Relu6", "op": "Relu6", "input": ["FeatureExtractor/MobilenetV2/expanded_conv_10/depthwise/BatchNorm/FusedBatchNorm"], "attr": {"T": {"type": "DT_FLOAT"}}}, {"name": "FeatureExtractor/MobilenetV2/expanded_conv_10/project/BatchNorm/FusedBatchNorm/Mul", "op": "Conv2D", "input": ["FeatureExtractor/MobilenetV2/expanded_conv_10/depthwise/Relu6", "FeatureExtractor/MobilenetV2/expanded_conv_10/project/Conv2D/merged_input"], "attr": {"dilations": {"list": {"i": ["1", "1", "1", "1"]}}, "T": {"type": "DT_FLOAT"}, "strides": {"list": {"i": ["1", "1", "1", "1"]}}, "data_format": {"s": "TkhXQw=="}, "use_cudnn_on_gpu": {"b": true}, "padding": {"s": "U0FNRQ=="}}}, {"name": "FeatureExtractor/MobilenetV2/expanded_conv_10/project/BatchNorm/FusedBatchNorm", "op": "Add", "input": ["FeatureExtractor/MobilenetV2/expanded_conv_10/project/BatchNorm/FusedBatchNorm/Mul", "FeatureExtractor/MobilenetV2/expanded_conv_10/project/BatchNorm/FusedBatchNorm/Offset"], "attr": {"T": {"type": "DT_FLOAT"}}}, {"name": "FeatureExtractor/MobilenetV2/expanded_conv_11/expand/BatchNorm/FusedBatchNorm/Mul", "op": "Conv2D", "input": ["FeatureExtractor/MobilenetV2/expanded_conv_10/project/BatchNorm/FusedBatchNorm", "FeatureExtractor/MobilenetV2/expanded_conv_11/expand/Conv2D/merged_input"], "attr": {"dilations": {"list": {"i": ["1", "1", "1", "1"]}}, "T": {"type": "DT_FLOAT"}, "strides": {"list": {"i": ["1", "1", "1", "1"]}}, "data_format": {"s": "TkhXQw=="}, "use_cudnn_on_gpu": {"b": true}, "padding": {"s": "U0FNRQ=="}}}, {"name": "FeatureExtractor/MobilenetV2/expanded_conv_11/expand/BatchNorm/FusedBatchNorm", "op": "Add", "input": ["FeatureExtractor/MobilenetV2/expanded_conv_11/expand/BatchNorm/FusedBatchNorm/Mul", "FeatureExtractor/MobilenetV2/expanded_conv_11/expand/BatchNorm/FusedBatchNorm/Offset"], "attr": {"T": {"type": "DT_FLOAT"}}}, {"name": "FeatureExtractor/MobilenetV2/expanded_conv_11/expand/Relu6", "op": "Relu6", "input": ["FeatureExtractor/MobilenetV2/expanded_conv_11/expand/BatchNorm/FusedBatchNorm"], "attr": {"T": {"type": "DT_FLOAT"}}}, {"name": "FeatureExtractor/MobilenetV2/expanded_conv_11/depthwise/depthwise", "op": "DepthwiseConv2dNative", "input": ["FeatureExtractor/MobilenetV2/expanded_conv_11/expand/Relu6", "FeatureExtractor/MobilenetV2/expanded_conv_11/depthwise/depthwise_weights"], "attr": {"padding": {"s": "U0FNRQ=="}, "dilations": {"list": {"i": ["1", "1", "1", "1"]}}, "T": {"type": "DT_FLOAT"}, "data_format": {"s": "TkhXQw=="}, "strides": {"list": {"i": ["1", "1", "1", "1"]}}}}, {"name": "FeatureExtractor/MobilenetV2/expanded_conv_11/depthwise/BatchNorm/FusedBatchNorm/Mul", "op": "Mul", "input": ["FeatureExtractor/MobilenetV2/expanded_conv_11/depthwise/depthwise", "FeatureExtractor/MobilenetV2/expanded_conv_11/depthwise/BatchNorm/FusedBatchNorm/Scaled"], "attr": {"T": {"type": "DT_FLOAT"}}}, {"name": "FeatureExtractor/MobilenetV2/expanded_conv_11/depthwise/BatchNorm/FusedBatchNorm", "op": "Add", "input": ["FeatureExtractor/MobilenetV2/expanded_conv_11/depthwise/BatchNorm/FusedBatchNorm/Mul", "FeatureExtractor/MobilenetV2/expanded_conv_11/depthwise/BatchNorm/FusedBatchNorm/Offset"], "attr": {"T": {"type": "DT_FLOAT"}}}, {"name": "FeatureExtractor/MobilenetV2/expanded_conv_11/depthwise/Relu6", "op": "Relu6", "input": ["FeatureExtractor/MobilenetV2/expanded_conv_11/depthwise/BatchNorm/FusedBatchNorm"], "attr": {"T": {"type": "DT_FLOAT"}}}, {"name": "FeatureExtractor/MobilenetV2/expanded_conv_11/project/BatchNorm/FusedBatchNorm/Mul", "op": "Conv2D", "input": ["FeatureExtractor/MobilenetV2/expanded_conv_11/depthwise/Relu6", "FeatureExtractor/MobilenetV2/expanded_conv_11/project/Conv2D/merged_input"], "attr": {"dilations": {"list": {"i": ["1", "1", "1", "1"]}}, "T": {"type": "DT_FLOAT"}, "strides": {"list": {"i": ["1", "1", "1", "1"]}}, "data_format": {"s": "TkhXQw=="}, "use_cudnn_on_gpu": {"b": true}, "padding": {"s": "U0FNRQ=="}}}, {"name": "FeatureExtractor/MobilenetV2/expanded_conv_11/ArithmeticOptimizer/AddOpsRewrite_Leaf_1_add", "op": "AddN", "input": ["FeatureExtractor/MobilenetV2/expanded_conv_11/project/BatchNorm/FusedBatchNorm/Mul", "FeatureExtractor/MobilenetV2/expanded_conv_10/project/BatchNorm/FusedBatchNorm"], "attr": {"T": {"type": "DT_FLOAT"}, "_grappler:ArithmeticOptimizer:AddOpsRewriteStage": {"b": true}, "N": {"i": "2"}}}, {"name": "FeatureExtractor/MobilenetV2/expanded_conv_11/ArithmeticOptimizer/AddOpsRewrite_add", "op": "Add", "input": ["FeatureExtractor/MobilenetV2/expanded_conv_11/project/BatchNorm/FusedBatchNorm/Offset", "FeatureExtractor/MobilenetV2/expanded_conv_11/ArithmeticOptimizer/AddOpsRewrite_Leaf_1_add"], "attr": {"T": {"type": "DT_FLOAT"}, "_grappler:ArithmeticOptimizer:AddOpsRewriteStage": {"b": true}}}, {"name": "FeatureExtractor/MobilenetV2/expanded_conv_12/expand/BatchNorm/FusedBatchNorm/Mul", "op": "Conv2D", "input": ["FeatureExtractor/MobilenetV2/expanded_conv_11/ArithmeticOptimizer/AddOpsRewrite_add", "FeatureExtractor/MobilenetV2/expanded_conv_12/expand/Conv2D/merged_input"], "attr": {"dilations": {"list": {"i": ["1", "1", "1", "1"]}}, "T": {"type": "DT_FLOAT"}, "strides": {"list": {"i": ["1", "1", "1", "1"]}}, "data_format": {"s": "TkhXQw=="}, "use_cudnn_on_gpu": {"b": true}, "padding": {"s": "U0FNRQ=="}}}, {"name": "FeatureExtractor/MobilenetV2/expanded_conv_12/expand/BatchNorm/FusedBatchNorm", "op": "Add", "input": ["FeatureExtractor/MobilenetV2/expanded_conv_12/expand/BatchNorm/FusedBatchNorm/Mul", "FeatureExtractor/MobilenetV2/expanded_conv_12/expand/BatchNorm/FusedBatchNorm/Offset"], "attr": {"T": {"type": "DT_FLOAT"}}}, {"name": "FeatureExtractor/MobilenetV2/expanded_conv_12/expand/Relu6", "op": "Relu6", "input": ["FeatureExtractor/MobilenetV2/expanded_conv_12/expand/BatchNorm/FusedBatchNorm"], "attr": {"T": {"type": "DT_FLOAT"}}}, {"name": "FeatureExtractor/MobilenetV2/expanded_conv_12/depthwise/depthwise", "op": "DepthwiseConv2dNative", "input": ["FeatureExtractor/MobilenetV2/expanded_conv_12/expand/Relu6", "FeatureExtractor/MobilenetV2/expanded_conv_12/depthwise/depthwise_weights"], "attr": {"padding": {"s": "U0FNRQ=="}, "dilations": {"list": {"i": ["1", "1", "1", "1"]}}, "T": {"type": "DT_FLOAT"}, "data_format": {"s": "TkhXQw=="}, "strides": {"list": {"i": ["1", "1", "1", "1"]}}}}, {"name": "FeatureExtractor/MobilenetV2/expanded_conv_12/depthwise/BatchNorm/FusedBatchNorm/Mul", "op": "Mul", "input": ["FeatureExtractor/MobilenetV2/expanded_conv_12/depthwise/depthwise", "FeatureExtractor/MobilenetV2/expanded_conv_12/depthwise/BatchNorm/FusedBatchNorm/Scaled"], "attr": {"T": {"type": "DT_FLOAT"}}}, {"name": "FeatureExtractor/MobilenetV2/expanded_conv_12/depthwise/BatchNorm/FusedBatchNorm", "op": "Add", "input": ["FeatureExtractor/MobilenetV2/expanded_conv_12/depthwise/BatchNorm/FusedBatchNorm/Mul", "FeatureExtractor/MobilenetV2/expanded_conv_12/depthwise/BatchNorm/FusedBatchNorm/Offset"], "attr": {"T": {"type": "DT_FLOAT"}}}, {"name": "FeatureExtractor/MobilenetV2/expanded_conv_12/depthwise/Relu6", "op": "Relu6", "input": ["FeatureExtractor/MobilenetV2/expanded_conv_12/depthwise/BatchNorm/FusedBatchNorm"], "attr": {"T": {"type": "DT_FLOAT"}}}, {"name": "FeatureExtractor/MobilenetV2/expanded_conv_12/project/BatchNorm/FusedBatchNorm/Mul", "op": "Conv2D", "input": ["FeatureExtractor/MobilenetV2/expanded_conv_12/depthwise/Relu6", "FeatureExtractor/MobilenetV2/expanded_conv_12/project/Conv2D/merged_input"], "attr": {"dilations": {"list": {"i": ["1", "1", "1", "1"]}}, "T": {"type": "DT_FLOAT"}, "strides": {"list": {"i": ["1", "1", "1", "1"]}}, "data_format": {"s": "TkhXQw=="}, "use_cudnn_on_gpu": {"b": true}, "padding": {"s": "U0FNRQ=="}}}, {"name": "FeatureExtractor/MobilenetV2/expanded_conv_12/ArithmeticOptimizer/AddOpsRewrite_Leaf_1_add", "op": "AddN", "input": ["FeatureExtractor/MobilenetV2/expanded_conv_12/project/BatchNorm/FusedBatchNorm/Mul", "FeatureExtractor/MobilenetV2/expanded_conv_11/ArithmeticOptimizer/AddOpsRewrite_add"], "attr": {"T": {"type": "DT_FLOAT"}, "_grappler:ArithmeticOptimizer:AddOpsRewriteStage": {"b": true}, "N": {"i": "2"}}}, {"name": "FeatureExtractor/MobilenetV2/expanded_conv_12/ArithmeticOptimizer/AddOpsRewrite_add", "op": "Add", "input": ["FeatureExtractor/MobilenetV2/expanded_conv_12/project/BatchNorm/FusedBatchNorm/Offset", "FeatureExtractor/MobilenetV2/expanded_conv_12/ArithmeticOptimizer/AddOpsRewrite_Leaf_1_add"], "attr": {"T": {"type": "DT_FLOAT"}, "_grappler:ArithmeticOptimizer:AddOpsRewriteStage": {"b": true}}}, {"name": "FeatureExtractor/MobilenetV2/expanded_conv_13/expand/BatchNorm/FusedBatchNorm/Mul", "op": "Conv2D", "input": ["FeatureExtractor/MobilenetV2/expanded_conv_12/ArithmeticOptimizer/AddOpsRewrite_add", "FeatureExtractor/MobilenetV2/expanded_conv_13/expand/Conv2D/merged_input"], "attr": {"dilations": {"list": {"i": ["1", "1", "1", "1"]}}, "T": {"type": "DT_FLOAT"}, "strides": {"list": {"i": ["1", "1", "1", "1"]}}, "data_format": {"s": "TkhXQw=="}, "use_cudnn_on_gpu": {"b": true}, "padding": {"s": "U0FNRQ=="}}}, {"name": "FeatureExtractor/MobilenetV2/expanded_conv_13/expand/BatchNorm/FusedBatchNorm", "op": "Add", "input": ["FeatureExtractor/MobilenetV2/expanded_conv_13/expand/BatchNorm/FusedBatchNorm/Mul", "FeatureExtractor/MobilenetV2/expanded_conv_13/expand/BatchNorm/FusedBatchNorm/Offset"], "attr": {"T": {"type": "DT_FLOAT"}}}, {"name": "FeatureExtractor/MobilenetV2/expanded_conv_13/expand/Relu6", "op": "Relu6", "input": ["FeatureExtractor/MobilenetV2/expanded_conv_13/expand/BatchNorm/FusedBatchNorm"], "attr": {"T": {"type": "DT_FLOAT"}}}, {"name": "FeatureExtractor/MobilenetV2/expanded_conv_13/depthwise/depthwise", "op": "DepthwiseConv2dNative", "input": ["FeatureExtractor/MobilenetV2/expanded_conv_13/expand/Relu6", "FeatureExtractor/MobilenetV2/expanded_conv_13/depthwise/depthwise_weights"], "attr": {"padding": {"s": "U0FNRQ=="}, "dilations": {"list": {"i": ["1", "1", "1", "1"]}}, "T": {"type": "DT_FLOAT"}, "data_format": {"s": "TkhXQw=="}, "strides": {"list": {"i": ["1", "2", "2", "1"]}}}}, {"name": "BoxPredictor_0/Shape_1", "op": "Shape", "input": ["FeatureExtractor/MobilenetV2/expanded_conv_13/expand/Relu6"], "attr": {"T": {"type": "DT_FLOAT"}, "out_type": {"type": "DT_INT32"}}}, {"name": "BoxPredictor_0/BoxEncodingPredictor_depthwise/depthwise", "op": "DepthwiseConv2dNative", "input": ["FeatureExtractor/MobilenetV2/expanded_conv_13/expand/Relu6", "BoxPredictor_0/BoxEncodingPredictor_depthwise/depthwise_weights"], "attr": {"padding": {"s": "U0FNRQ=="}, "dilations": {"list": {"i": ["1", "1", "1", "1"]}}, "T": {"type": "DT_FLOAT"}, "data_format": {"s": "TkhXQw=="}, "strides": {"list": {"i": ["1", "1", "1", "1"]}}}}, {"name": "BoxPredictor_0/ClassPredictor_depthwise/depthwise", "op": "DepthwiseConv2dNative", "input": ["FeatureExtractor/MobilenetV2/expanded_conv_13/expand/Relu6", "BoxPredictor_0/ClassPredictor_depthwise/depthwise_weights"], "attr": {"padding": {"s": "U0FNRQ=="}, "dilations": {"list": {"i": ["1", "1", "1", "1"]}}, "T": {"type": "DT_FLOAT"}, "data_format": {"s": "TkhXQw=="}, "strides": {"list": {"i": ["1", "1", "1", "1"]}}}}, {"name": "FeatureExtractor/MobilenetV2/expanded_conv_13/depthwise/BatchNorm/FusedBatchNorm/Mul", "op": "Mul", "input": ["FeatureExtractor/MobilenetV2/expanded_conv_13/depthwise/depthwise", "FeatureExtractor/MobilenetV2/expanded_conv_13/depthwise/BatchNorm/FusedBatchNorm/Scaled"], "attr": {"T": {"type": "DT_FLOAT"}}}, {"name": "BoxPredictor_0/strided_slice_1", "op": "StridedSlice", "input": ["BoxPredictor_0/Shape_1", "Postprocessor/BatchMultiClassNonMaxSuppression/map/TensorArrayUnstack_1/strided_slice/stack", "Postprocessor/BatchMultiClassNonMaxSuppression/map/TensorArrayUnstack_1/strided_slice/stack_1", "Postprocessor/BatchMultiClassNonMaxSuppression/map/TensorArrayUnstack_1/strided_slice/stack_1"], "attr": {"Index": {"type": "DT_INT32"}, "T": {"type": "DT_INT32"}, "shrink_axis_mask": {"i": "1"}, "ellipsis_mask": {"i": "0"}, "begin_mask": {"i": "0"}, "new_axis_mask": {"i": "0"}, "end_mask": {"i": "0"}}}, {"name": "BoxPredictor_0/BoxEncodingPredictor_depthwise/BatchNorm/FusedBatchNorm/Mul", "op": "Mul", "input": ["BoxPredictor_0/BoxEncodingPredictor_depthwise/depthwise", "BoxPredictor_0/BoxEncodingPredictor_depthwise/BatchNorm/FusedBatchNorm/Scaled"], "attr": {"T": {"type": "DT_FLOAT"}}}, {"name": "BoxPredictor_0/ClassPredictor_depthwise/BatchNorm/FusedBatchNorm/Mul", "op": "Mul", "input": ["BoxPredictor_0/ClassPredictor_depthwise/depthwise", "BoxPredictor_0/ClassPredictor_depthwise/BatchNorm/FusedBatchNorm/Scaled"], "attr": {"T": {"type": "DT_FLOAT"}}}, {"name": "FeatureExtractor/MobilenetV2/expanded_conv_13/depthwise/BatchNorm/FusedBatchNorm", "op": "Add", "input": ["FeatureExtractor/MobilenetV2/expanded_conv_13/depthwise/BatchNorm/FusedBatchNorm/Mul", "FeatureExtractor/MobilenetV2/expanded_conv_13/depthwise/BatchNorm/FusedBatchNorm/Offset"], "attr": {"T": {"type": "DT_FLOAT"}}}, {"name": "BoxPredictor_0/Reshape/shape", "op": "Pack", "input": ["BoxPredictor_0/strided_slice_1", "BoxPredictor_0/Reshape_1/shape/1", "Postprocessor/BatchMultiClassNonMaxSuppression/map/TensorArrayStack/range/delta", "BoxPredictor_0/Reshape/shape/3"], "attr": {"T": {"type": "DT_INT32"}, "axis": {"i": "0"}, "N": {"i": "4"}}}, {"name": "BoxPredictor_0/Reshape_1/shape", "op": "Pack", "input": ["BoxPredictor_0/strided_slice_1", "BoxPredictor_0/Reshape_1/shape/1", "BoxPredictor_0/Reshape_1/shape/2"], "attr": {"T": {"type": "DT_INT32"}, "axis": {"i": "0"}, "N": {"i": "3"}}}, {"name": "BoxPredictor_0/BoxEncodingPredictor_depthwise/BatchNorm/FusedBatchNorm", "op": "Add", "input": ["BoxPredictor_0/BoxEncodingPredictor_depthwise/BatchNorm/FusedBatchNorm/Mul", "BoxPredictor_0/BoxEncodingPredictor_depthwise/BatchNorm/FusedBatchNorm/Offset"], "attr": {"T": {"type": "DT_FLOAT"}}}, {"name": "BoxPredictor_0/ClassPredictor_depthwise/BatchNorm/FusedBatchNorm", "op": "Add", "input": ["BoxPredictor_0/ClassPredictor_depthwise/BatchNorm/FusedBatchNorm/Mul", "BoxPredictor_0/ClassPredictor_depthwise/BatchNorm/FusedBatchNorm/Offset"], "attr": {"T": {"type": "DT_FLOAT"}}}, {"name": "FeatureExtractor/MobilenetV2/expanded_conv_13/depthwise/Relu6", "op": "Relu6", "input": ["FeatureExtractor/MobilenetV2/expanded_conv_13/depthwise/BatchNorm/FusedBatchNorm"], "attr": {"T": {"type": "DT_FLOAT"}}}, {"name": "BoxPredictor_0/BoxEncodingPredictor_depthwise/Relu6", "op": "Relu6", "input": ["BoxPredictor_0/BoxEncodingPredictor_depthwise/BatchNorm/FusedBatchNorm"], "attr": {"T": {"type": "DT_FLOAT"}}}, {"name": "BoxPredictor_0/ClassPredictor_depthwise/Relu6", "op": "Relu6", "input": ["BoxPredictor_0/ClassPredictor_depthwise/BatchNorm/FusedBatchNorm"], "attr": {"T": {"type": "DT_FLOAT"}}}, {"name": "FeatureExtractor/MobilenetV2/expanded_conv_13/project/BatchNorm/FusedBatchNorm/Mul", "op": "Conv2D", "input": ["FeatureExtractor/MobilenetV2/expanded_conv_13/depthwise/Relu6", "FeatureExtractor/MobilenetV2/expanded_conv_13/project/Conv2D/merged_input"], "attr": {"dilations": {"list": {"i": ["1", "1", "1", "1"]}}, "T": {"type": "DT_FLOAT"}, "strides": {"list": {"i": ["1", "1", "1", "1"]}}, "data_format": {"s": "TkhXQw=="}, "use_cudnn_on_gpu": {"b": true}, "padding": {"s": "U0FNRQ=="}}}, {"name": "BoxPredictor_0/BoxEncodingPredictor/Conv2D", "op": "Conv2D", "input": ["BoxPredictor_0/BoxEncodingPredictor_depthwise/Relu6", "BoxPredictor_0/BoxEncodingPredictor/weights"], "attr": {"dilations": {"list": {"i": ["1", "1", "1", "1"]}}, "T": {"type": "DT_FLOAT"}, "strides": {"list": {"i": ["1", "1", "1", "1"]}}, "data_format": {"s": "TkhXQw=="}, "use_cudnn_on_gpu": {"b": true}, "padding": {"s": "U0FNRQ=="}}}, {"name": "BoxPredictor_0/ClassPredictor/Conv2D", "op": "Conv2D", "input": ["BoxPredictor_0/ClassPredictor_depthwise/Relu6", "BoxPredictor_0/ClassPredictor/weights"], "attr": {"dilations": {"list": {"i": ["1", "1", "1", "1"]}}, "T": {"type": "DT_FLOAT"}, "strides": {"list": {"i": ["1", "1", "1", "1"]}}, "data_format": {"s": "TkhXQw=="}, "use_cudnn_on_gpu": {"b": true}, "padding": {"s": "U0FNRQ=="}}}, {"name": "FeatureExtractor/MobilenetV2/expanded_conv_13/project/BatchNorm/FusedBatchNorm", "op": "Add", "input": ["FeatureExtractor/MobilenetV2/expanded_conv_13/project/BatchNorm/FusedBatchNorm/Mul", "FeatureExtractor/MobilenetV2/expanded_conv_13/project/BatchNorm/FusedBatchNorm/Offset"], "attr": {"T": {"type": "DT_FLOAT"}}}, {"name": "BoxPredictor_0/BoxEncodingPredictor/BiasAdd", "op": "BiasAdd", "input": ["BoxPredictor_0/BoxEncodingPredictor/Conv2D", "BoxPredictor_0/BoxEncodingPredictor/biases"], "attr": {"T": {"type": "DT_FLOAT"}, "data_format": {"s": "TkhXQw=="}}}, {"name": "BoxPredictor_0/ClassPredictor/BiasAdd", "op": "BiasAdd", "input": ["BoxPredictor_0/ClassPredictor/Conv2D", "BoxPredictor_0/ClassPredictor/biases"], "attr": {"T": {"type": "DT_FLOAT"}, "data_format": {"s": "TkhXQw=="}}}, {"name": "FeatureExtractor/MobilenetV2/expanded_conv_14/expand/BatchNorm/FusedBatchNorm/Mul", "op": "Conv2D", "input": ["FeatureExtractor/MobilenetV2/expanded_conv_13/project/BatchNorm/FusedBatchNorm", "FeatureExtractor/MobilenetV2/expanded_conv_14/expand/Conv2D/merged_input"], "attr": {"dilations": {"list": {"i": ["1", "1", "1", "1"]}}, "T": {"type": "DT_FLOAT"}, "strides": {"list": {"i": ["1", "1", "1", "1"]}}, "data_format": {"s": "TkhXQw=="}, "use_cudnn_on_gpu": {"b": true}, "padding": {"s": "U0FNRQ=="}}}, {"name": "BoxPredictor_0/Reshape", "op": "Reshape", "input": ["BoxPredictor_0/BoxEncodingPredictor/BiasAdd", "BoxPredictor_0/Reshape/shape"], "attr": {"T": {"type": "DT_FLOAT"}, "Tshape": {"type": "DT_INT32"}}}, {"name": "BoxPredictor_0/Reshape_1", "op": "Reshape", "input": ["BoxPredictor_0/ClassPredictor/BiasAdd", "BoxPredictor_0/Reshape_1/shape"], "attr": {"T": {"type": "DT_FLOAT"}, "Tshape": {"type": "DT_INT32"}}}, {"name": "FeatureExtractor/MobilenetV2/expanded_conv_14/expand/BatchNorm/FusedBatchNorm", "op": "Add", "input": ["FeatureExtractor/MobilenetV2/expanded_conv_14/expand/BatchNorm/FusedBatchNorm/Mul", "FeatureExtractor/MobilenetV2/expanded_conv_14/expand/BatchNorm/FusedBatchNorm/Offset"], "attr": {"T": {"type": "DT_FLOAT"}}}, {"name": "FeatureExtractor/MobilenetV2/expanded_conv_14/expand/Relu6", "op": "Relu6", "input": ["FeatureExtractor/MobilenetV2/expanded_conv_14/expand/BatchNorm/FusedBatchNorm"], "attr": {"T": {"type": "DT_FLOAT"}}}, {"name": "FeatureExtractor/MobilenetV2/expanded_conv_14/depthwise/depthwise", "op": "DepthwiseConv2dNative", "input": ["FeatureExtractor/MobilenetV2/expanded_conv_14/expand/Relu6", "FeatureExtractor/MobilenetV2/expanded_conv_14/depthwise/depthwise_weights"], "attr": {"padding": {"s": "U0FNRQ=="}, "dilations": {"list": {"i": ["1", "1", "1", "1"]}}, "T": {"type": "DT_FLOAT"}, "data_format": {"s": "TkhXQw=="}, "strides": {"list": {"i": ["1", "1", "1", "1"]}}}}, {"name": "FeatureExtractor/MobilenetV2/expanded_conv_14/depthwise/BatchNorm/FusedBatchNorm/Mul", "op": "Mul", "input": ["FeatureExtractor/MobilenetV2/expanded_conv_14/depthwise/depthwise", "FeatureExtractor/MobilenetV2/expanded_conv_14/depthwise/BatchNorm/FusedBatchNorm/Scaled"], "attr": {"T": {"type": "DT_FLOAT"}}}, {"name": "FeatureExtractor/MobilenetV2/expanded_conv_14/depthwise/BatchNorm/FusedBatchNorm", "op": "Add", "input": ["FeatureExtractor/MobilenetV2/expanded_conv_14/depthwise/BatchNorm/FusedBatchNorm/Mul", "FeatureExtractor/MobilenetV2/expanded_conv_14/depthwise/BatchNorm/FusedBatchNorm/Offset"], "attr": {"T": {"type": "DT_FLOAT"}}}, {"name": "FeatureExtractor/MobilenetV2/expanded_conv_14/depthwise/Relu6", "op": "Relu6", "input": ["FeatureExtractor/MobilenetV2/expanded_conv_14/depthwise/BatchNorm/FusedBatchNorm"], "attr": {"T": {"type": "DT_FLOAT"}}}, {"name": "FeatureExtractor/MobilenetV2/expanded_conv_14/project/BatchNorm/FusedBatchNorm/Mul", "op": "Conv2D", "input": ["FeatureExtractor/MobilenetV2/expanded_conv_14/depthwise/Relu6", "FeatureExtractor/MobilenetV2/expanded_conv_14/project/Conv2D/merged_input"], "attr": {"dilations": {"list": {"i": ["1", "1", "1", "1"]}}, "T": {"type": "DT_FLOAT"}, "strides": {"list": {"i": ["1", "1", "1", "1"]}}, "data_format": {"s": "TkhXQw=="}, "use_cudnn_on_gpu": {"b": true}, "padding": {"s": "U0FNRQ=="}}}, {"name": "FeatureExtractor/MobilenetV2/expanded_conv_14/ArithmeticOptimizer/AddOpsRewrite_Leaf_1_add", "op": "AddN", "input": ["FeatureExtractor/MobilenetV2/expanded_conv_14/project/BatchNorm/FusedBatchNorm/Mul", "FeatureExtractor/MobilenetV2/expanded_conv_13/project/BatchNorm/FusedBatchNorm"], "attr": {"T": {"type": "DT_FLOAT"}, "_grappler:ArithmeticOptimizer:AddOpsRewriteStage": {"b": true}, "N": {"i": "2"}}}, {"name": "FeatureExtractor/MobilenetV2/expanded_conv_14/ArithmeticOptimizer/AddOpsRewrite_add", "op": "Add", "input": ["FeatureExtractor/MobilenetV2/expanded_conv_14/project/BatchNorm/FusedBatchNorm/Offset", "FeatureExtractor/MobilenetV2/expanded_conv_14/ArithmeticOptimizer/AddOpsRewrite_Leaf_1_add"], "attr": {"T": {"type": "DT_FLOAT"}, "_grappler:ArithmeticOptimizer:AddOpsRewriteStage": {"b": true}}}, {"name": "FeatureExtractor/MobilenetV2/expanded_conv_15/expand/BatchNorm/FusedBatchNorm/Mul", "op": "Conv2D", "input": ["FeatureExtractor/MobilenetV2/expanded_conv_14/ArithmeticOptimizer/AddOpsRewrite_add", "FeatureExtractor/MobilenetV2/expanded_conv_15/expand/Conv2D/merged_input"], "attr": {"dilations": {"list": {"i": ["1", "1", "1", "1"]}}, "T": {"type": "DT_FLOAT"}, "strides": {"list": {"i": ["1", "1", "1", "1"]}}, "data_format": {"s": "TkhXQw=="}, "use_cudnn_on_gpu": {"b": true}, "padding": {"s": "U0FNRQ=="}}}, {"name": "FeatureExtractor/MobilenetV2/expanded_conv_15/expand/BatchNorm/FusedBatchNorm", "op": "Add", "input": ["FeatureExtractor/MobilenetV2/expanded_conv_15/expand/BatchNorm/FusedBatchNorm/Mul", "FeatureExtractor/MobilenetV2/expanded_conv_15/expand/BatchNorm/FusedBatchNorm/Offset"], "attr": {"T": {"type": "DT_FLOAT"}}}, {"name": "FeatureExtractor/MobilenetV2/expanded_conv_15/expand/Relu6", "op": "Relu6", "input": ["FeatureExtractor/MobilenetV2/expanded_conv_15/expand/BatchNorm/FusedBatchNorm"], "attr": {"T": {"type": "DT_FLOAT"}}}, {"name": "FeatureExtractor/MobilenetV2/expanded_conv_15/depthwise/depthwise", "op": "DepthwiseConv2dNative", "input": ["FeatureExtractor/MobilenetV2/expanded_conv_15/expand/Relu6", "FeatureExtractor/MobilenetV2/expanded_conv_15/depthwise/depthwise_weights"], "attr": {"padding": {"s": "U0FNRQ=="}, "dilations": {"list": {"i": ["1", "1", "1", "1"]}}, "T": {"type": "DT_FLOAT"}, "data_format": {"s": "TkhXQw=="}, "strides": {"list": {"i": ["1", "1", "1", "1"]}}}}, {"name": "FeatureExtractor/MobilenetV2/expanded_conv_15/depthwise/BatchNorm/FusedBatchNorm/Mul", "op": "Mul", "input": ["FeatureExtractor/MobilenetV2/expanded_conv_15/depthwise/depthwise", "FeatureExtractor/MobilenetV2/expanded_conv_15/depthwise/BatchNorm/FusedBatchNorm/Scaled"], "attr": {"T": {"type": "DT_FLOAT"}}}, {"name": "FeatureExtractor/MobilenetV2/expanded_conv_15/depthwise/BatchNorm/FusedBatchNorm", "op": "Add", "input": ["FeatureExtractor/MobilenetV2/expanded_conv_15/depthwise/BatchNorm/FusedBatchNorm/Mul", "FeatureExtractor/MobilenetV2/expanded_conv_15/depthwise/BatchNorm/FusedBatchNorm/Offset"], "attr": {"T": {"type": "DT_FLOAT"}}}, {"name": "FeatureExtractor/MobilenetV2/expanded_conv_15/depthwise/Relu6", "op": "Relu6", "input": ["FeatureExtractor/MobilenetV2/expanded_conv_15/depthwise/BatchNorm/FusedBatchNorm"], "attr": {"T": {"type": "DT_FLOAT"}}}, {"name": "FeatureExtractor/MobilenetV2/expanded_conv_15/project/BatchNorm/FusedBatchNorm/Mul", "op": "Conv2D", "input": ["FeatureExtractor/MobilenetV2/expanded_conv_15/depthwise/Relu6", "FeatureExtractor/MobilenetV2/expanded_conv_15/project/Conv2D/merged_input"], "attr": {"dilations": {"list": {"i": ["1", "1", "1", "1"]}}, "T": {"type": "DT_FLOAT"}, "strides": {"list": {"i": ["1", "1", "1", "1"]}}, "data_format": {"s": "TkhXQw=="}, "use_cudnn_on_gpu": {"b": true}, "padding": {"s": "U0FNRQ=="}}}, {"name": "FeatureExtractor/MobilenetV2/expanded_conv_15/ArithmeticOptimizer/AddOpsRewrite_Leaf_1_add", "op": "AddN", "input": ["FeatureExtractor/MobilenetV2/expanded_conv_15/project/BatchNorm/FusedBatchNorm/Mul", "FeatureExtractor/MobilenetV2/expanded_conv_14/ArithmeticOptimizer/AddOpsRewrite_add"], "attr": {"T": {"type": "DT_FLOAT"}, "_grappler:ArithmeticOptimizer:AddOpsRewriteStage": {"b": true}, "N": {"i": "2"}}}, {"name": "FeatureExtractor/MobilenetV2/expanded_conv_15/ArithmeticOptimizer/AddOpsRewrite_add", "op": "Add", "input": ["FeatureExtractor/MobilenetV2/expanded_conv_15/project/BatchNorm/FusedBatchNorm/Offset", "FeatureExtractor/MobilenetV2/expanded_conv_15/ArithmeticOptimizer/AddOpsRewrite_Leaf_1_add"], "attr": {"T": {"type": "DT_FLOAT"}, "_grappler:ArithmeticOptimizer:AddOpsRewriteStage": {"b": true}}}, {"name": "FeatureExtractor/MobilenetV2/expanded_conv_16/expand/BatchNorm/FusedBatchNorm/Mul", "op": "Conv2D", "input": ["FeatureExtractor/MobilenetV2/expanded_conv_15/ArithmeticOptimizer/AddOpsRewrite_add", "FeatureExtractor/MobilenetV2/expanded_conv_16/expand/Conv2D/merged_input"], "attr": {"dilations": {"list": {"i": ["1", "1", "1", "1"]}}, "T": {"type": "DT_FLOAT"}, "strides": {"list": {"i": ["1", "1", "1", "1"]}}, "data_format": {"s": "TkhXQw=="}, "use_cudnn_on_gpu": {"b": true}, "padding": {"s": "U0FNRQ=="}}}, {"name": "FeatureExtractor/MobilenetV2/expanded_conv_16/expand/BatchNorm/FusedBatchNorm", "op": "Add", "input": ["FeatureExtractor/MobilenetV2/expanded_conv_16/expand/BatchNorm/FusedBatchNorm/Mul", "FeatureExtractor/MobilenetV2/expanded_conv_16/expand/BatchNorm/FusedBatchNorm/Offset"], "attr": {"T": {"type": "DT_FLOAT"}}}, {"name": "FeatureExtractor/MobilenetV2/expanded_conv_16/expand/Relu6", "op": "Relu6", "input": ["FeatureExtractor/MobilenetV2/expanded_conv_16/expand/BatchNorm/FusedBatchNorm"], "attr": {"T": {"type": "DT_FLOAT"}}}, {"name": "FeatureExtractor/MobilenetV2/expanded_conv_16/depthwise/depthwise", "op": "DepthwiseConv2dNative", "input": ["FeatureExtractor/MobilenetV2/expanded_conv_16/expand/Relu6", "FeatureExtractor/MobilenetV2/expanded_conv_16/depthwise/depthwise_weights"], "attr": {"padding": {"s": "U0FNRQ=="}, "dilations": {"list": {"i": ["1", "1", "1", "1"]}}, "T": {"type": "DT_FLOAT"}, "data_format": {"s": "TkhXQw=="}, "strides": {"list": {"i": ["1", "1", "1", "1"]}}}}, {"name": "FeatureExtractor/MobilenetV2/expanded_conv_16/depthwise/BatchNorm/FusedBatchNorm/Mul", "op": "Mul", "input": ["FeatureExtractor/MobilenetV2/expanded_conv_16/depthwise/depthwise", "FeatureExtractor/MobilenetV2/expanded_conv_16/depthwise/BatchNorm/FusedBatchNorm/Scaled"], "attr": {"T": {"type": "DT_FLOAT"}}}, {"name": "FeatureExtractor/MobilenetV2/expanded_conv_16/depthwise/BatchNorm/FusedBatchNorm", "op": "Add", "input": ["FeatureExtractor/MobilenetV2/expanded_conv_16/depthwise/BatchNorm/FusedBatchNorm/Mul", "FeatureExtractor/MobilenetV2/expanded_conv_16/depthwise/BatchNorm/FusedBatchNorm/Offset"], "attr": {"T": {"type": "DT_FLOAT"}}}, {"name": "FeatureExtractor/MobilenetV2/expanded_conv_16/depthwise/Relu6", "op": "Relu6", "input": ["FeatureExtractor/MobilenetV2/expanded_conv_16/depthwise/BatchNorm/FusedBatchNorm"], "attr": {"T": {"type": "DT_FLOAT"}}}, {"name": "FeatureExtractor/MobilenetV2/expanded_conv_16/project/BatchNorm/FusedBatchNorm/Mul", "op": "Conv2D", "input": ["FeatureExtractor/MobilenetV2/expanded_conv_16/depthwise/Relu6", "FeatureExtractor/MobilenetV2/expanded_conv_16/project/Conv2D/merged_input"], "attr": {"dilations": {"list": {"i": ["1", "1", "1", "1"]}}, "T": {"type": "DT_FLOAT"}, "strides": {"list": {"i": ["1", "1", "1", "1"]}}, "data_format": {"s": "TkhXQw=="}, "use_cudnn_on_gpu": {"b": true}, "padding": {"s": "U0FNRQ=="}}}, {"name": "FeatureExtractor/MobilenetV2/expanded_conv_16/project/BatchNorm/FusedBatchNorm", "op": "Add", "input": ["FeatureExtractor/MobilenetV2/expanded_conv_16/project/BatchNorm/FusedBatchNorm/Mul", "FeatureExtractor/MobilenetV2/expanded_conv_16/project/BatchNorm/FusedBatchNorm/Offset"], "attr": {"T": {"type": "DT_FLOAT"}}}, {"name": "FeatureExtractor/MobilenetV2/Conv_1/BatchNorm/FusedBatchNorm/Mul", "op": "Conv2D", "input": ["FeatureExtractor/MobilenetV2/expanded_conv_16/project/BatchNorm/FusedBatchNorm", "FeatureExtractor/MobilenetV2/Conv_1/Conv2D/merged_input"], "attr": {"dilations": {"list": {"i": ["1", "1", "1", "1"]}}, "T": {"type": "DT_FLOAT"}, "strides": {"list": {"i": ["1", "1", "1", "1"]}}, "data_format": {"s": "TkhXQw=="}, "use_cudnn_on_gpu": {"b": true}, "padding": {"s": "U0FNRQ=="}}}, {"name": "FeatureExtractor/MobilenetV2/Conv_1/BatchNorm/FusedBatchNorm", "op": "Add", "input": ["FeatureExtractor/MobilenetV2/Conv_1/BatchNorm/FusedBatchNorm/Mul", "FeatureExtractor/MobilenetV2/Conv_1/BatchNorm/FusedBatchNorm/Offset"], "attr": {"T": {"type": "DT_FLOAT"}}}, {"name": "FeatureExtractor/MobilenetV2/Conv_1/Relu6", "op": "Relu6", "input": ["FeatureExtractor/MobilenetV2/Conv_1/BatchNorm/FusedBatchNorm"], "attr": {"T": {"type": "DT_FLOAT"}}}, {"name": "FeatureExtractor/MobilenetV2/layer_19_1_Conv2d_2_1x1_256/BatchNorm/FusedBatchNorm/Mul", "op": "Conv2D", "input": ["FeatureExtractor/MobilenetV2/Conv_1/Relu6", "FeatureExtractor/MobilenetV2/layer_19_1_Conv2d_2_1x1_256/Conv2D/merged_input"], "attr": {"dilations": {"list": {"i": ["1", "1", "1", "1"]}}, "T": {"type": "DT_FLOAT"}, "strides": {"list": {"i": ["1", "1", "1", "1"]}}, "data_format": {"s": "TkhXQw=="}, "use_cudnn_on_gpu": {"b": true}, "padding": {"s": "U0FNRQ=="}}}, {"name": "BoxPredictor_1/Shape_1", "op": "Shape", "input": ["FeatureExtractor/MobilenetV2/Conv_1/Relu6"], "attr": {"T": {"type": "DT_FLOAT"}, "out_type": {"type": "DT_INT32"}}}, {"name": "BoxPredictor_1/BoxEncodingPredictor_depthwise/depthwise", "op": "DepthwiseConv2dNative", "input": ["FeatureExtractor/MobilenetV2/Conv_1/Relu6", "BoxPredictor_1/BoxEncodingPredictor_depthwise/depthwise_weights"], "attr": {"padding": {"s": "U0FNRQ=="}, "dilations": {"list": {"i": ["1", "1", "1", "1"]}}, "T": {"type": "DT_FLOAT"}, "data_format": {"s": "TkhXQw=="}, "strides": {"list": {"i": ["1", "1", "1", "1"]}}}}, {"name": "BoxPredictor_1/ClassPredictor_depthwise/depthwise", "op": "DepthwiseConv2dNative", "input": ["FeatureExtractor/MobilenetV2/Conv_1/Relu6", "BoxPredictor_1/ClassPredictor_depthwise/depthwise_weights"], "attr": {"padding": {"s": "U0FNRQ=="}, "dilations": {"list": {"i": ["1", "1", "1", "1"]}}, "T": {"type": "DT_FLOAT"}, "data_format": {"s": "TkhXQw=="}, "strides": {"list": {"i": ["1", "1", "1", "1"]}}}}, {"name": "FeatureExtractor/MobilenetV2/layer_19_1_Conv2d_2_1x1_256/BatchNorm/FusedBatchNorm", "op": "Add", "input": ["FeatureExtractor/MobilenetV2/layer_19_1_Conv2d_2_1x1_256/BatchNorm/FusedBatchNorm/Mul", "FeatureExtractor/MobilenetV2/layer_19_1_Conv2d_2_1x1_256/BatchNorm/FusedBatchNorm/Offset"], "attr": {"T": {"type": "DT_FLOAT"}}}, {"name": "BoxPredictor_1/strided_slice_1", "op": "StridedSlice", "input": ["BoxPredictor_1/Shape_1", "Postprocessor/BatchMultiClassNonMaxSuppression/map/TensorArrayUnstack_1/strided_slice/stack", "Postprocessor/BatchMultiClassNonMaxSuppression/map/TensorArrayUnstack_1/strided_slice/stack_1", "Postprocessor/BatchMultiClassNonMaxSuppression/map/TensorArrayUnstack_1/strided_slice/stack_1"], "attr": {"Index": {"type": "DT_INT32"}, "T": {"type": "DT_INT32"}, "shrink_axis_mask": {"i": "1"}, "ellipsis_mask": {"i": "0"}, "begin_mask": {"i": "0"}, "new_axis_mask": {"i": "0"}, "end_mask": {"i": "0"}}}, {"name": "BoxPredictor_1/BoxEncodingPredictor_depthwise/BatchNorm/FusedBatchNorm/Mul", "op": "Mul", "input": ["BoxPredictor_1/BoxEncodingPredictor_depthwise/depthwise", "BoxPredictor_1/BoxEncodingPredictor_depthwise/BatchNorm/FusedBatchNorm/Scaled"], "attr": {"T": {"type": "DT_FLOAT"}}}, {"name": "BoxPredictor_1/ClassPredictor_depthwise/BatchNorm/FusedBatchNorm/Mul", "op": "Mul", "input": ["BoxPredictor_1/ClassPredictor_depthwise/depthwise", "BoxPredictor_1/ClassPredictor_depthwise/BatchNorm/FusedBatchNorm/Scaled"], "attr": {"T": {"type": "DT_FLOAT"}}}, {"name": "FeatureExtractor/MobilenetV2/layer_19_1_Conv2d_2_1x1_256/Relu6", "op": "Relu6", "input": ["FeatureExtractor/MobilenetV2/layer_19_1_Conv2d_2_1x1_256/BatchNorm/FusedBatchNorm"], "attr": {"T": {"type": "DT_FLOAT"}}}, {"name": "BoxPredictor_1/Reshape/shape", "op": "Pack", "input": ["BoxPredictor_1/strided_slice_1", "BoxPredictor_0/Reshape_1/shape/1", "Postprocessor/BatchMultiClassNonMaxSuppression/map/TensorArrayStack/range/delta", "BoxPredictor_0/Reshape/shape/3"], "attr": {"T": {"type": "DT_INT32"}, "axis": {"i": "0"}, "N": {"i": "4"}}}, {"name": "BoxPredictor_1/Reshape_1/shape", "op": "Pack", "input": ["BoxPredictor_1/strided_slice_1", "BoxPredictor_0/Reshape_1/shape/1", "BoxPredictor_0/Reshape_1/shape/2"], "attr": {"T": {"type": "DT_INT32"}, "axis": {"i": "0"}, "N": {"i": "3"}}}, {"name": "BoxPredictor_1/BoxEncodingPredictor_depthwise/BatchNorm/FusedBatchNorm", "op": "Add", "input": ["BoxPredictor_1/BoxEncodingPredictor_depthwise/BatchNorm/FusedBatchNorm/Mul", "BoxPredictor_1/BoxEncodingPredictor_depthwise/BatchNorm/FusedBatchNorm/Offset"], "attr": {"T": {"type": "DT_FLOAT"}}}, {"name": "BoxPredictor_1/ClassPredictor_depthwise/BatchNorm/FusedBatchNorm", "op": "Add", "input": ["BoxPredictor_1/ClassPredictor_depthwise/BatchNorm/FusedBatchNorm/Mul", "BoxPredictor_1/ClassPredictor_depthwise/BatchNorm/FusedBatchNorm/Offset"], "attr": {"T": {"type": "DT_FLOAT"}}}, {"name": "FeatureExtractor/MobilenetV2/layer_19_2_Conv2d_2_3x3_s2_512_depthwise/depthwise", "op": "DepthwiseConv2dNative", "input": ["FeatureExtractor/MobilenetV2/layer_19_1_Conv2d_2_1x1_256/Relu6", "FeatureExtractor/MobilenetV2/layer_19_2_Conv2d_2_3x3_s2_512_depthwise/depthwise_weights"], "attr": {"padding": {"s": "U0FNRQ=="}, "dilations": {"list": {"i": ["1", "1", "1", "1"]}}, "T": {"type": "DT_FLOAT"}, "data_format": {"s": "TkhXQw=="}, "strides": {"list": {"i": ["1", "2", "2", "1"]}}}}, {"name": "BoxPredictor_1/BoxEncodingPredictor_depthwise/Relu6", "op": "Relu6", "input": ["BoxPredictor_1/BoxEncodingPredictor_depthwise/BatchNorm/FusedBatchNorm"], "attr": {"T": {"type": "DT_FLOAT"}}}, {"name": "BoxPredictor_1/ClassPredictor_depthwise/Relu6", "op": "Relu6", "input": ["BoxPredictor_1/ClassPredictor_depthwise/BatchNorm/FusedBatchNorm"], "attr": {"T": {"type": "DT_FLOAT"}}}, {"name": "FeatureExtractor/MobilenetV2/layer_19_2_Conv2d_2_3x3_s2_512_depthwise/BatchNorm/FusedBatchNorm/Mul", "op": "Mul", "input": ["FeatureExtractor/MobilenetV2/layer_19_2_Conv2d_2_3x3_s2_512_depthwise/depthwise", "FeatureExtractor/MobilenetV2/layer_19_2_Conv2d_2_3x3_s2_512_depthwise/BatchNorm/FusedBatchNorm/Scaled"], "attr": {"T": {"type": "DT_FLOAT"}}}, {"name": "BoxPredictor_1/BoxEncodingPredictor/Conv2D", "op": "Conv2D", "input": ["BoxPredictor_1/BoxEncodingPredictor_depthwise/Relu6", "BoxPredictor_1/BoxEncodingPredictor/weights"], "attr": {"dilations": {"list": {"i": ["1", "1", "1", "1"]}}, "T": {"type": "DT_FLOAT"}, "strides": {"list": {"i": ["1", "1", "1", "1"]}}, "data_format": {"s": "TkhXQw=="}, "use_cudnn_on_gpu": {"b": true}, "padding": {"s": "U0FNRQ=="}}}, {"name": "BoxPredictor_1/ClassPredictor/Conv2D", "op": "Conv2D", "input": ["BoxPredictor_1/ClassPredictor_depthwise/Relu6", "BoxPredictor_1/ClassPredictor/weights"], "attr": {"dilations": {"list": {"i": ["1", "1", "1", "1"]}}, "T": {"type": "DT_FLOAT"}, "strides": {"list": {"i": ["1", "1", "1", "1"]}}, "data_format": {"s": "TkhXQw=="}, "use_cudnn_on_gpu": {"b": true}, "padding": {"s": "U0FNRQ=="}}}, {"name": "FeatureExtractor/MobilenetV2/layer_19_2_Conv2d_2_3x3_s2_512_depthwise/BatchNorm/FusedBatchNorm", "op": "Add", "input": ["FeatureExtractor/MobilenetV2/layer_19_2_Conv2d_2_3x3_s2_512_depthwise/BatchNorm/FusedBatchNorm/Mul", "FeatureExtractor/MobilenetV2/layer_19_2_Conv2d_2_3x3_s2_512_depthwise/BatchNorm/FusedBatchNorm/Offset"], "attr": {"T": {"type": "DT_FLOAT"}}}, {"name": "BoxPredictor_1/BoxEncodingPredictor/BiasAdd", "op": "BiasAdd", "input": ["BoxPredictor_1/BoxEncodingPredictor/Conv2D", "BoxPredictor_1/BoxEncodingPredictor/biases"], "attr": {"T": {"type": "DT_FLOAT"}, "data_format": {"s": "TkhXQw=="}}}, {"name": "BoxPredictor_1/ClassPredictor/BiasAdd", "op": "BiasAdd", "input": ["BoxPredictor_1/ClassPredictor/Conv2D", "BoxPredictor_1/ClassPredictor/biases"], "attr": {"T": {"type": "DT_FLOAT"}, "data_format": {"s": "TkhXQw=="}}}, {"name": "FeatureExtractor/MobilenetV2/layer_19_2_Conv2d_2_3x3_s2_512_depthwise/Relu6", "op": "Relu6", "input": ["FeatureExtractor/MobilenetV2/layer_19_2_Conv2d_2_3x3_s2_512_depthwise/BatchNorm/FusedBatchNorm"], "attr": {"T": {"type": "DT_FLOAT"}}}, {"name": "BoxPredictor_1/Reshape", "op": "Reshape", "input": ["BoxPredictor_1/BoxEncodingPredictor/BiasAdd", "BoxPredictor_1/Reshape/shape"], "attr": {"T": {"type": "DT_FLOAT"}, "Tshape": {"type": "DT_INT32"}}}, {"name": "BoxPredictor_1/Reshape_1", "op": "Reshape", "input": ["BoxPredictor_1/ClassPredictor/BiasAdd", "BoxPredictor_1/Reshape_1/shape"], "attr": {"T": {"type": "DT_FLOAT"}, "Tshape": {"type": "DT_INT32"}}}, {"name": "FeatureExtractor/MobilenetV2/layer_19_2_Conv2d_2_3x3_s2_512/BatchNorm/FusedBatchNorm/Mul", "op": "Conv2D", "input": ["FeatureExtractor/MobilenetV2/layer_19_2_Conv2d_2_3x3_s2_512_depthwise/Relu6", "FeatureExtractor/MobilenetV2/layer_19_2_Conv2d_2_3x3_s2_512/Conv2D/merged_input"], "attr": {"dilations": {"list": {"i": ["1", "1", "1", "1"]}}, "T": {"type": "DT_FLOAT"}, "strides": {"list": {"i": ["1", "1", "1", "1"]}}, "data_format": {"s": "TkhXQw=="}, "use_cudnn_on_gpu": {"b": true}, "padding": {"s": "U0FNRQ=="}}}, {"name": "FeatureExtractor/MobilenetV2/layer_19_2_Conv2d_2_3x3_s2_512/BatchNorm/FusedBatchNorm", "op": "Add", "input": ["FeatureExtractor/MobilenetV2/layer_19_2_Conv2d_2_3x3_s2_512/BatchNorm/FusedBatchNorm/Mul", "FeatureExtractor/MobilenetV2/layer_19_2_Conv2d_2_3x3_s2_512/BatchNorm/FusedBatchNorm/Offset"], "attr": {"T": {"type": "DT_FLOAT"}}}, {"name": "FeatureExtractor/MobilenetV2/layer_19_2_Conv2d_2_3x3_s2_512/Relu6", "op": "Relu6", "input": ["FeatureExtractor/MobilenetV2/layer_19_2_Conv2d_2_3x3_s2_512/BatchNorm/FusedBatchNorm"], "attr": {"T": {"type": "DT_FLOAT"}}}, {"name": "FeatureExtractor/MobilenetV2/layer_19_1_Conv2d_3_1x1_128/BatchNorm/FusedBatchNorm/Mul", "op": "Conv2D", "input": ["FeatureExtractor/MobilenetV2/layer_19_2_Conv2d_2_3x3_s2_512/Relu6", "FeatureExtractor/MobilenetV2/layer_19_1_Conv2d_3_1x1_128/Conv2D/merged_input"], "attr": {"dilations": {"list": {"i": ["1", "1", "1", "1"]}}, "T": {"type": "DT_FLOAT"}, "strides": {"list": {"i": ["1", "1", "1", "1"]}}, "data_format": {"s": "TkhXQw=="}, "use_cudnn_on_gpu": {"b": true}, "padding": {"s": "U0FNRQ=="}}}, {"name": "BoxPredictor_2/Shape_1", "op": "Shape", "input": ["FeatureExtractor/MobilenetV2/layer_19_2_Conv2d_2_3x3_s2_512/Relu6"], "attr": {"T": {"type": "DT_FLOAT"}, "out_type": {"type": "DT_INT32"}}}, {"name": "BoxPredictor_2/BoxEncodingPredictor_depthwise/depthwise", "op": "DepthwiseConv2dNative", "input": ["FeatureExtractor/MobilenetV2/layer_19_2_Conv2d_2_3x3_s2_512/Relu6", "BoxPredictor_2/BoxEncodingPredictor_depthwise/depthwise_weights"], "attr": {"padding": {"s": "U0FNRQ=="}, "dilations": {"list": {"i": ["1", "1", "1", "1"]}}, "T": {"type": "DT_FLOAT"}, "data_format": {"s": "TkhXQw=="}, "strides": {"list": {"i": ["1", "1", "1", "1"]}}}}, {"name": "BoxPredictor_2/ClassPredictor_depthwise/depthwise", "op": "DepthwiseConv2dNative", "input": ["FeatureExtractor/MobilenetV2/layer_19_2_Conv2d_2_3x3_s2_512/Relu6", "BoxPredictor_2/ClassPredictor_depthwise/depthwise_weights"], "attr": {"padding": {"s": "U0FNRQ=="}, "dilations": {"lis…
1_128/Conv2D/merged_input", "shape": [1, 1, 512, 128], "dtype": "float32", "quantization": {"min": -0.5064700030403751, "scale": 1.728979630083553e-05, "dtype": "uint16"}}, {"name": "FeatureExtractor/MobilenetV2/layer_19_2_Conv2d_2_3x3_s2_512/BatchNorm/FusedBatchNorm/Offset", "shape": [512], "dtype": "float32", "quantization": {"min": -3.3387473025401633, "scale": 0.00012239258413212226, "dtype": "uint16"}}, {"name": "FeatureExtractor/MobilenetV2/layer_19_2_Conv2d_2_3x3_s2_512/Conv2D/merged_input", "shape": [1, 1, 256, 512], "dtype": "float32", "quantization": {"min": -1.494159612614166, "scale": 4.238029307392121e-05, "dtype": "uint16"}}, {"name": "FeatureExtractor/MobilenetV2/layer_19_2_Conv2d_2_3x3_s2_512_depthwise/BatchNorm/FusedBatchNorm/Offset", "shape": [256], "dtype": "float32", "quantization": {"min": -5.93741612693779, "scale": 0.00021056160461514257, "dtype": "uint16"}}, {"name": "FeatureExtractor/MobilenetV2/layer_19_2_Conv2d_2_3x3_s2_512_depthwise/BatchNorm/FusedBatchNorm/Scaled", "shape": [256], "dtype": "float32", "quantization": {"min": 1.4356505870819092, "scale": 0.000606187894068385, "dtype": "uint16"}}, {"name": "FeatureExtractor/MobilenetV2/layer_19_2_Conv2d_2_3x3_s2_512_depthwise/depthwise_weights", "shape": [3, 3, 256, 1], "dtype": "float32", "quantization": {"min": -0.33252961813125675, "scale": 9.437212456897967e-06, "dtype": "uint16"}}, {"name": "FeatureExtractor/MobilenetV2/layer_19_1_Conv2d_2_1x1_256/BatchNorm/FusedBatchNorm/Offset", "shape": [256], "dtype": "float32", "quantization": {"min": -0.8784276806326837, "scale": 5.7417326664009654e-05, "dtype": "uint16"}}, {"name": "FeatureExtractor/MobilenetV2/layer_19_1_Conv2d_2_1x1_256/Conv2D/merged_input", "shape": [1, 1, 1280, 256], "dtype": "float32", "quantization": {"min": -0.9209866382032145, "scale": 3.1337801157004814e-05, "dtype": "uint16"}}, {"name": "FeatureExtractor/MobilenetV2/Conv_1/BatchNorm/FusedBatchNorm/Offset", "shape": [1280], "dtype": "float32", "quantization": {"min": -3.2464808747598686, "scale": 7.860347863928789e-05, "dtype": "uint16"}}, {"name": "FeatureExtractor/MobilenetV2/Conv_1/Conv2D/merged_input", "shape": [1, 1, 320, 1280], "dtype": "float32", "quantization": {"min": -0.3512624576429739, "scale": 9.115650014090776e-06, "dtype": "uint16"}}, {"name": "FeatureExtractor/MobilenetV2/expanded_conv_16/project/BatchNorm/FusedBatchNorm/Offset", "shape": [320], "dtype": "float32", "quantization": {"min": -5.186370019264422, "scale": 0.00014863640326897722, "dtype": "uint16"}}, {"name": "FeatureExtractor/MobilenetV2/expanded_conv_16/project/Conv2D/merged_input", "shape": [1, 1, 960, 320], "dtype": "float32", "quantization": {"min": -0.9200166080548633, "scale": 3.544933564731874e-05, "dtype": "uint16"}}, {"name": "FeatureExtractor/MobilenetV2/expanded_conv_16/depthwise/BatchNorm/FusedBatchNorm/Offset", "shape": [960], "dtype": "float32", "quantization": {"min": -4.416032187078477, "scale": 0.0001292182059130498, "dtype": "uint16"}}, {"name": "FeatureExtractor/MobilenetV2/expanded_conv_16/depthwise/BatchNorm/FusedBatchNorm/Scaled", "shape": [960], "dtype": "float32", "quantization": {"min": 0.24391864240169525, "scale": 0.0006802479337388994, "dtype": "uint16"}}, {"name": "FeatureExtractor/MobilenetV2/expanded_conv_16/depthwise/depthwise_weights", "shape": [3, 3, 960, 1], "dtype": "float32", "quantization": {"min": -1.7485231822639524, "scale": 5.214491179362855e-05, "dtype": "uint16"}}, {"name": "FeatureExtractor/MobilenetV2/expanded_conv_16/expand/BatchNorm/FusedBatchNorm/Offset", "shape": [960], "dtype": "float32", "quantization": {"min": -2.103079960945952, "scale": 6.022220837712479e-05, "dtype": "uint16"}}, {"name": "FeatureExtractor/MobilenetV2/expanded_conv_16/expand/Conv2D/merged_input", "shape": [1, 1, 160, 960], "dtype": "float32", "quantization": {"min": -0.3219204268057504, "scale": 7.903184808527494e-06, "dtype": "uint16"}}, {"name": "FeatureExtractor/MobilenetV2/expanded_conv_13/project/BatchNorm/FusedBatchNorm/Offset", "shape": [160], "dtype": "float32", "quantization": {"min": -4.3491958127902555, "scale": 0.0001351941502266166, "dtype": "uint16"}}, {"name": "FeatureExtractor/MobilenetV2/expanded_conv_13/project/Conv2D/merged_input", "shape": [1, 1, 576, 160], "dtype": "float32", "quantization": {"min": -0.5379220181070095, "scale": 1.4060747526126185e-05, "dtype": "uint16"}}, {"name": "FeatureExtractor/MobilenetV2/expanded_conv_13/depthwise/BatchNorm/FusedBatchNorm/Offset", "shape": [576], "dtype": "float32", "quantization": {"min": -7.372218622091371, "scale": 0.00026101892869605475, "dtype": "uint16"}}, {"name": "FeatureExtractor/MobilenetV2/expanded_conv_13/depthwise/BatchNorm/FusedBatchNorm/Scaled", "shape": [576], "dtype": "float32", "quantization": {"min": 0.15177884697914124, "scale": 0.000553822742498393, "dtype": "uint16"}}, {"name": "FeatureExtractor/MobilenetV2/expanded_conv_13/depthwise/depthwise_weights", "shape": [3, 3, 576, 1], "dtype": "float32", "quantization": {"min": -1.656352679880622, "scale": 4.9016118604421816e-05, "dtype": "uint16"}}, {"name": "FeatureExtractor/MobilenetV2/expanded_conv_13/expand/BatchNorm/FusedBatchNorm/Offset", "shape": [576], "dtype": "float32", "quantization": {"min": -3.248629279735842, "scale": 8.743215845989455e-05, "dtype": "uint16"}}, {"name": "FeatureExtractor/MobilenetV2/expanded_conv_13/expand/Conv2D/merged_input", "shape": [1, 1, 96, 576], "dtype": "float32", "quantization": {"min": -0.3352122276673521, "scale": 1.2060162895029757e-05, "dtype": "uint16"}}, {"name": "FeatureExtractor/MobilenetV2/expanded_conv_10/project/BatchNorm/FusedBatchNorm/Offset", "shape": [96], "dtype": "float32", "quantization": {"min": -5.871860486382231, "scale": 0.00016033696920927942, "dtype": "uint16"}}, {"name": "FeatureExtractor/MobilenetV2/expanded_conv_10/project/Conv2D/merged_input", "shape": [1, 1, 384, 96], "dtype": "float32", "quantization": {"min": -0.843537991852912, "scale": 3.0617327568977966e-05, "dtype": "uint16"}}, {"name": "FeatureExtractor/MobilenetV2/expanded_conv_10/depthwise/BatchNorm/FusedBatchNorm/Offset", "shape": [384], "dtype": "float32", "quantization": {"min": -7.708391485623876, "scale": 0.00020144231133705837, "dtype": "uint16"}}, {"name": "FeatureExtractor/MobilenetV2/expanded_conv_10/depthwise/BatchNorm/FusedBatchNorm/Scaled", "shape": [384], "dtype": "float32", "quantization": {"min": 0.24016864597797394, "scale": 0.00031749345126282644, "dtype": "uint16"}}, {"name": "FeatureExtractor/MobilenetV2/expanded_conv_10/depthwise/depthwise_weights", "shape": [3, 3, 384, 1], "dtype": "float32", "quantization": {"min": -3.2277470323034816, "scale": 9.742083279921168e-05, "dtype": "uint16"}}, {"name": "FeatureExtractor/MobilenetV2/expanded_conv_10/expand/BatchNorm/FusedBatchNorm/Offset", "shape": [384], "dtype": "float32", "quantization": {"min": -3.7137608756824045, "scale": 9.840905388951202e-05, "dtype": "uint16"}}, {"name": "FeatureExtractor/MobilenetV2/expanded_conv_10/expand/Conv2D/merged_input", "shape": [1, 1, 64, 384], "dtype": "float32", "quantization": {"min": -0.1621945366994407, "scale": 5.715905578638311e-06, "dtype": "uint16"}}, {"name": "FeatureExtractor/MobilenetV2/expanded_conv_6/project/BatchNorm/FusedBatchNorm/Offset", "shape": [64], "dtype": "float32", "quantization": {"min": -9.074184920821098, "scale": 0.0002665506835713979, "dtype": "uint16"}}, {"name": "FeatureExtractor/MobilenetV2/expanded_conv_6/project/Conv2D/merged_input", "shape": [1, 1, 192, 64], "dtype": "float32", "quantization": {"min": -0.9352441891076281, "scale": 2.8345027704428795e-05, "dtype": "uint16"}}, {"name": "FeatureExtractor/MobilenetV2/expanded_conv_6/depthwise/BatchNorm/FusedBatchNorm/Offset", "shape": [192], "dtype": "float32", "quantization": {"min": -3.10821179227479, "scale": 0.0001595755104361223, "dtype": "uint16"}}, {"name": "FeatureExtractor/MobilenetV2/expanded_conv_6/depthwise/BatchNorm/FusedBatchNorm/Scaled", "shape": [192], "dtype": "float32", "quantization": {"min": 0.18412542343139648, "scale": 0.0002874988126038068, "dtype": "uint16"}}, {"name": "FeatureExtractor/MobilenetV2/expanded_conv_6/depthwise/depthwise_weights", "shape": [3, 3, 192, 1], "dtype": "float32", "quantization": {"min": -1.5545446639331282, "scale": 4.711455262715951e-05, "dtype": "uint16"}}, {"name": "FeatureExtractor/MobilenetV2/expanded_conv_6/expand/BatchNorm/FusedBatchNorm/Offset", "shape": [192], "dtype": "float32", "quantization": {"min": -1.5949903470551092, "scale": 5.4266138645043185e-05, "dtype": "uint16"}}, {"name": "FeatureExtractor/MobilenetV2/expanded_conv_6/expand/Conv2D/merged_input", "shape": [1, 1, 32, 192], "dtype": "float32", "quantization": {"min": -0.2330143899737338, "scale": 7.595735892484069e-06, "dtype": "uint16"}}, {"name": "FeatureExtractor/MobilenetV2/expanded_conv_3/project/BatchNorm/FusedBatchNorm/Offset", "shape": [32], "dtype": "float32", "quantization": {"min": -8.414872245893351, "scale": 0.0002617297205652499, "dtype": "uint16"}}, {"name": "FeatureExtractor/MobilenetV2/expanded_conv_3/project/Conv2D/merged_input", "shape": [1, 1, 144, 32], "dtype": "float32", "quantization": {"min": -1.1508321729615505, "scale": 3.162495666286206e-05, "dtype": "uint16"}}, {"name": "FeatureExtractor/MobilenetV2/expanded_conv_3/depthwise/BatchNorm/FusedBatchNorm/Offset", "shape": [144], "dtype": "float32", "quantization": {"min": -2.3963109202394772, "scale": 0.0001649329561731349, "dtype": "uint16"}}, {"name": "FeatureExtractor/MobilenetV2/expanded_conv_3/depthwise/BatchNorm/FusedBatchNorm/Scaled", "shape": [144], "dtype": "float32", "quantization": {"min": 0.14978107810020447, "scale": 3.609682253608171e-05, "dtype": "uint16"}}, {"name": "FeatureExtractor/MobilenetV2/expanded_conv_3/depthwise/depthwise_weights", "shape": [3, 3, 144, 1], "dtype": "float32", "quantization": {"min": -2.034719069816978, "scale": 5.545855896363972e-05, "dtype": "uint16"}}, {"name": "FeatureExtractor/MobilenetV2/expanded_conv_3/expand/BatchNorm/FusedBatchNorm/Offset", "shape": [144], "dtype": "float32", "quantization": {"min": -1.6968046814223725, "scale": 8.129963496825129e-05, "dtype": "uint16"}}, {"name": "FeatureExtractor/MobilenetV2/expanded_conv_3/expand/Conv2D/merged_input", "shape": [1, 1, 24, 144], "dtype": "float32", "quantization": {"min": -0.42197463272856095, "scale": 1.3448962032399316e-05, "dtype": "uint16"}}, {"name": "FeatureExtractor/MobilenetV2/expanded_conv_1/project/BatchNorm/FusedBatchNorm/Offset", "shape": [24], "dtype": "float32", "quantization": {"min": -10.20913716731905, "scale": 0.0004575626195463898, "dtype": "uint16"}}, {"name": "FeatureExtractor/MobilenetV2/expanded_conv_1/project/Conv2D/merged_input", "shape": [1, 1, 96, 24], "dtype": "float32", "quantization": {"min": -1.5368258385961313, "scale": 4.6694999957344775e-05, "dtype": "uint16"}}, {"name": "FeatureExtractor/MobilenetV2/expanded_conv_1/depthwise/BatchNorm/FusedBatchNorm/Offset", "shape": [96], "dtype": "float32", "quantization": {"min": -12.628203550399718, "scale": 0.00028090140471571576, "dtype": "uint16"}}, {"name": "FeatureExtractor/MobilenetV2/expanded_conv_1/depthwise/BatchNorm/FusedBatchNorm/Scaled", "shape": [96], "dtype": "float32", "quantization": {"min": 0.0668574646115303, "scale": 0.000614891638219734, "dtype": "uint16"}}, {"name": "FeatureExtractor/MobilenetV2/expanded_conv_1/depthwise/depthwise_weights", "shape": [3, 3, 96, 1], "dtype": "float32", "quantization": {"min": -3.2175545895664444, "scale": 9.817998869664483e-05, "dtype": "uint16"}}, {"name": "FeatureExtractor/MobilenetV2/expanded_conv_1/expand/BatchNorm/FusedBatchNorm/Offset", "shape": [96], "dtype": "float32", "quantization": {"min": -1.2806888035490245, "scale": 8.413406934364896e-05, "dtype": "uint16"}}, {"name": "FeatureExtractor/MobilenetV2/expanded_conv_1/expand/Conv2D/merged_input", "shape": [1, 1, 16, 96], "dtype": "float32", "quantization": {"min": -0.809838497212143, "scale": 2.2075466736054053e-05, "dtype": "uint16"}}, {"name": "FeatureExtractor/MobilenetV2/expanded_conv/project/BatchNorm/FusedBatchNorm/Offset", "shape": [16], "dtype": "float32", "quantization": {"min": -8.935246483961487, "scale": 0.00037389097346897176, "dtype": "uint16"}}, {"name": "FeatureExtractor/MobilenetV2/expanded_conv/project/Conv2D/merged_input", "shape": [1, 1, 32, 16], "dtype": "float32", "quantization": {"min": -2.7969409400123277, "scale": 8.596449901685295e-05, "dtype": "uint16"}}, {"name": "FeatureExtractor/MobilenetV2/expanded_conv/depthwise/BatchNorm/FusedBatchNorm/Offset", "shape": [32], "dtype": "float32", "quantization": {"min": -2.349881370885972, "scale": 0.0001259787364437877, "dtype": "uint16"}}, {"name": "FeatureExtractor/MobilenetV2/expanded_conv/depthwise/BatchNorm/FusedBatchNorm/Scaled", "shape": [32], "dtype": "float32", "quantization": {"min": 0.19241900742053986, "scale": 0.0007883461757993011, "dtype": "uint16"}}, {"name": "FeatureExtractor/MobilenetV2/expanded_conv/depthwise/depthwise_weights", "shape": [3, 3, 32, 1], "dtype": "float32", "quantization": {"min": -14.286409187127717, "scale": 0.00048313862655149535, "dtype": "uint16"}}, {"name": "FeatureExtractor/MobilenetV2/Conv/BatchNorm/FusedBatchNorm/Offset", "shape": [32], "dtype": "float32", "quantization": {"min": -2.97263440786769, "scale": 9.110685325081801e-05, "dtype": "uint16"}}, {"name": "FeatureExtractor/MobilenetV2/Conv/Conv2D/merged_input", "shape": [3, 3, 3, 32], "dtype": "float32", "quantization": {"min": -2.967111025346247, "scale": 8.876124881375634e-05, "dtype": "uint16"}}, {"name": "add/y", "shape": [], "dtype": "float32", "quantization": {"min": 1.0, "scale": 1.0, "dtype": "uint16"}}, {"name": "Postprocessor/BatchMultiClassNonMaxSuppression/map/TensorArrayStack/range/start", "shape": [], "dtype": "int32", "quantization": {"min": 0.0, "scale": 1.0, "dtype": "uint16"}}, {"name": "Preprocessor/mul/x", "shape": [], "dtype": "float32", "quantization": {"min": 0.007843137718737125, "scale": 1.0, "dtype": "uint16"}}, {"name": "FeatureExtractor/MobilenetV2/expanded_conv_2/project/Conv2D/merged_input", "shape": [1, 1, 144, 24], "dtype": "float32", "quantization": {"min": -1.662690562269476, "scale": 6.006179107284167e-05, "dtype": "uint16"}}, {"name": "FeatureExtractor/MobilenetV2/expanded_conv_2/depthwise/BatchNorm/FusedBatchNorm/Offset", "shape": [144], "dtype": "float32", "quantization": {"min": -7.54988138157088, "scale": 0.00017587312200826685, "dtype": "uint16"}}, {"name": "FeatureExtractor/MobilenetV2/expanded_conv_2/depthwise/BatchNorm/FusedBatchNorm/Scaled", "shape": [144], "dtype": "float32", "quantization": {"min": 0.25115278363227844, "scale": 4.849462593921473e-05, "dtype": "uint16"}}, {"name": "FeatureExtractor/MobilenetV2/expanded_conv_2/depthwise/depthwise_weights", "shape": [3, 3, 144, 1], "dtype": "float32", "quantization": {"min": -6.566927098423899, "scale": 0.0001941154921201271, "dtype": "uint16"}}, {"name": "FeatureExtractor/MobilenetV2/expanded_conv_2/expand/BatchNorm/FusedBatchNorm/Offset", "shape": [144], "dtype": "float32", "quantization": {"min": -1.238288122919865, "scale": 9.442489880432096e-05, "dtype": "uint16"}}, {"name": "FeatureExtractor/MobilenetV2/expanded_conv_2/expand/Conv2D/merged_input", "shape": [1, 1, 24, 144], "dtype": "float32", "quantization": {"min": -0.4678802329797061, "scale": 1.784032002515466e-05, "dtype": "uint16"}}, {"name": "FeatureExtractor/MobilenetV2/expanded_conv_2/project/BatchNorm/FusedBatchNorm/Offset", "shape": [24], "dtype": "float32", "quantization": {"min": -8.881567732685898, "scale": 0.00019119470718114865, "dtype": "uint16"}}, {"name": "FeatureExtractor/MobilenetV2/expanded_conv_4/project/Conv2D/merged_input", "shape": [1, 1, 192, 32], "dtype": "float32", "quantization": {"min": -1.6083436342892625, "scale": 5.171024127220083e-05, "dtype": "uint16"}}, {"name": "FeatureExtractor/MobilenetV2/expanded_conv_4/depthwise/BatchNorm/FusedBatchNorm/Offset", "shape": [192], "dtype": "float32", "quantization": {"min": -16.283263302606077, "scale": 0.000311408963694201, "dtype": "uint16"}}, {"name": "FeatureExtractor/MobilenetV2/expanded_conv_4/depthwise/BatchNorm/FusedBatchNorm/Scaled", "shape": [192], "dtype": "float32", "quantization": {"min": 0.27099287509918213, "scale": 0.0001894981262475955, "dtype": "uint16"}}, {"name": "FeatureExtractor/MobilenetV2/expanded_conv_4/depthwise/depthwise_weights", "shape": [3, 3, 192, 1], "dtype": "float32", "quantization": {"min": -3.897963872483023, "scale": 0.0001598705550194005, "dtype": "uint16"}}, {"name": "FeatureExtractor/MobilenetV2/expanded_conv_4/expand/BatchNorm/FusedBatchNorm/Offset", "shape": [192], "dtype": "float32", "quantization": {"min": -1.3396507696746334, "scale": 6.535200593563751e-05, "dtype": "uint16"}}, {"name": "FeatureExtractor/MobilenetV2/expanded_conv_4/expand/Conv2D/merged_input", "shape": [1, 1, 32, 192], "dtype": "float32", "quantization": {"min": -0.21486824259492784, "scale": 7.176388316854074e-06, "dtype": "uint16"}}, {"name": "FeatureExtractor/MobilenetV2/expanded_conv_4/project/BatchNorm/FusedBatchNorm/Offset", "shape": [32], "dtype": "float32", "quantization": {"min": -8.658601865901586, "scale": 0.00023279566236225158, "dtype": "uint16"}}, {"name": "FeatureExtractor/MobilenetV2/expanded_conv_5/project/Conv2D/merged_input", "shape": [1, 1, 192, 32], "dtype": "float32", "quantization": {"min": -2.5643167091905728, "scale": 7.968665970138511e-05, "dtype": "uint16"}}, {"name": "FeatureExtractor/MobilenetV2/expanded_conv_5/depthwise/BatchNorm/FusedBatchNorm/Offset", "shape": [192], "dtype": "float32", "quantization": {"min": -6.08527648532437, "scale": 0.00016337628494440815, "dtype": "uint16"}}, {"name": "FeatureExtractor/MobilenetV2/expanded_conv_5/depthwise/BatchNorm/FusedBatchNorm/Scaled", "shape": [192], "dtype": "float32", "quantization": {"min": 0.32090550661087036, "scale": 0.00011942069117752067, "dtype": "uint16"}}, {"name": "FeatureExtractor/MobilenetV2/expanded_conv_5/depthwise/depthwise_weights", "shape": [3, 3, 192, 1], "dtype": "float32", "quantization": {"min": -2.875655085851137, "scale": 8.737937058192455e-05, "dtype": "uint16"}}, {"name": "FeatureExtractor/MobilenetV2/expanded_conv_5/expand/BatchNorm/FusedBatchNorm/Offset", "shape": [192], "dtype": "float32", "quantization": {"min": -0.8723405535782994, "scale": 5.520443953792554e-05, "dtype": "uint16"}}, {"name": "FeatureExtractor/MobilenetV2/expanded_conv_5/expand/Conv2D/merged_input", "shape": [1, 1, 32, 192], "dtype": "float32", "quantization": {"min": -0.2273764682141705, "scale": 6.970461931764884e-06, "dtype": "uint16"}}, {"name": "FeatureExtractor/MobilenetV2/expanded_conv_5/project/BatchNorm/FusedBatchNorm/Offset", "shape": [32], "dtype": "float32", "quantization": {"min": -6.0870571730929415, "scale": 0.00019099645977699848, "dtype": "uint16"}}, {"name": "FeatureExtractor/MobilenetV2/expanded_conv_7/project/Conv2D/merged_input", "shape": [1, 1, 384, 64], "dtype": "float32", "quantization": {"min": -1.0245289752619249, "scale": 2.7633957525608222e-05, "dtype": "uint16"}}, {"name": "FeatureExtractor/MobilenetV2/expanded_conv_7/depthwise/BatchNorm/FusedBatchNorm/Offset", "shape": [384], "dtype": "float32", "quantization": {"min": -7.52024424411689, "scale": 0.00021969746550151592, "dtype": "uint16"}}, {"name": "FeatureExtractor/MobilenetV2/expanded_conv_7/depthwise/BatchNorm/FusedBatchNorm/Scaled", "shape": [384], "dtype": "float32", "quantization": {"min": 0.40177860856056213, "scale": 0.00032462376091912633, "dtype": "uint16"}}, {"name": "FeatureExtractor/MobilenetV2/expanded_conv_7/depthwise/depthwise_weights", "shape": [3, 3, 384, 1], "dtype": "float32", "quantization": {"min": -4.079479059165663, "scale": 0.0001124040189338347, "dtype": "uint16"}}, {"name": "FeatureExtractor/MobilenetV2/expanded_conv_7/expand/BatchNorm/FusedBatchNorm/Offset", "shape": [384], "dtype": "float32", "quantization": {"min": -1.1161921042767344, "scale": 6.268277106063539e-05, "dtype": "uint16"}}, {"name": "FeatureExtractor/MobilenetV2/expanded_conv_7/expand/Conv2D/merged_input", "shape": [1, 1, 64, 384], "dtype": "float32", "quantization": {"min": -0.40926875259425677, "scale": 1.1062812612359962e-05, "dtype": "uint16"}}, {"name": "FeatureExtractor/MobilenetV2/expanded_conv_7/project/BatchNorm/FusedBatchNorm/Offset", "shape": [64], "dtype": "float32", "quantization": {"min": -4.869821263047207, "scale": 0.00013048474754286346, "dtype": "uint16"}}, {"name": "FeatureExtractor/MobilenetV2/expanded_conv_8/project/Conv2D/merged_input", "shape": [1, 1, 384, 64], "dtype": "float32", "quantization": {"min": -1.3366759107616206, "scale": 4.2306564670410525e-05, "dtype": "uint16"}}, {"name": "FeatureExtractor/MobilenetV2/expanded_conv_8/depthwise/BatchNorm/FusedBatchNorm/Offset", "shape": [384], "dtype": "float32", "quantization": {"min": -5.5351931519791036, "scale": 0.00013773934086445787, "dtype": "uint16"}}, {"name": "FeatureExtractor/MobilenetV2/expanded_conv_8/depthwise/BatchNorm/FusedBatchNorm/Scaled", "shape": [384], "dtype": "float32", "quantization": {"min": 0.270824134349823, "scale": 0.0005573126356052554, "dtype": "uint16"}}, {"name": "FeatureExtractor/MobilenetV2/expanded_conv_8/depthwise/depthwise_weights", "shape": [3, 3, 384, 1], "dtype": "float32", "quantization": {"min": -3.830027681456793, "scale": 0.00010757296038245121, "dtype": "uint16"}}, {"name": "FeatureExtractor/MobilenetV2/expanded_conv_8/expand/BatchNorm/FusedBatchNorm/Offset", "shape": [384], "dtype": "float32", "quantization": {"min": -2.070817411177817, "scale": 5.7189102766578766e-05, "dtype": "uint16"}}, {"name": "FeatureExtractor/MobilenetV2/expanded_conv_8/expand/Conv2D/merged_input", "shape": [1, 1, 64, 384], "dtype": "float32", "quantization": {"min": -0.2288326043021973, "scale": 8.023020976866885e-06, "dtype": "uint16"}}, {"name": "FeatureExtractor/MobilenetV2/expanded_conv_8/project/BatchNorm/FusedBatchNorm/Offset", "shape": [64], "dtype": "float32", "quantization": {"min": -6.9839078722460695, "scale": 0.00019929537631612789, "dtype": "uint16"}}, {"name": "FeatureExtractor/MobilenetV2/expanded_conv_9/project/Conv2D/merged_input", "shape": [1, 1, 384, 64], "dtype": "float32", "quantization": {"min": -2.420637773894478, "scale": 7.297451912497296e-05, "dtype": "uint16"}}, {"name": "FeatureExtractor/MobilenetV2/expanded_conv_9/depthwise/BatchNorm/FusedBatchNorm/Offset", "shape": [384], "dtype": "float32", "quantization": {"min": -4.248102259270302, "scale": 0.00011515280852430953, "dtype": "uint16"}}, {"name": "FeatureExtractor/MobilenetV2/expanded_conv_9/depthwise/BatchNorm/FusedBatchNorm/Scaled", "shape": [384], "dtype": "float32", "quantization": {"min": 0.28391939401626587, "scale": 0.0005210792198873834, "dtype": "uint16"}}, {"name": "FeatureExtractor/MobilenetV2/expanded_conv_9/depthwise/depthwise_weights", "shape": [3, 3, 384, 1], "dtype": "float32", "quantization": {"min": -4.230878380906202, "scale": 0.0001190421873584368, "dtype": "uint16"}}, {"name": "FeatureExtractor/MobilenetV2/expanded_conv_9/expand/BatchNorm/FusedBatchNorm/Offset", "shape": [384], "dtype": "float32", "quantization": {"min": -1.6417562039118385, "scale": 6.639796990665043e-05, "dtype": "uint16"}}, {"name": "FeatureExtractor/MobilenetV2/expanded_conv_9/expand/Conv2D/merged_input", "shape": [1, 1, 64, 384], "dtype": "float32", "quantization": {"min": -0.5199032940262105, "scale": 1.4754052273858065e-05, "dtype": "uint16"}}, {"name": "FeatureExtractor/MobilenetV2/expanded_conv_9/project/BatchNorm/FusedBatchNorm/Offset", "shape": [64], "dtype": "float32", "quantization": {"min": -11.597042695017313, "scale": 0.00029423663406447743, "dtype": "uint16"}}, {"name": "FeatureExtractor/MobilenetV2/expanded_conv_11/project/Conv2D/merged_input", "shape": [1, 1, 576, 96], "dtype": "float32", "quantization": {"min": -9.4735759626312, "scale": 0.0001657465570731704, "dtype": "uint16"}}, {"name": "FeatureExtractor/MobilenetV2/expanded_conv_11/depthwise/BatchNorm/FusedBatchNorm/Offset", "shape": [576], "dtype": "float32", "quantization": {"min": -8.690518719840579, "scale": 0.00018184805858632725, "dtype": "uint16"}}, {"name": "FeatureExtractor/MobilenetV2/expanded_conv_11/depthwise/BatchNorm/FusedBatchNorm/Scaled", "shape": [576], "dtype": "float32", "quantization": {"min": 0.2052457630634308, "scale": 0.000613608159380082, "dtype": "uint16"}}, {"name": "FeatureExtractor/MobilenetV2/expanded_conv_11/depthwise/depthwise_weights", "shape": [3, 3, 576, 1], "dtype": "float32", "quantization": {"min": -3.621791060943848, "scale": 0.00010952555524809024, "dtype": "uint16"}}, {"name": "FeatureExtractor/MobilenetV2/expanded_conv_11/expand/BatchNorm/FusedBatchNorm/Offset", "shape": [576], "dtype": "float32", "quantization": {"min": -3.1290339410427803, "scale": 7.903397087830013e-05, "dtype": "uint16"}}, {"name": "FeatureExtractor/MobilenetV2/expanded_conv_11/expand/Conv2D/merged_input", "shape": [1, 1, 96, 576], "dtype": "float32", "quantization": {"min": -0.7376785132562468, "scale": 1.9947500426063297e-05, "dtype": "uint16"}}, {"name": "FeatureExtractor/MobilenetV2/expanded_conv_11/project/BatchNorm/FusedBatchNorm/Offset", "shape": [96], "dtype": "float32", "quantization": {"min": -8.992412792755008, "scale": 0.00023529260538895306, "dtype": "uint16"}}, {"name": "FeatureExtractor/MobilenetV2/expanded_conv_12/project/Conv2D/merged_input", "shape": [1, 1, 576, 96], "dtype": "float32", "quantization": {"min": -1.2572271338387377, "scale": 5.981099590098657e-05, "dtype": "uint16"}}, {"name": "FeatureExtractor/MobilenetV2/expanded_conv_12/depthwise/BatchNorm/FusedBatchNorm/Offset", "shape": [576], "dtype": "float32", "quantization": {"min": -7.714825639108448, "scale": 0.00018120979093128313, "dtype": "uint16"}}, {"name": "FeatureExtractor/MobilenetV2/expanded_conv_12/depthwise/BatchNorm/FusedBatchNorm/Scaled", "shape": [576], "dtype": "float32", "quantization": {"min": 0.24691548943519592, "scale": 0.0005389642245238166, "dtype": "uint16"}}, {"name": "FeatureExtractor/MobilenetV2/expanded_conv_12/depthwise/depthwise_weights", "shape": [3, 3, 576, 1], "dtype": "float32", "quantization": {"min": -2.617759834253025, "scale": 8.450656403954628e-05, "dtype": "uint16"}}, {"name": "FeatureExtractor/MobilenetV2/expanded_conv_12/expand/BatchNorm/FusedBatchNorm/Offset", "shape": [576], "dtype": "float32", "quantization": {"min": -2.6978478272901465, "scale": 6.799868499786128e-05, "dtype": "uint16"}}, {"name": "FeatureExtractor/MobilenetV2/expanded_conv_12/expand/Conv2D/merged_input", "shape": [1, 1, 96, 576], "dtype": "float32", "quantization": {"min": -0.23185236138046728, "scale": 7.368345559666538e-06, "dtype": "uint16"}}, {"name": "FeatureExtractor/MobilenetV2/expanded_conv_12/project/BatchNorm/FusedBatchNorm/Offset", "shape": [96], "dtype": "float32", "quantization": {"min": -10.669014722484015, "scale": 0.0003109140236772261, "dtype": "uint16"}}, {"name": "FeatureExtractor/MobilenetV2/expanded_conv_14/project/Conv2D/merged_input", "shape": [1, 1, 960, 160], "dtype": "float32", "quantization": {"min": -0.6016469860346119, "scale": 2.1297238443703075e-05, "dtype": "uint16"}}, {"name": "FeatureExtractor/MobilenetV2/expanded_conv_14/depthwise/BatchNorm/FusedBatchNorm/Offset", "shape": [960], "dtype": "float32", "quantization": {"min": -4.085731849574366, "scale": 0.00010844964297856257, "dtype": "uint16"}}, {"name": "FeatureExtractor/MobilenetV2/expanded_conv_14/depthwise/BatchNorm/FusedBatchNorm/Scaled", "shape": [960], "dtype": "float32", "quantization": {"min": 0.3180994391441345, "scale": 0.00020780119605256117, "dtype": "uint16"}}, {"name": "FeatureExtractor/MobilenetV2/expanded_conv_14/depthwise/depthwise_weights", "shape": [3, 3, 960, 1], "dtype": "float32", "quantization": {"min": -2.65013151987381, "scale": 7.532420543654065e-05, "dtype": "uint16"}}, {"name": "FeatureExtractor/MobilenetV2/expanded_conv_14/expand/BatchNorm/FusedBatchNorm/Offset", "shape": [960], "dtype": "float32", "quantization": {"min": -1.3525941212026116, "scale": 4.27684222223048e-05, "dtype": "uint16"}}, {"name": "FeatureExtractor/MobilenetV2/expanded_conv_14/expand/Conv2D/merged_input", "shape": [1, 1, 160, 960], "dtype": "float32", "quantization": {"min": -0.5089534687843114, "scale": 1.40462954347936e-05, "dtype": "uint16"}}, {"name": "FeatureExtractor/MobilenetV2/expanded_conv_14/project/BatchNorm/FusedBatchNorm/Offset", "shape": [160], "dtype": "float32", "quantization": {"min": -3.6510191039998316, "scale": 0.00011345968190434232, "dtype": "uint16"}}, {"name": "FeatureExtractor/MobilenetV2/expanded_conv_15/project/Conv2D/merged_input", "shape": [1, 1, 960, 160], "dtype": "float32", "quantization": {"min": -1.5656986702649935, "scale": 3.8283949195906634e-05, "dtype": "uint16"}}, {"name": "FeatureExtractor/MobilenetV2/expanded_conv_15/depthwise/BatchNorm/FusedBatchNorm/Offset", "shape": [960], "dtype": "float32", "quantization": {"min": -11.034359897675516, "scale": 0.00023760464895942112, "dtype": "uint16"}}, {"name": "FeatureExtractor/MobilenetV2/expanded_conv_15/depthwise/BatchNorm/FusedBatchNorm/Scaled", "shape": [960], "dtype": "float32", "quantization": {"min": 0.331659734249115, "scale": 0.00030672528646062675, "dtype": "uint16"}}, {"name": "FeatureExtractor/MobilenetV2/expanded_conv_15/depthwise/depthwise_weights", "shape": [3, 3, 960, 1], "dtype": "float32", "quantization": {"min": -1.855077784731012, "scale": 5.929986845030886e-05, "dtype": "uint16"}}, {"name": "FeatureExtractor/MobilenetV2/expanded_conv_15/expand/BatchNorm/FusedBatchNorm/Offset", "shape": [960], "dtype": "float32", "quantization": {"min": -1.5444653454730592, "scale": 5.7198183300239215e-05, "dtype": "uint16"}}, {"name": "FeatureExtractor/MobilenetV2/expanded_conv_15/expand/Conv2D/merged_input", "shape": [1, 1, 160, 960], "dtype": "float32", "quantization": {"min": -0.569422130932331, "scale": 1.4492800481861312e-05, "dtype": "uint16"}}, {"name": "FeatureExtractor/MobilenetV2/expanded_conv_15/project/BatchNorm/FusedBatchNorm/Offset", "shape": [160], "dtype": "float32", "quantization": {"min": -7.327453069213218, "scale": 0.00023468126282590455, "dtype": "uint16"}}, {"name": "BoxPredictor_5/BoxEncodingPredictor/biases", "shape": [24], "dtype": "float32", "quantization": {"min": -0.005576355518800057, "scale": 1.1794322163282692e-07, "dtype": "uint16"}}, {"name": "BoxPredictor_5/BoxEncodingPredictor/weights", "shape": [1, 1, 128, 24], "dtype": "float32", "quantization": {"min": -0.06153487578276558, "scale": 1.8425270468235343e-06, "dtype": "uint16"}}, {"name": "BoxPredictor_5/BoxEncodingPredictor_depthwise/BatchNorm/FusedBatchNorm/Offset", "shape": [128], "dtype": "float32", "quantization": {"min": -0.08729698313820086, "scale": 3.4577170807700267e-06, "dtype": "uint16"}}, {"name": "BoxPredictor_5/BoxEncodingPredictor_depthwise/BatchNorm/FusedBatchNorm/Scaled", "shape": [128], "dtype": "float32", "quantization": {"min": 2.3907814025878906, "scale": 1.9518054121917796e-07, "dtype": "uint16"}}, {"name": "BoxPredictor_5/BoxEncodingPredictor_depthwise/depthwise_weights", "shape": [3, 3, 128, 1], "dtype": "float32", "quantization": {"min": -0.059310100179390424, "scale": 1.809062076540809e-06, "dtype": "uint16"}}, {"name": "BoxPredictor_4/BoxEncodingPredictor/biases", "shape": [24], "dtype": "float32", "quantization": {"min": -0.016971021817243626, "scale": 2.9100330625085524e-07, "dtype": "uint16"}}, {"name": "BoxPredictor_4/BoxEncodingPredictor/weights", "shape": [1, 1, 256, 24], "dtype": "float32", "quantization": {"min": -0.08133862852331719, "scale": 2.270886942970495e-06, "dtype": "uint16"}}, {"name": "BoxPredictor_4/BoxEncodingPredictor_depthwise/BatchNorm/FusedBatchNorm/Offset", "shape": [256], "dtype": "float32", "quantization": {"min": -0.17863175970671097, "scale": 5.41439620837509e-06, "dtype": "uint16"}}, {"name": "BoxPredictor_4/BoxEncodingPredictor_depthwise/BatchNorm/FusedBatchNorm/Scaled", "shape": [256], "dtype": "float32", "quantization": {"min": 2.3093507289886475, "scale": 1.4670664434475913e-06, "dtype": "uint16"}}, {"name": "BoxPredictor_4/BoxEncodingPredictor_depthwise/depthwise_weights", "shape": [3, 3, 256, 1], "dtype": "float32", "quantization": {"min": -0.06586971343418567, "scale": 2.1110734386957783e-06, "dtype": "uint16"}}, {"name": "BoxPredictor_3/BoxEncodingPredictor/biases", "shape": [24], "dtype": "float32", "quantization": {"min": -0.02476075846231332, "scale": 4.074503614005812e-07, "dtype": "uint16"}}, {"name": "BoxPredictor_3/BoxEncodingPredictor/weights", "shape": [1, 1, 256, 24], "dtype": "float32", "quantization": {"min": -0.12667474622044583, "scale": 3.7576680080818077e-06, "dtype": "uint16"}}, {"name": "BoxPredictor_3/BoxEncodingPredictor_depthwise/BatchNorm/FusedBatchNorm/Offset", "shape": [256], "dtype": "float32", "quantization": {"min": -0.2104463523027416, "scale": 6.752217162471255e-06, "dtype": "uint16"}}, {"name": "BoxPredictor_3/BoxEncodingPredictor_depthwise/BatchNorm/FusedBatchNorm/Scaled", "shape": [256], "dtype": "float32", "quantization": {"min": 2.3434886932373047, "scale": 1.3882011354783584e-06, "dtype": "uint16"}}, {"name": "BoxPredictor_3/BoxEncodingPredictor_depthwise/depthwise_weights", "shape": [3, 3, 256, 1], "dtype": "float32", "quantization": {"min": -0.07146956320893821, "scale": 2.863363910614512e-06, "dtype": "uint16"}}, {"name": "BoxPredictor_2/BoxEncodingPredictor/biases", "shape": [24], "dtype": "float32", "quantization": {"min": -0.03985275414240056, "scale": 6.793507686685059e-07, "dtype": "uint16"}}, {"name": "BoxPredictor_2/BoxEncodingPredictor/weights", "shape": [1, 1, 512, 24], "dtype": "float32", "quantization": {"min": -0.09403272343212128, "scale": 3.1877660665848967e-06, "dtype": "uint16"}}, {"name": "BoxPredictor_2/BoxEncodingPredictor_depthwise/BatchNorm/FusedBatchNorm/Offset", "shape": [512], "dtype": "float32", "quantization": {"min": -0.3971417647855291, "scale": 9.724571237922797e-06, "dtype": "uint16"}}, {"name": "BoxPredictor_2/BoxEncodingPredictor_depthwise/BatchNorm/FusedBatchNorm/Scaled", "shape": [512], "dtype": "float32", "quantization": {"min": 2.307088851928711, "scale": 1.952587589570384e-06, "dtype": "uint16"}}, {"name": "BoxPredictor_2/BoxEncodingPredictor_depthwise/depthwise_weights", "shape": [3, 3, 512, 1], "dtype": "float32", "quantization": {"min": -0.08814398333870266, "scale": 3.169506772337384e-06, "dtype": "uint16"}}, {"name": "BoxPredictor_1/BoxEncodingPredictor/biases", "shape": [24], "dtype": "float32", "quantization": {"min": -0.08589185109725668, "scale": 2.0801087643431337e-06, "dtype": "uint16"}}, {"name": "BoxPredictor_1/BoxEncodingPredictor/weights", "shape": [1, 1, 1280, 24], "dtype": "float32", "quantization": {"min": -0.11833971693862846, "scale": 3.783964857025915e-06, "dtype": "uint16"}}, {"name": "BoxPredictor_1/BoxEncodingPredictor_depthwise/BatchNorm/FusedBatchNorm/Offset", "shape": [1280], "dtype": "float32", "quantization": {"min": -0.365403911677598, "scale": 9.714055499723468e-06, "dtype": "uint16"}}, {"name": "BoxPredictor_1/BoxEncodingPredictor_depthwise/BatchNorm/FusedBatchNorm/Scaled", "shape": [1280], "dtype": "float32", "quantization": {"min": 2.214153289794922, "scale": 3.0393302872659884e-06, "dtype": "uint16"}}, {"name": "BoxPredictor_1/BoxEncodingPredictor_depthwise/depthwise_weights", "shape": [3, 3, 1280, 1], "dtype": "float32", "quantization": {"min": -0.09602990453022428, "scale": 3.87123698017513e-06, "dtype": "uint16"}}, {"name": "BoxPredictor_0/BoxEncodingPredictor/biases", "shape": [12], "dtype": "float32", "quantization": {"min": -0.0511133930707488, "scale": 2.300436251440155e-06, "dtype": "uint16"}}, {"name": "BoxPredictor_0/BoxEncodingPredictor/weights", "shape": [1, 1, 576, 12], "dtype": "float32", "quantization": {"min": -0.17448813344399625, "scale": 5.0822279860191725e-06, "dtype": "uint16"}}, {"name": "BoxPredictor_0/BoxEncodingPredictor_depthwise/BatchNorm/FusedBatchNorm/Offset", "shape": [576], "dtype": "float32", "quantization": {"min": -0.7669709004353192, "scale": 2.5098036599211992e-05, "dtype": "uint16"}}, {"name": "BoxPredictor_0/BoxEncodingPredictor_depthwise/BatchNorm/FusedBatchNorm/Scaled", "shape": [576], "dtype": "float32", "quantization": {"min": 2.056427001953125, "scale": 5.654156540008962e-06, "dtype": "uint16"}}, {"name": "BoxPredictor_0/BoxEncodingPredictor_depthwise/depthwise_weights", "shape": [3, 3, 576, 1], "dtype": "float32", "quantization": {"min": -0.12087952790677689, "scale": 4.4240942761328145e-06, "dtype": "uint16"}}, {"name": "Postprocessor/Decode/transpose/perm", "shape": [2], "dtype": "int32", "quantization": {"min": -0.0, "scale": 1.5259021896696422e-05, "dtype": "uint16"}}, {"name": "ConstantFolding/Postprocessor/Decode/truediv_2_recip", "shape": [], "dtype": "float32", "quantization": {"min": 0.20000000298023224, "scale": 1.0, "dtype": "uint16"}}, {"name": "Postprocessor/Reshape_1/shape", "shape": [2], "dtype": "int32", "quantization": {"min": -1.0, "scale": 7.629510948348211e-05, "dtype": "uint16"}}, {"name": "Postprocessor/ExpandDims", "shape": [1, 1917, 4], "dtype": "float32", "quantization": {"min": -0.44286198021118267, "scale": 2.8774087467427892e-05, "dtype": "uint16"}}, {"name": "ConstantFolding/Postprocessor/Decode/truediv_4_recip", "shape": [], "dtype": "float32", "quantization": {"min": 0.5, "scale": 1.0, "dtype": "uint16"}}, {"name": "ConstantFolding/Postprocessor/Decode/truediv_recip", "shape": [], "dtype": "float32", "quantization": {"min": 0.10000000149011612, "scale": 1.0, "dtype": "uint16"}}, {"name": "ConstantFolding/Postprocessor/truediv_recip", "shape": [], "dtype": "float32", "quantization": {"min": 0.0033333334140479565, "scale": 1.0, "dtype": "uint16"}}, {"name": "Postprocessor/Slice/size", "shape": [3], "dtype": "int32", "quantization": {"min": -1.0, "scale": 1.0, "dtype": "uint16"}}, {"name": "Postprocessor/Slice/begin", "shape": [3], "dtype": "int32", "quantization": {"min": -0.0, "scale": 1.5259021896696422e-05, "dtype": "uint16"}}, {"name": "BoxPredictor_5/ClassPredictor/biases", "shape": [12], "dtype": "float32", "quantization": {"min": -0.33938310994357584, "scale": 1.0384086832407547e-05, "dtype": "uint16"}}, {"name": "BoxPredictor_5/ClassPredictor/weights", "shape": [1, 1, 128, 12], "dtype": "float32", "quantization": {"min": -0.19071476453659583, "scale": 5.66473889971176e-06, "dtype": "uint16"}}, {"name": "BoxPredictor_5/ClassPredictor_depthwise/BatchNorm/FusedBatchNorm/Offset", "shape": [128], "dtype": "float32", "quantization": {"min": -0.35805593252072865, "scale": 1.3461255405117811e-05, "dtype": "uint16"}}, {"name": "BoxPredictor_5/ClassPredictor_depthwise/BatchNorm/FusedBatchNorm/Scaled", "shape": [128], "dtype": "float32", "quantization": {"min": 2.3958683013916016, "scale": 2.868790152490007e-06, "dtype": "uint16"}}, {"name": "BoxPredictor_5/ClassPredictor_depthwise/depthwise_weights", "shape": [3, 3, 128, 1], "dtype": "float32", "quantization": {"min": -0.17539613638188317, "scale": 5.522548374744432e-06, "dtype": "uint16"}}, {"name": "BoxPredictor_4/ClassPredictor/biases", "shape": [12], "dtype": "float32", "quantization": {"min": -0.1630715112414396, "scale": 4.943358531630884e-06, "dtype": "uint16"}}, {"name": "BoxPredictor_4/ClassPredictor/weights", "shape": [1, 1, 256, 12], "dtype": "float32", "quantization": {"min": -0.13042524878489595, "scale": 3.947017576107492e-06, "dtype": "uint16"}}, {"name": "BoxPredictor_4/ClassPredictor_depthwise/BatchNorm/FusedBatchNorm/Offset", "shape": [256], "dtype": "float32", "quantization": {"min": -0.20367974054556903, "scale": 6.5667131104094215e-06, "dtype": "uint16"}}, {"name": "BoxPredictor_4/ClassPredictor_depthwise/BatchNorm/FusedBatchNorm/Scaled", "shape": [256], "dtype": "float32", "quantization": {"min": 2.3118457794189453, "scale": 1.9624284724035223e-06, "dtype": "uint16"}}, {"name": "BoxPredictor_4/ClassPredictor_depthwise/depthwise_weights", "shape": [3, 3, 256, 1], "dtype": "float32", "quantization": {"min": -0.11665727357060555, "scale": 3.2206193355034388e-06, "dtype": "uint16"}}, {"name": "BoxPredictor_3/ClassPredictor/biases", "shape": [12], "dtype": "float32", "quantization": {"min": -0.17041588252693235, "scale": 5.280611134324874e-06, "dtype": "uint16"}}, {"name": "BoxPredictor_3/ClassPredictor/weights", "shape": [1, 1, 256, 12], "dtype": "float32", "quantization": {"min": -0.3794182295929133, "scale": 1.1477349797111541e-05, "dtype": "uint16"}}, {"name": "BoxPredictor_3/ClassPredictor_depthwise/BatchNorm/FusedBatchNorm/Offset", "shape": [256], "dtype": "float32", "quantization": {"min": -0.32949111032715156, "scale": 1.1555010006212574e-05, "dtype": "uint16"}}, {"name": "BoxPredictor_3/ClassPredictor_depthwise/BatchNorm/FusedBatchNorm/Scaled", "shape": [256], "dtype": "float32", "quantization": {"min": 2.3501625061035156, "scale": 2.101303156466145e-06, "dtype": "uint16"}}, {"name": "BoxPredictor_3/ClassPredictor_depthwise/depthwise_weights", "shape": [3, 3, 256, 1], "dtype": "float32", "quantization": {"min": -0.1303296628083482, "scale": 4.2408454642830995e-06, "dtype": "uint16"}}, {"name": "BoxPredictor_2/ClassPredictor/biases", "shape": [12], "dtype": "float32", "quantization": {"min": -0.18652393441637913, "scale": 5.5349990924472275e-06, "dtype": "uint16"}}, {"name": "BoxPredictor_2/ClassPredictor/weights", "shape": [1, 1, 512, 12], "dtype": "float32", "quantization": {"min": -0.3227907500023644, "scale": 9.791032213126802e-06, "dtype": "uint16"}}, {"name": "BoxPredictor_2/ClassPredictor_depthwise/BatchNorm/FusedBatchNorm/Offset", "shape": [512], "dtype": "float32", "quantization": {"min": -0.4714158404771129, "scale": 1.4460165040247626e-05, "dtype": "uint16"}}, {"name": "BoxPredictor_2/ClassPredictor_depthwise/BatchNorm/FusedBatchNorm/Scaled", "shape": [512], "dtype": "float32", "quantization": {"min": 2.3506741523742676, "scale": 1.6909401613414319e-06, "dtype": "uint16"}}, {"name": "BoxPredictor_2/ClassPredictor_depthwise/depthwise_weights", "shape": [3, 3, 512, 1], "dtype": "float32", "quantization": {"min": -0.1457316562218461, "scale": 6.113674381081769e-06, "dtype": "uint16"}}, {"name": "BoxPredictor_1/ClassPredictor/biases", "shape": [12], "dtype": "float32", "quantization": {"min": -0.24957614359470387, "scale": 7.651016051339787e-06, "dtype": "uint16"}}, {"name": "BoxPredictor_1/ClassPredictor/weights", "shape": [1, 1, 1280, 12], "dtype": "float32", "quantization": {"min": -0.41434962131333697, "scale": 1.2676281742384953e-05, "dtype": "uint16"}}, {"name": "BoxPredictor_1/ClassPredictor_depthwise/BatchNorm/FusedBatchNorm/Offset", "shape": [1280], "dtype": "float32", "quantization": {"min": -0.6902687950657063, "scale": 2.0715728671579673e-05, "dtype": "uint16"}}, {"name": "BoxPredictor_1/ClassPredictor_depthwise/BatchNorm/FusedBatchNorm/Scaled", "shape": [1280], "dtype": "float32", "quantization": {"min": 2.1771397590637207, "scale": 4.871757241311149e-06, "dtype": "uint16"}}, {"name": "BoxPredictor_1/ClassPredictor_depthwise/depthwise_weights", "shape": [3, 3, 1280, 1], "dtype": "float32", "quantization": {"min": -0.29479622085898277, "scale": 1.1746273293978674e-05, "dtype": "uint16"}}, {"name": "BoxPredictor_0/ClassPredictor/biases", "shape": [6], "dtype": "float32", "quantization": {"min": -0.2009030240655464, "scale": 6.045650870137714e-06, "dtype": "uint16"}}, {"name": "BoxPredictor_0/ClassPredictor/weights", "shape": [1, 1, 576, 6], "dtype": "float32", "quantization": {"min": -0.3641918137752556, "scale": 1.1031769720269458e-05, "dtype": "uint16"}}, {"name": "BoxPredictor_0/ClassPredictor_depthwise/BatchNorm/FusedBatchNorm/Offset", "shape": [576], "dtype": "float32", "quantization": {"min": -1.1000440754078797, "scale": 3.219232903362148e-05, "dtype": "uint16"}}, {"name": "BoxPredictor_0/ClassPredictor_depthwise/BatchNorm/FusedBatchNorm/Scaled", "shape": [576], "dtype": "float32", "quantization": {"min": 1.738294243812561, "scale": 1.2599275015198485e-05, "dtype": "uint16"}}, {"name": "BoxPredictor_0/ClassPredictor_depthwise/depthwise_weights", "shape": [3, 3, 576, 1], "dtype": "float32", "quantization": {"min": -0.19318204624770915, "scale": 1.0162127630074127e-05, "dtype": "uint16"}}, {"name": "Preprocessor/map/while/add/y", "shape": [], "dtype": "int32", "quantization": {"min": 1.0, "scale": 1.0, "dtype": "uint16"}}, {"name": "Preprocessor/map/while/ResizeImage/stack", "shape": [2], "dtype": "int32", "quantization": {"min": 300.0, "scale": 1.0, "dtype": "uint16"}}, {"name": "Preprocessor/map/while/ResizeImage/resize/ExpandDims/dim", "shape": [], "dtype": "int32", "quantization": {"min": 0.0, "scale": 1.0, "dtype": "uint16"}}, {"name": "Preprocessor/map/while/ResizeImage/stack_1", "shape": [3], "dtype": "int32", "quantization": {"min": 3.0, "scale": 0.004531929503318838, "dtype": "uint16"}}, {"name": "ConstantFolding/Postprocessor/BatchMultiClassNonMaxSuppression/ones/packed_const_axis", "shape": [], "dtype": "int32", "quantization": {"min": 0.0, "scale": 1.0, "dtype": "uint16"}}, {"name": "Postprocessor/BatchMultiClassNonMaxSuppression/map/while/MultiClassNonMaxSuppression/range_1/delta", "shape": [], "dtype": "int32", "quantization": {"min": 1.0, "scale": 1.0, "dtype": "uint16"}}, {"name": "Postprocessor/BatchMultiClassNonMaxSuppression/map/while/PadOrClipBoxList/strided_slice_2/stack_1", "shape": [1], "dtype": "int32", "quantization": {"min": 1.0, "scale": 1.0, "dtype": "uint16"}}, {"name": "Postprocessor/BatchMultiClassNonMaxSuppression/map/while/PadOrClipBoxList/strided_slice_2/stack", "shape": [1], "dtype": "int32", "quantization": {"min": 0.0, "scale": 1.0, "dtype": "uint16"}}, {"name": "Postprocessor/BatchMultiClassNonMaxSuppression/map/while/PadOrClipBoxList/Select/e", "shape": [], "dtype": "int32", "quantization": {"min": -1.0, "scale": 1.0, "dtype": "uint16"}}, {"name": "Postprocessor/BatchMultiClassNonMaxSuppression/map/while/PadOrClipBoxList/sub_2/x", "shape": [], "dtype": "int32", "quantization": {"min": 100.0, "scale": 1.0, "dtype": "uint16"}}, {"name": "Postprocessor/BatchMultiClassNonMaxSuppression/map/while/PadOrClipBoxList/Greater/y", "shape": [], "dtype": "int32", "quantization": {"min": 0.0, "scale": 1.0, "dtype": "uint16"}}, {"name": "Postprocessor/BatchMultiClassNonMaxSuppression/map/while/PadOrClipBoxList/strided_slice_1/stack_1", "shape": [1], "dtype": "int32", "quantization": {"min": 2.0, "scale": 1.0, "dtype": "uint16"}}, {"name": "Postprocessor/BatchMultiClassNonMaxSuppression/map/while/MultiClassNonMaxSuppression/ones_1/Reshape/shape", "shape": [1], "dtype": "int32", "quantization": {"min": -1.0, "scale": 1.0, "dtype": "uint16"}}, {"name": "Postprocessor/BatchMultiClassNonMaxSuppression/map/while/MultiClassNonMaxSuppression/add_1/y", "shape": [], "dtype": "float32", "quantization": {"min": 0.0, "scale": 1.0, "dtype": "uint16"}}, {"name": "Postprocessor/BatchMultiClassNonMaxSuppression/map/while/MultiClassNonMaxSuppression/non_max_suppression/score_threshold", "shape": [], "dtype": "float32", "quantization": {"min": 0.30000001192092896, "scale": 1.0, "dtype": "uint16"}}, {"name": "Postprocessor/BatchMultiClassNonMaxSuppression/map/while/MultiClassNonMaxSuppression/non_max_suppression/iou_threshold", "shape": [], "dtype": "float32", "quantization": {"min": 0.6000000238418579, "scale": 1.0, "dtype": "uint16"}}, {"name": "Postprocessor/BatchMultiClassNonMaxSuppression/map/while/Reshape/shape", "shape": [3], "dtype": "int32", "quantization": {"min": -1.0, "scale": 7.629510948348211e-05, "dtype": "uint16"}}, {"name": "Postprocessor/BatchMultiClassNonMaxSuppression/map/while/Slice/begin", "shape": [3], "dtype": "int32", "quantization": {"min": 0.0, "scale": 1.0, "dtype": "uint16"}}, {"name": "Postprocessor/BatchMultiClassNonMaxSuppression/map/while/Reshape_1/shape", "shape": [2], "dtype": "int32", "quantization": {"min": -1.0000152590218967, "scale": 3.0518043793392844e-05, "dtype": "uint16"}}, {"name": "Postprocessor/BatchMultiClassNonMaxSuppression/map/while/PadOrClipBoxList/zeros_1", "shape": [2], "dtype": "int32", "quantization": {"min": 0.0, "scale": 1.0, "dtype": "uint16"}}, {"name": "Postprocessor/BatchMultiClassNonMaxSuppression/map/while/MultiClassNonMaxSuppression/ChangeCoordinateFrame/truediv/x", "shape": [], "dtype": "float32", "quantization": {"min": 1.0, "scale": 1.0, "dtype": "uint16"}}, {"name": "Postprocessor/BatchMultiClassNonMaxSuppression/map/while/MultiClassNonMaxSuppression/mul_1/x", "shape": [], "dtype": "float32", "quantization": {"min": -1.0, "scale": 1.0, "dtype": "uint16"}}, {"name": "Postprocessor/BatchMultiClassNonMaxSuppression/map/while/MultiClassNonMaxSuppression/ChangeCoordinateFrame/strided_slice_2/stack_1", "shape": [1], "dtype": "int32", "quantization": {"min": 4.0, "scale": 1.0, "dtype": "uint16"}}, {"name": "Postprocessor/BatchMultiClassNonMaxSuppression/map/while/MultiClassNonMaxSuppression/ChangeCoordinateFrame/strided_slice/stack_1", "shape": [1], "dtype": "int32", "quantization": {"min": 3.0, "scale": 1.0, "dtype": "uint16"}}, {"name": "Postprocessor/BatchMultiClassNonMaxSuppression/map/while/PadOrClipBoxList/sub_3/x", "shape": [], "dtype": "int32", "quantization": {"min": 4.0, "scale": 1.0, "dtype": "uint16"}}, {"name": "ConstantFolding/Postprocessor/BatchMultiClassNonMaxSuppression/map/while/PadOrClipBoxList/Slice_1/size_const_axis", "shape": [], "dtype": "int32", "quantization": {"min": 0.0, "scale": 1.0, "dtype": "uint16"}}, {"name": "ConstantFolding/Postprocessor/BatchMultiClassNonMaxSuppression/map/while/PadOrClipBoxList/Slice_5/size_const_axis", "shape": [], "dtype": "int32", "quantization": {"min": 0.0, "scale": 1.0, "dtype": "uint16"}}, {"name": "ConstantFolding/Postprocessor/BatchMultiClassNonMaxSuppression/map/while/PadOrClipBoxList/stack_1/values_1_const_axis", "shape": [], "dtype": "int32", "quantization": {"min": 0.0, "scale": 1.0, "dtype": "uint16"}}, {"name": "ConstantFolding/Postprocessor/BatchMultiClassNonMaxSuppression/map/while/PadOrClipBoxList/stack_5/values_1_const_axis", "shape": [], "dtype": "int32", "quantization": {"min": 0.0, "scale": 1.0, "dtype": "uint16"}}]}]}